DQN.pt (torch, 22745 bytes, 19 tensors)

weight f4 [32, 3, 3, 3]
00000000: 92de ce3d 6e8a 603d a902 cebc 34df 173e
00000010: a2a2 963d 6af1 8f3d 0c06 33be d111 1e3e
00000020: 05aa 3fbe 2f44 853d c88e b83d e1cf 92bd
00000030: 4ed6 833c 4047 f33d b72e 7dbd ea73 2ebe
00000040: 66ee 113d a2f8 29be ae79 13bd 1ef5 b4bd
00000050: 83eb 83bd e9be 20be d105 0fbe 9084 30be
00000060: 6bad c83d 4648 d13d 7a0d c2bd eec8 b83c
00000070: 4923 a63d a9e0 443e 6004 36bd c40e 38bd
00000080: 12e5 d53d 84b5 bebc aa8f 153e ad42 5dbd
00000090: 6e16 363e 76bb 7fbd 1d50 a23d 1ab4 23be
000000a0: 832d 13be cc97 343e 95d4 0ebc e365 d3bd
000000b0: 95ea a0bd 74cc 0cbe 8cf5 20be 50b8 f53d
000000c0: 97bb 43be 8808 6dbd 7356 05bd 27bd 203e
000000d0: b309 9ebd cdf2 2fbe 3d10 243e fdd7 fe3a
000000e0: 6fd1 0dbe 8797 c73d 4957 243d 13ad 803d
000000f0: 6eb2 1cbd c322 84bd f105 d33c 9a8d 953d
00000100: b309 1fbe 33dd 853b 52f6 13be cd49 66bd
00000110: 3893 b5bb d047 163e bbd4 d8bc 91ee d43c
00000120: 5413 49bd 84c8 a1bd 0d9e 07be 7ef8 143e
00000130: d322 3fbe 7427 be3c d523 0c3e 3072 0b3e
00000140: b60a d23b 5077 f2bd 95e0 a4bd 38b4 64bb
00000150: 181b b13d 4aab dabc eb4e bd3d 98d2 b63d
00000160: 69f8 0a3e 233f 7bbd 708c 6ebd ad86 19be
00000170: d94a 493d 826d 163d 14b5 d3bd 4adf 193e
00000180: 6ca2 2d3e a69e fc3c 17b1 7a3d 50e9 b73d
00000190: 4edf 0dbe f002 39bd c59e 093e 9a6c 00be
000001a0: 6273 cdbd 02c7 d6bd 9a12 c0bd 52e0 edbd
000001b0: 6f8b 243e 4793 1cbe 7011 f3bd 54bf 153c
000001c0: 70e9 3f3e ed28 1b3e 8221 14bd 2fa6 003e
000001d0: 8d96 043e 202b f5bd fe6c c2bd 7f66 063d
000001e0: b6b0 cc3b 951c e63d e7f6 a0bd 519c 313d
000001f0: 1530 aebd d614 fdbd 44eb 3b3e b88c ef3d
00000200: 3894 573b 46ff 09be c77f 413e e393 853d
00000210: cbda 0ebe 38cf 24be 7d8c c4bd df72 c23d
00000220: ce67 0f3e ddf3 0cbe 4abc dc3c c013 29be
00000230: fbb4 c73d e6b8 2c3c cd2b 8abd be0e 8bbc
00000240: d35f 203c c8b9 0cbe a2c9 dcbc 2b23 3d3e
00000250: 7553 46bc 8091 21be 90b9 74bd 367e 813c
00000260: 7293 c93c 26c1 183e 5152 ebbc eba8 093d
00000270: 1952 2abe 04e2 bd3d 3cfe 3ebe 65c7 1ebd
00000280: 9d9f 93bd db7c 79bd 815f c0ba e798 8c3d
00000290: ca6a dabc 9d90 3c3d 56d0 0bbe 50c3 6abd
000002a0: a8c8 b83d 751b df3d 8ce5 c2bc c9bc 413e
000002b0: 3a4a 113e a573 dd3d dddf 2ebe 47a6 fc3d
000002c0: 4219 43be 501b 14be 7422 3fbe 80e4 b03d
000002d0: c69b 643d 75ca 04be b6c0 adbc c38a 073e
000002e0: 538a 003d acdd a13c 1a9e 923d 79f7 1fbe
000002f0: 89ec ab3d b3c6 233e bac2 243e 75a6 01be
00000300: 2996 eebc 427a 58bd 537e 233e 602f ef3d
00000310: 7d54 3d3e 95b8 f5bd 7fe5 f83d abd2 89bd
00000320: 971c 003e 2238 143e f61a d43d 6120 673d
00000330: 7b0b 9bbd aa75 68bb ab56 003e bb6f babd
00000340: cbca 10be 75c2 223e 8f36 fc3d 1319 1f3e
00000350: 6f26 31be 4037 ee3d 05de 223e 9d21 ac3d
00000360: 7823 f63d 14fb 153e e2d5 a73d e1c7 2dbd
00000370: 3944 35be 58e5 b43d 5e14 01be 9365 bdbd
00000380: 8ac9 3fbe cfc1 4a3d bf0e 68bc 91a9 04be
00000390: 89f9 c5bd a520 3e3e 7601 ca3b e821 45be
000003a0: 4231 b1bd d56b 0dbe b464 fbbd 50bd 103e
000003b0: d213 163e bf3f 063d 1d1b b0bc 8f91 1fbe
000003c0: aa87 58bd c859 29bc f719 ed3c 6453 93bd
000003d0: 7fd7 63bc 480b a7bd b8e2 06be d1c2 253d
000003e0: 3474 333e aae3 16be 9797 813d bbc9 003e
000003f0: b96a b9bd 8430 92bd 71ae 033e 4382 063d
0.10101046 0.054819517 -0.025147753 0.14831239 0.073552385 0.07028468 -0.17482775 0.15436484
-0.18717201 0.065071456 0.09011608 -0.07168556 0.0160934 0.11878824 -0.06181213 -0.17036405
0.035627745 -0.16598752 -0.036004715 -0.08835815 -0.06441405 -0.15697826 -0.13967063 -0.17238069
0.09798702 0.10218863 -0.09475227 0.022556748 0.08112199 0.19226326 -0.044437766 -0.044935957
0.10444082 -0.023279913 0.14605585 -0.054018665 0.17781994 -0.062434636 0.07925437 -0.15986672
-0.1437283 0.17636031 -0.008717676 -0.10322168 -0.07857243 -0.13749868 -0.15718669 0.119980454
-0.19114529 -0.057869464 -0.032553148 0.15697156 -0.07716694 -0.17182465 0.1602182 0.0019443032
-0.13849424 0.097456984 0.040122304 0.06283011 -0.0382561 -0.06451943 0.025759669 0.07302399
-0.15531044 0.004085207 -0.14449432 -0.056222726 -0.0055412315 0.14675832 -0.026468625 0.025992664
-0.0490907 -0.078995734 -0.13243885 0.14547917 -0.18665628 0.023212172 0.13685544 0.13617778
0.0064099682 -0.11839163 -0.08050648 -0.0034897458 0.08647746 -0.026693005 0.09243568 0.08926886
0.13571323 -0.06133951 -0.0582394 -0.14992781 0.049143646 0.03672553 -0.10337272 0.15026584
0.1695649 0.030837368 0.061204042 0.08980048 -0.13854715 -0.045168817 0.13439472 -0.12541428
-0.10031773 -0.104871765 -0.09378548 -0.11615051 0.16068815 -0.15290557 -0.1186856 0.009139854
0.18741393 0.1515233 -0.036164768 0.12563394 0.12948056 -0.11971116 -0.09493445 0.03281259
0.0062466515 0.1123592 -0.07859593 0.043361966 -0.08505265 -0.1235749 0.18351465 0.11696762
0.0032894742 -0.13476285 0.188964 0.06522348 -0.1395065 -0.16094673 -0.095971085 0.09494566
0.14004442 -0.13764901 0.026945252 -0.1651144 0.09751316 0.01054213 -0.067466356 -0.016974803
0.009788471 -0.13742745 -0.026951615 0.18470447 -0.012104859 -0.1577816 -0.05974728 0.015807252
0.02460644 0.1491743 -0.028725775 0.03360836 -0.1663288 0.09271625 -0.1865167 -0.038764376
-0.07208178 -0.060910087 -0.00146769 0.06865101 -0.02666225 0.04603635 -0.13653693 -0.05731517
0.09022647 0.10893909 -0.023791097 0.18919672 0.14188471 0.10813073 -0.17077585 0.123364024
-0.19052604 -0.14463544 -0.18665487 0.08637333 0.05581262 -0.12967856 -0.021210056 0.13236527
0.031381916 0.019759022 0.07159062 -0.15621747 0.08394725 0.15993766 0.16089907 -0.12661155
-0.029124336 -0.05285097 0.15966158 0.11678958 0.18489261 -0.11998097 0.12153148 -0.06729635
0.12510906 0.14474538 0.10356705 0.056427363 -0.07570549 -0.0035470524 0.12533061 -0.09103342
-0.1413986 0.15894492 0.12315094 0.15536909 -0.17299818 0.11631632 0.15905006 0.08404849
0.12018484 0.1464656 0.08195092 -0.042426948 -0.17701806 0.08832806 -0.12605426 -0.09247889
-0.18729225 0.049501237 -0.014163672 -0.1295531 -0.09666736 0.1856714 0.006164725 -0.19251215
-0.08651973 -0.13810666 -0.12275067 0.14134717 0.14655998 0.032775637 -0.021497304 -0.1558287
-0.052863754 -0.010336347 0.028943045 -0.0719364 -0.013906359 -0.081564486 -0.13172424 0.040468995
0.17524797 -0.14735284 0.063277416 0.12576954 -0.09053559 -0.0713816 0.12859513 0.03283907

bias f4 [32]
00000000: 74db 21be 9a66 0d3e 7f12 063e a59c db3d
00000010: 68f1 3b3e 97e3 413e 4971 503d 505d 57bc
00000020: d181 083e d9bd 133e caaa 33bc ea23 0dbe
00000030: a868 293e 6bf2 d03d b23c d5bd be5d 333e
00000040: 0753 9a3d ca25 99ba 7b45 2cbe 1350 9abd
00000050: 0121 36be 53c2 b53c a092 333d 166c 3f3e
00000060: e9f3 8abd ba65 d33d 982c 5c3d fc9f 403e
00000070: 84f2 113e fb42 443d ac37 bd3d 5657 4fbd
-0.15806371 0.1380867 0.13092993 0.10723237 0.18353808 0.18934475 0.050889287 -0.013144806
0.13330771 0.1442789 -0.010966012 -0.13783231 0.1654383 0.102024876 -0.10411967 0.17516229
0.075353675 -0.0011684236 -0.1682338 -0.07534804 -0.17786027 0.022187388 0.043841004 0.18693575
-0.067848034 0.10322137 0.053753465 0.18811029 0.14252669 0.04791544 0.09239134 -0.0506204

weight f4 [1, 32, 3, 3]
00000000: 29b7 7abc fea8 c5bc bc28 183b ea2e 9dbb
00000010: 3f05 5ebd 8986 33bd 06e2 753c 681d 5bbb
00000020: 3666 15bd efc2 9abc 4741 f5bc 575a 353d
00000030: bb5b f93b c5f4 debb a88f 35bd 0b25 aebc
00000040: e379 e5bc ff8d bcbc 1175 323d 6dc1 eebc
00000050: 90d7 063d b368 07bd 6bbc 2cbd 8377 843b
00000060: 2859 5abd 71bf 36bd 9c4a 133d a63b 04bc
00000070: 490b 99bc d139 d53c 2cde f4bb 1022 ab3c
00000080: fd8d 313d d25e 313c 1de0 d33c f18a 493c
00000090: 4906 f23c 88ed 9b3a f9e9 463c 5d90 4d3b
000000a0: c109 9fbb ad81 113d da03 24bd 1c15 2fbd
000000b0: da44 5f3d 6d8e 793c 780c 70bd e8a0 b2bb
000000c0: f673 e2bc 9e95 c0bc 3162 b1bc acf4 463d
000000d0: 3555 25bd cd67 6fbd 56af 62ba e940 02bc
000000e0: 1cfb 24bb 4970 78bb e439 f6bb b8c1 e73c
000000f0: 436e 6f3d c5a8 60bd eca2 f6bb 1951 44bc
00000100: ab5e 193d b4a4 1bbd 427e 74bc 4de5 183c
00000110: 7487 123c 0c0e 4ebd f0e1 fe3c b951 af3b
00000120: 8155 163d 8e2d 203d e7a5 2ebc ec71 483d
00000130: e5e5 973c c589 debb 4ac8 1bbd bf09 243d
00000140: a155 933c 0deb 00bd 0f79 47bd 8a00 34bc
00000150: 465d 6bbd 60ba 33bd a676 67bd 7654 57bd
00000160: d206 2f3c 255d 933c ecf3 2a3d dbe2 07bd
00000170: 1fa4 d0bc 7ded 7bbc 5040 223a 29bc 32bd
00000180: 21b0 d5bc 26a4 883c 50b3 2b3d 819b 173d
00000190: aea4 c43c e29f 2bbd 073b ea3c 9038 aa3c
000001a0: 960a 33bc df85 6abd fca2 26bd 2e21 a8bc
000001b0: f30c 2abd af12 183b acec ee3c 2c81 ff3c
000001c0: e92b 6e3d 28d1 f4bc 33d8 a93c b183 483c
000001d0: ba75 f2bc db49 34bb 86f6 5fbd b96c b93b
000001e0: bc0d 5b3d d973 a73b 30d2 2fbd 5b6f 8b3b
000001f0: 69be 7a3c 5376 b03c 1f81 393d 4d25 25bd
00000200: 80a4 13bd 9cd7 263d 928a e63c d9a3 3cbd
00000210: 4e60 dc3c 4530 973c 2fb8 11bd f95e 4f3d
00000220: d550 1fbd ccb1 093d b513 7cbb dafd 6cbc
00000230: 4eb0 44bd 54b6 debc 14c0 193c 9cbe eb3b
00000240: fea3 683c e43c f8bc 1b2d 193d 8f83 babc
00000250: 1915 93bc 457e 4a3d e278 323c 24eb bfbc
00000260: 9347 60bd 0ce1 213d d3eb 8fbb 3203 e4bc
00000270: 1a87 89bc 918c 963c 8755 23bd bcb2 1abc
00000280: 7966 69bd 2713 2dbd 482c 4fbc 5c08 80bb
00000290: 5f2e b13c 2155 d6bc 69fd 6b3d 0de7 4cbc
000002a0: 9b43 9ebc d2ea 443d e5e0 7b3b c4d7 eabb
000002b0: cbe2 3dbd e739 cd3c ba2f d9bc b217 173d
000002c0: 5b75 f7bc 4836 68bd 2ce5 d93c 815f f6bc
000002d0: 9085 4c3c da9c 4f3d 8eaa c13c 27a4 643c
000002e0: c693 2b3d b45e df3c 639b eb3c edcc 193d
000002f0: 8d0c 123d 11e5 683d 3a7a 833c f4e4 3dbd
00000300: c8f5 e1bc f330 89bb 0300 fbbc e71c 29bd
00000310: d32b f13c 9df0 143d d6a8 c4bc 2d98 1b3d
00000320: f2c1 2f3c 454c 0dbd 1847 54bb 9b88 08bd
00000330: 8626 79bc 41ca a8bb f248 c53c 2a2c 623d
00000340: 26b1 5c3d 6437 51bc 9c3a 54bc fa6a e63c
00000350: f16b 70bd 1676 2c3d dc53 253d ea33 213d
00000360: 558d 90bc 133c 1b3d 2e73 6a3c e7fa 02bd
00000370: ca04 93bb bc6b 2c3d b5e5 173d 54e8 513d
00000380: 92b9 693d 946d 2c3d 8018 0abd 30c8 363d
00000390: 69d6 13bd 8744 6d3b ea44 623d bd6f 37bb
000003a0: 3d4f 3ebd cd49 1c3d 86d2 d23c a0bb 3ebd
000003b0: 1514 62bd 869e 753c be09 e0bc 1a11 45bd
000003c0: 1313 22bd 6345 29bd f791 48bd 0c74 4f3b
000003d0: c1ba f9bc 6d6d e03b d0ac 12bc f0ad 09bd
000003e0: 1086 6ebd 4e06 8dbc 2efb 033b 9300 85bb
000003f0: 0754 febc 8260 f3ba 2047 db3c f3e0 813b
-0.015302458 -0.024128433 0.002321764 -0.0047968524 -0.05420422 -0.043829475 0.0150075015 -0.0033434276
-0.03647443 -0.01889178 -0.029938353 0.044275608 0.007609812 -0.006804081 -0.044326454 -0.021257898
-0.028012222 -0.023016928 0.043568674 -0.029144967 0.03292042 -0.033058833 -0.042171877 0.004042567
-0.053307682 -0.044616167 0.035959825 -0.008070862 -0.018682139 0.026028546 -0.007472774 0.020890266
0.0433483 0.01082583 0.025863701 0.012301193 0.029544013 0.0011896351 0.012140744 0.0031366565
-0.0048534577 0.03552406 -0.040042736 -0.04274474 0.05450902 0.015231711 -0.05860564 -0.0054513104
-0.027643185 -0.023508843 -0.021653267 0.04857318 -0.040364463 -0.0584486 -0.0008647343 -0.007950046
-0.0025174087 -0.0037908724 -0.0075142253 0.028290614 0.058454763 -0.05484845 -0.007526746 -0.011982226
0.037443798 -0.03799887 -0.01492268 0.009332013 0.008943427 -0.050306365 0.031113595 0.0053503183
0.036702637 0.039105944 -0.010659671 0.04893677 0.01854224 -0.0067913258 -0.038032807 0.040048357
0.017985167 -0.031474162 -0.048699435 -0.010986457 -0.057462 -0.043878913 -0.056509636 -0.052570783
0.010682778 0.01798875 0.04173653 -0.03317533 -0.025468884 -0.015376446 0.0006189393 -0.043636475
-0.026084961 0.016679835 0.041919053 0.037013534 0.024004307 -0.041900523 0.0285926 0.020778924
-0.010927817 -0.057256576 -0.040682778 -0.020523634 -0.041516256 0.0023204496 0.029165588 0.031189524
0.058147345 -0.02988489 0.020732975 0.012238429 -0.029597152 -0.0027509842 -0.054678462 0.0056587127
0.053479895 0.0051102457 -0.04292506 0.004255218 0.015304186 0.021540796 0.045289155 -0.040318776
-0.03604555 0.040732965 0.028142247 -0.046054695 0.02690139 0.018455634 -0.03557604 0.050627682
-0.038895447 0.033616826 -0.0038463895 -0.01446482 -0.0480197 -0.02718655 0.009384174 0.0071943533
0.014199255 -0.030302472 0.03739653 -0.02276781 -0.017954396 0.049436826 0.0108930785 -0.023427553
-0.05475576 0.039521262 -0.004392126 -0.027833555 -0.016788054 0.018377574 -0.039876487 -0.009442028
-0.05698249 -0.042254593 -0.012644835 -0.0039072465 0.021628557 -0.02616364 0.057614718 -0.012506259
-0.019319346 0.048075505 0.0038433608 -0.0071668345 -0.046358865 0.025052024 -0.026512016 0.036887832
-0.030207327 -0.05669239 0.026598535 -0.030074837 0.012483016 0.050686695 0.023640897 0.013955153
0.041888975 0.027266838 0.028760618 0.037548948 0.0356565 0.05685908 0.016049493 -0.046360925
-0.027583018 -0.0041867434 -0.030639654 -0.04128733 0.029439842 0.03636228 -0.024006288 0.037986923
0.0107273925 -0.034496564 -0.0032391008 -0.033333402 -0.015206939 -0.0051510637 0.024082635 0.0552179
0.05387988 -0.012769554 -0.012953427 0.028127182 -0.05869669 0.042104803 0.040363178 0.03935615
-0.017645517 0.037899088 0.014309688 -0.03197756 -0.004486655 0.04209493 0.0370843 0.051246956
0.05706174 0.04209669 -0.03371477 0.044624507 -0.03609315 0.0036204176 0.055241503 -0.0027990185
-0.046462286 0.03815632 0.025735151 -0.046565652 -0.055194933 0.014991408 -0.027348395 -0.048112012
-0.03956897 -0.041325938 -0.048967328 0.0031654863 -0.030484559 0.006848982 -0.0089523345 -0.033613145
-0.05823332 -0.01721492 0.0020138728 -0.0040589063 -0.031045927 -0.001856819 0.026767313 0.0039635836

weight f4 [32]
00000000: 3e03 803f 3e03 803f 3e03 803f 61f9 7f3f
00000010: 3e03 803f 3e03 803f 61f9 7f3f 3e03 803f
00000020: 61f9 7f3f 3e03 803f 3e03 803f 61f9 7f3f
00000030: 3e03 803f 61f9 7f3f 3e03 803f 3e03 803f
00000040: 3e03 803f 3e03 803f 61f9 7f3f 61f9 7f3f
00000050: 61f9 7f3f 3e03 803f 61f9 7f3f 3e03 803f
00000060: 61f9 7f3f 3e03 803f 3e03 803f 61f9 7f3f
00000070: 3e03 803f 61f9 7f3f 61f9 7f3f 61f9 7f3f
1.000099 1.000099 1.000099 0.99989897 1.000099 1.000099 0.99989897 1.000099
0.99989897 1.000099 1.000099 0.99989897 1.000099 0.99989897 1.000099 1.000099
1.000099 1.000099 0.99989897 0.99989897 0.99989897 1.000099 0.99989897 1.000099
0.99989897 1.000099 1.000099 0.99989897 1.000099 0.99989897 0.99989897 0.99989897

bias f4 [32]
00000000: 17b7 d138 17b7 d138 16b7 d1b8 feb6 d1b8
00000010: 09b7 d1b8 17b7 d138 16b7 d1b8 11b7 d1b8
00000020: 16b7 d138 13b7 d1b8 16b7 d138 0fb7 d1b8
00000030: 0db7 d138 12b7 d138 16b7 d138 14b7 d1b8
00000040: 04b7 d138 14b7 d138 f1b6 d138 15b7 d1b8
00000050: 16b7 d1b8 13b7 d1b8 12b7 d138 17b7 d138
00000060: 17b7 d1b8 15b7 d138 16b7 d138 16b7 d1b8
00000070: 17b7 d138 16b7 d1b8 0cb7 d138 17b7 d1b8
1e-04 1e-04 -9.999999e-05 -9.9999816e-05 -9.9999896e-05 1e-04 -9.999999e-05 -9.9999954e-05
9.999999e-05 -9.999997e-05 9.999999e-05 -9.999994e-05 9.9999925e-05 9.999996e-05 9.999999e-05 -9.9999976e-05
9.999986e-05 9.9999976e-05 9.999972e-05 -9.999998e-05 -9.999999e-05 -9.999997e-05 9.999996e-05 1e-04
-1e-04 9.999998e-05 9.999999e-05 -9.999999e-05 1e-04 -9.999999e-05 9.999992e-05 -1e-04

running_mean f4 [32]
00000000: ec25 4cc1 766f ddc0 d991 9fbb 30f6 62c0
00000010: 2dfe 8c40 fc1c 50c1 dd41 4140 7f73 2642
00000020: d149 9ec1 6af4 97bf 7d31 c13f ea7b dec1
00000030: 8cdb 44c1 5cea ce41 145e 1041 c4f3 d041
00000040: a0ff 9e41 3478 f640 0f28 29c0 2006 e0c0
00000050: e4bd 86c1 4483 0441 76dd f341 f54c 233f
00000060: 8579 ecc0 e057 cbbf e405 cbc1 cbab f740
00000070: 247a 26c2 d09f cfc1 46f2 cec1 71f0 42bf
-12.759258 -6.919856 -0.0048696813 -3.546276 4.4060273 -13.007076 3.019645 41.61279
-19.786043 -1.1871464 1.5093228 -27.810505 -12.3036 25.864433 9.022968 26.119026
19.874817 7.702173 -2.64307 -7.0007477 -16.84272 8.282047 30.483135 0.637893
-7.389834 -1.5886192 -25.377876 7.739721 -41.619278 -25.953033 -25.868298 -0.76148134

running_var f4 [32]
00000000: 7ede 8142 35b0 5342 7a72 0442 d44d 9242
00000010: 0da7 6c42 48f5 e541 8cdf c041 fd00 7742
00000020: 189a 1542 da9f 4641 aafc dc41 7c8e 4542
00000030: 8f64 f441 5a25 5742 5c0b d041 d297 6842
00000040: 32b3 2a42 331c aa42 ab85 9342 b612 7d42
00000050: f3bf 8a42 fcb9 b741 f6fb 9142 cf9a 9242
00000060: df28 8442 e5e5 fe42 3c65 0543 6db9 3942
00000070: 364b b442 4c30 3042 b0fe cd41 c5f0 d742
64.934555 52.922077 33.111794 73.15201 59.163136 28.744766 24.109154 61.750965
37.400482 12.414026 27.623371 49.389145 30.5491 53.786476 26.005547 58.148262
42.674995 85.05508 73.76107 63.268272 69.3749 22.965813 72.99211 73.30236
66.07983 127.44901 133.39545 46.43108 90.1469 44.047165 25.74936 107.97025

weight f4 [20, 84]
00000000: 0879 a8bd e509 b9bd 438c 853c 75cc ec3c
00000010: 616f abbd 74f1 12bd f123 643b 3067 b33c
00000020: f97d d1bd e3c6 ffbc 379b 813a 8a67 343d
00000030: 79f4 90bd 5132 b6bd c820 c43c 0a33 9cbd
00000040: 1437 4cbd 9e7f e33c a906 423d b0a5 1cbd
00000050: 26c8 51bd 9dc6 e33c 9a8d 8fbd 0784 84bd
00000060: 95c9 8ebd 2c39 31bd 3a28 4cbd c6a3 b9bd
00000070: 2891 19bd bf64 babd e00d f23b d245 d9bb
00000080: 050f b83d fba8 fb3c 4e25 a73d ec8c b13d
00000090: 80bc 69bd 69b0 9ebc 0623 10bd 16a2 d6bd
000000a0: 4dbd 25bd ebf4 603d a700 c93c 627b b0bd
000000b0: d559 8dbd ddc4 d13d 0166 abbd 7f95 59bd
000000c0: 0315 8b3c 89a5 b13c 4b67 653d 0dad 9fbd
000000d0: 3ed0 d4bd e6f8 333d e640 d13d 50bb 1b3d
000000e0: e8e0 a23d 9433 823d 5714 fabc 6d7c 65bd
000000f0: 350a ddbc c8a9 b8bc c0da bebd a1b6 1fbd
00000100: 0731 b93d 445e eabc 7355 d53b 2e51 35bd
00000110: d7ad 2cbd ca86 4abd ea3d 9e3d 9a8d d1bd
00000120: af49 bd3c a861 5a3d 6af9 2ebd 16a8 273c
00000130: a9c5 8abd 7f0e dbbd 31fa 643c 011e a33d
00000140: 717d dabc e65e 183c 6163 b53d 09c4 7fbd
00000150: 1f62 8f3d 09fe b03d 5a64 9d3c 983e be3c
00000160: bec0 3a3d e5d1 3f3c 32dd a03d 1a58 77bd
00000170: a28f b3bd 6865 953d 56cd dd3c 3395 283d
00000180: 0467 db3d bca4 c83d 9c34 a7bc 8a7f 34bc
00000190: 739b 60bd 0f83 d13c 6b26 d9bd 5f50 aebc
000001a0: bbd4 b3bd 05de d83d 6e2c 323c 2e0b c83d
000001b0: 1c6b 8b3c d3e8 ccbd eb17 1e3d 0b06 923d
000001c0: fb38 b33d 32f7 9d3c bab5 95bd c7f2 8f3d
000001d0: a601 94bd b388 973c 696b a4bd 648b 35bd
000001e0: 4f6a 9a3d 76b3 313d fdf2 3f3c 254c c6bd
000001f0: adaa d73d 065b 77bc b65e 4abd 35b9 d33d
00000200: 44d9 c53d ebf0 a9bd 65f4 083d 2764 65bc
00000210: e363 c0bd 4a25 3bbd 2814 bdbd 4d89 0d3d
00000220: 5136 a8bb 71b0 4fbd 494e 4dbc 3a6d ca3d
00000230: c78a 313d 2c88 80bd 3147 c5bd 4890 833d
00000240: 90b3 dcbc 2188 603d c2c3 a2bc 76fc 64bd
00000250: 6b6f 643c c438 d5bd 0505 b23d a957 963d
00000260: 048c 193d 79d2 093d 84da 0f3d 8927 003d
00000270: c8d3 15bd 2d28 d2bc fa6b 0abd 313b 783c
00000280: 9885 123d eb8b 3cbd 24cd 9abc ff63 b23d
00000290: 3023 78bd aacf b2bd be55 c33d 8f9a b13d
000002a0: dc30 bbbd a268 24bd 846f 0f3d 2853 aa3d
000002b0: 6d28 e0bb c9b4 d43d 2193 b63d da9e 4f3d
000002c0: 5557 a6bd f03d 653d 0b39 c4bd d32c 9c3d
000002d0: 20fd b93c 557b bdbd 8110 7d3d e16b 54bd
000002e0: 373d 953d bad6 91bd 8d2b f3bb d7b0 f5bc
000002f0: 72cf 843d b3df 8fbb 1aba 3b3d 0981 923d
00000300: 5e1b 093d bb77 393b edbf 02bd 421b ffbc
00000310: 323c bcbd abfd b9bd 617a d83d a4ff c2bd
00000320: df60 b23d aaa6 87bd feba 93bd e1b2 83bd
00000330: b9e9 4bbd d41d 5fbd cf64 b43d 0997 973d
00000340: 4958 aebd eb3f 593c 0853 dc3d e7ef 993d
00000350: 3560 963d 23bc cebd 6f5d 24bd 44c3 103d
00000360: 94c6 8c3d 4027 dd3a 5953 a33b dea7 37bd
00000370: 5279 70ba e311 b83d 0b8b 983c ce45 343c
00000380: bc14 30bd a33c 85bb 47fd a5bd 7fad dd3d
00000390: e4f1 cbbd 69fb 873d 55c6 6c3d e2db a33d
000003a0: 3051 a1bc 90b0 bb3c d62b 723b ec92 cebd
000003b0: aaac 843d e4ed 563c de2b 1b3b 5d24 573d
000003c0: 19ac d4bd fc7c abbc 0fb8 4ebd e45b 35bd
000003d0: 2506 bc3d b76d 993d 3d86 70bd 6cc3 babd
000003e0: 93c5 b83d 6996 dc3d 6481 08bd 9f88 603d
000003f0: c040 0ebd e54c 943d 6ac0 ab3c bfd5 67bd
-0.0822621 -0.0903509 0.016302234 0.028906086 -0.08370853 -0.0358748 0.0034811462 0.02189979
-0.102291055 -0.031222766 0.0009888177 0.044044055 -0.070778795 -0.08896316 0.023941413 -0.076269224
-0.049857214 0.027770814 0.047369633 -0.03824395 -0.051216267 0.027804667 -0.0700943 -0.06470495
-0.069720425 -0.043267414 -0.04984305 -0.090644404 -0.037491947 -0.09101247 0.007386908 -0.0066306377
0.0898724 0.030720225 0.08161412 0.08669457 -0.057064533 -0.019371228 -0.03518965 -0.10480134
-0.040463734 0.054921072 0.024536444 -0.086172834 -0.069019 0.10242627 -0.08369065 -0.053121086
0.016977793 0.021685379 0.05600671 -0.07796679 -0.103912815 0.04393854 0.102174565 0.038020432
0.07953054 0.06357494 -0.030527277 -0.056026865 -0.026982406 -0.022541896 -0.09319067 -0.038992528
0.09042554 -0.028609402 0.0065104305 -0.044266872 -0.042157974 -0.04944495 0.07726653 -0.102320865
0.023106424 0.05331579 -0.04271833 0.010232946 -0.06775982 -0.10696124 0.013975666 0.07964707
-0.026671143 0.009299969 0.08856846 -0.062442813 0.07001137 0.08642203 0.01921289 0.023223206
0.04559397 0.011707758 0.0785469 -0.060386755 -0.0876763 0.07294732 0.02707545 0.041157912
0.10713008 0.097970456 -0.020410828 -0.011016736 -0.054835748 0.025575189 -0.10603031 -0.021278558
-0.087808095 0.10589222 0.010874851 0.09767757 0.017018847 -0.10005345 0.03859703 0.07130059
0.087511025 0.019282911 -0.07310052 0.07028728 -0.07226877 0.0184978 -0.08028299 -0.044322386
0.07539808 0.043384038 0.011715648 -0.09682492 0.10530601 -0.015097385 -0.04940673 0.1033806
0.09660581 -0.082979046 0.033436198 -0.014000929 -0.09394052 -0.04568986 -0.0923236 0.03455477
-0.005133428 -0.050705377 -0.012530872 0.098841146 0.04334524 -0.06275973 -0.09632719 0.06424004
-0.02694109 0.054817323 -0.019868735 -0.055904828 0.01394258 -0.10411218 0.08692364 0.073409386
0.037487045 0.033647988 0.035120502 0.031287704 -0.036578923 -0.025653923 -0.03379438 0.015150831
0.035771936 -0.046031874 -0.018896647 0.08710479 -0.060580432 -0.08731015 0.095378384 0.08672058
-0.091401786 -0.040138848 0.03501846 0.08316642 -0.0068407566 0.103860445 0.08914781 0.050688602
-0.08122126 0.05596727 -0.095811926 0.07625737 0.022703707 -0.09252039 0.061783317 -0.051860694
0.072870664 -0.07121034 -0.007420963 -0.02999155 0.064848796 -0.0043906807 0.045831777 0.07153518
0.033473365 0.0028300125 -0.031921316 -0.031140927 -0.09191169 -0.090815865 0.10570217 -0.09521416
0.08709883 -0.066235855 -0.072134 -0.06430603 -0.049783442 -0.054471806 0.0880829 0.074018545
-0.08512933 0.013259868 0.107580245 0.07516461 0.07342569 -0.10094478 -0.040128168 0.03534247
0.06873813 0.0016872659 0.004984301 -0.044837825 -0.00091733516 0.089877866 0.018620988 0.011002971
-0.042988524 -0.0040660664 -0.081049494 0.108241074 -0.09958246 0.066397496 0.05780633 0.08000924
-0.019692034 0.02291134 0.0036952398 -0.10086617 0.064782456 0.013118241 0.002367727 0.052524913
-0.103843875 -0.02093362 -0.0504685 -0.044277087 0.091808595 0.074916296 -0.05872177 -0.09119305
0.09022059 0.10770876 -0.03332652 0.054817792 -0.03472972 0.07241229 0.020965774 -0.05660033

bias f4 [20]
00000000: 59c3 44bd 2e35 6b3d b608 e13c 1383 d13d
00000010: f530 293a bb3a c7bc c3b8 d0bd 0c21 1d3d
00000020: 4362 913d b2a1 aa3d c0b2 66bd 3ade a2bd
00000030: 034c 5bbc 1c63 db3c 175e debd 5d14 bb3d
00000040: 9b7e d33d f13d a6bd 62af 6e3d 59c0 29bd
-0.04803786 0.057423763 0.027469974 0.102300785 0.00064541335 -0.024319997 -0.101914905 0.038361594
0.0709882 0.08331622 -0.056322813 -0.079525426 -0.013384822 0.026780657 -0.1085779 0.09134743
0.103268825 -0.08117283 0.058272727 -0.041443203

weight f4 [6, 20]
00000000: b790 d33d 350e fc3d 1a95 183d 0ee9 21be
00000010: 16f6 2ebe 7e74 55be f27c 98bb d739 df3d
00000020: 3c02 03be bc94 3cbd 891a 5e3d 205a 333d
00000030: 81c3 203d 59f3 46be 7895 eabd ad0e 62be
00000040: 9f85 833d 7265 3b3e d227 573e 7a86 ad3d
00000050: 7e99 ccbd 6962 b1bd 2034 97bd 2211 ad3d
00000060: 7128 e03d f257 df3b 3ba8 2dbe e0fa 0b3e
00000070: 31c3 63bd dbf0 033d d079 b53d b3ae c3bd
00000080: 1e06 88bc 9d38 8d3d d3b9 453c 2616 643e
00000090: 0d96 033e c099 f03d 97cf 0f3e 16ec ba3d
000000a0: 000b f23d ee80 3c3e e551 8e3d 13f9 303e
000000b0: 0b86 443e 8b16 48bd 24ee a0bc 0864 0fbe
000000c0: 601e 5f3e 8a21 fdbd ab7a 413e 710a cc3d
000000d0: b0a0 19bb cb9a 373e 0b94 e8bd c68b 5bbe
000000e0: e16f 453e f8bf 8fbd 28a0 483d 7b72 223e
000000f0: ffbb cdbd cc76 cc3d 6fa8 a03d acf1 283e
00000100: f7ae acbd e9ab 603e a1e6 a7bd 7750 eabd
00000110: da2a df3c 8576 dcbd 526e d5bd 3a83 2fbe
00000120: cf4d 80bc 7f51 3bbe f218 4bbe 1345 85bb
00000130: 4757 443e c76c 82bc 0fd1 5ebe 8fa3 e73d
00000140: 957c 5ebe e6ec e93d 9b3f 1cbe cfd4 2fbe
00000150: 15ab b6bb 14cc f63d 9e7d 5fbd e452 c53c
00000160: c609 263e 8b4b df3d e151 49be 4745 5e3e
00000170: fcf8 2dbd 2f13 193e 5022 4ebe 3971 04be
00000180: 5301 4abd b343 53be 82b6 003e 1a04 5dbe
00000190: d741 8c3b e4ef 4abe b097 ac3d 3c1b 1e3e
000001a0: 9f60 093e ccff 443e bbb6 383e 558d 34be
000001b0: e5a0 c33d fff3 6bbc da6d 183e a55d bebd
000001c0: f90f 483b 0783 4dbe 4fca e6bd 2e08 55be
000001d0: e469 143e 2ca4 98bd b998 213d ec5a 243e
0.103303365 0.12307397 0.03725157 -0.1581156 -0.17086062 -0.2084522 -0.0046535665 0.10899704
-0.12793821 -0.04604028 0.054224525 0.04378712 0.039248947 -0.19428767 -0.1145429 -0.22075911
0.064219706 0.18300417 0.21011284 0.08472915 -0.09990214 -0.086613484 -0.07382989 0.084505334
0.109452136 0.006815904 -0.16958706 0.1366992 -0.05560607 0.03221212 0.088611245 -0.095548056
-0.01660448 0.06895564 0.01206823 0.22274074 0.12850209 0.117480755 0.14044033 0.09127061
0.11818504 0.18408558 0.06949214 0.17282514 0.19191758 -0.048849624 -0.019644804 -0.14003003
0.21788931 -0.12359913 0.1889445 0.09962929 -0.0023441724 0.17930143 -0.11356362 -0.21440038
0.1928096 -0.07019037 0.048980862 0.15863983 -0.10045623 0.09983596 0.07844626 0.1649844
-0.084318094 0.21940579 -0.08198286 -0.11441129 0.027242113 -0.10764793 -0.104214326 -0.17139903
-0.015662102 -0.18292807 -0.19833735 -0.004067072 0.19173919 -0.01592101 -0.21759437 0.11310493
-0.21727212 0.11422138 -0.15258639 -0.17171024 -0.005574594 0.120506436 -0.054563157 0.024087377
0.16214666 0.109030806 -0.1966014 0.21706115 -0.042473778 0.14948724 -0.20130277 -0.12933816
-0.04931767 -0.20631294 0.12569621 -0.21583596 0.0042803097 -0.19818074 0.084273696 0.15440077
0.13415764 0.19238204 0.18038456 -0.17632039 0.095521726 -0.014401435 0.14885655 -0.09295205
0.0030527099 -0.20069514 -0.11269056 -0.20803902 0.14493519 -0.07453188 0.03945229 0.16050309

bias f4 [6]
00000000: 794d 313d 7ce0 98bd bca6 19be 9eb7 57be
00000010: 4303 36be d07c 2ebd
0.043286774 -0.07464692 -0.1500501 -0.21066138 -0.17774682 -0.0425995

weight f4 [20]
00000000: 0000 803f 0000 803f 0000 803f 0000 803f
00000010: 0000 803f 0000 803f 0000 803f 0000 803f
00000020: 0000 803f 0000 803f 0000 803f 0000 803f
00000030: 0000 803f 0000 803f 0000 803f 0000 803f
00000040: 0000 803f 0000 803f 0000 803f 0000 803f
1.0 1.0 1.0 1.0 1.0 1.0 1.0 1.0
1.0 1.0 1.0 1.0 1.0 1.0 1.0 1.0
1.0 1.0 1.0 1.0

bias f4 [20]
00000000: 0000 0000 0000 0000 0000 0000 0000 0000
00000010: 0000 0000 0000 0000 0000 0000 0000 0000
00000020: 0000 0000 0000 0000 0000 0000 0000 0000
00000030: 0000 0000 0000 0000 0000 0000 0000 0000
00000040: 0000 0000 0000 0000 0000 0000 0000 0000
0.0 0.0 0.0 0.0 0.0 0.0 0.0 0.0
0.0 0.0 0.0 0.0 0.0 0.0 0.0 0.0
0.0 0.0 0.0 0.0

running_mean f4 [20]
00000000: 0000 0000 0000 0000 0000 0000 0000 0000
00000010: 0000 0000 0000 0000 0000 0000 0000 0000
00000020: 0000 0000 0000 0000 0000 0000 0000 0000
00000030: 0000 0000 0000 0000 0000 0000 0000 0000
00000040: 0000 0000 0000 0000 0000 0000 0000 0000
0.0 0.0 0.0 0.0 0.0 0.0 0.0 0.0
0.0 0.0 0.0 0.0 0.0 0.0 0.0 0.0
0.0 0.0 0.0 0.0

running_var f4 [20]
00000000: 0000 803f 0000 803f 0000 803f 0000 803f
00000010: 0000 803f 0000 803f 0000 803f 0000 803f
00000020: 0000 803f 0000 803f 0000 803f 0000 803f
00000030: 0000 803f 0000 803f 0000 803f 0000 803f
00000040: 0000 803f 0000 803f 0000 803f 0000 803f
1.0 1.0 1.0 1.0 1.0 1.0 1.0 1.0
1.0 1.0 1.0 1.0 1.0 1.0 1.0 1.0
1.0 1.0 1.0 1.0

weight f4 [6]
00000000: 0000 803f 0000 803f 0000 803f 0000 803f
00000010: 0000 803f 0000 803f
1.0 1.0 1.0 1.0 1.0 1.0

bias f4 [6]
00000000: 0000 0000 0000 0000 0000 0000 0000 0000
00000010: 0000 0000 0000 0000
0.0 0.0 0.0 0.0 0.0 0.0

running_mean f4 [6]
00000000: 0000 0000 0000 0000 0000 0000 0000 0000
00000010: 0000 0000 0000 0000
0.0 0.0 0.0 0.0 0.0 0.0

running_var f4 [6]
00000000: 0000 803f 0000 803f 0000 803f 0000 803f
00000010: 0000 803f 0000 803f
1.0 1.0 1.0 1.0 1.0 1.0
