DQN.pt (torch, 23129 bytes, 19 tensors)

weight f4 [32, 3, 3, 3]
00000000: d4d8 f03d 86f5 d1bd 8633 2abe 689b 133e
00000010: 3d0e efbc 6ea3 b3bd 7211 2cbd 2054 e43d
00000020: e280 64bd d4e1 36be d83a 743d 8c4c 5fbd
00000030: 4e09 2a3d d732 833d 2ecb 413e f509 11bd
00000040: 01ae 05be c579 9f3d d250 fa3c 1f9b 493d
00000050: 6f34 0e3e 4b02 063e 403e ee3d 4dd8 383d
00000060: 6619 923d 57a9 31be 8aa3 363e fe62 1e3e
00000070: 16c5 613d d758 193e 540b 1b3e 1f92 3d3e
00000080: d65d d93d 49fc 84bc cf73 b8bc c273 303e
00000090: e9fa 88bc 555b bebd c50e e73d 1003 f83d
000000a0: d3cf 1d3e fd6e 50bd ebb4 a1bd f66b c63c
000000b0: 097e e63d cd6a 15be 1bf3 43bd 1b1d 76bd
000000c0: 9a8d 5d3d 286a 24be aaaf e7bd b681 d5bd
000000d0: 4813 ba3d c5e1 18bd 9747 bcbd a138 243e
000000e0: 0c64 d8bd c382 cfbd 5c07 2cbe d15e 18be
000000f0: 8090 e0bd 58f4 2f3e a9e6 da3d 9eaf 5c3d
00000100: 79f3 3dbe de1c 303e 272a 8b3d 5bb9 1c3d
00000110: 75e1 e13d 4f90 cd3c 005f 9e3b 59a2 11bd
00000120: 561a d93d 07c0 e13c 8af7 0d3e 4988 e43d
00000130: 18d4 5e3d 1ab6 efbd ca9b 283e bf94 423d
00000140: c70d ff3d 5c47 e83c af1a 8a3d eed8 923d
00000150: f148 06be 2847 c73c 8824 0cbd 940b 3e3d
00000160: db13 c8bd 531f 3dbe cb8d 94bd 683e 443c
00000170: 9809 bfbd 76a0 d93d 4185 db3d d3f5 42be
00000180: 87c3 103e 9c10 c5bd cbca 23bc ff90 c13d
00000190: 8654 8abd 6590 6ebd e86f 01bd fb0e 13be
000001a0: cb8f 3e3d 5aa5 e53d ef73 8fbd 927c 38be
000001b0: ab64 f5bc 0dad 74bd 4571 1a3d aebb 273e
000001c0: b65c 32be 0759 6d3d f225 833d df99 4bbd
000001d0: abba 19be c106 b2bd 6130 aebd 3312 423e
000001e0: a2e8 15be e82a 3c3e 5d02 503c a786 34be
000001f0: e2c7 103e 5b10 253e d062 703d 716f aa3d
00000200: 5966 7e3c 7343 3abe 159b 14bd bd4e 113d
00000210: d025 7f3d 2c39 08bd e332 853d 72a6 143d
00000220: 08e6 1d3e ccda fcbc a2f8 82bd aace 39be
00000230: 7aa5 f73b 2f4f 283c 97dc 543c c36b 183e
00000240: 91a5 363e 24df b7bd 443b 223d de16 00be
00000250: 77a5 3cbe 11e9 cf3d c570 14be 7059 f43d
00000260: ce5d b2bc 6dc1 423e fdad 39be a298 363e
00000270: 161f 60bc 8fa6 24bc abb3 afbd 4fe7 3bbe
00000280: 9686 e5bd a9b8 6c3d 8f8e abbd 22b7 fdbc
00000290: a075 5b3d 8826 c6bb d620 943d 7c2a 163c
000002a0: 9dee d4bd 082c 463d c756 2fbe 60a7 b03d
000002b0: b0c3 8fbc ec12 2fbe 1ba3 0bbe 8e76 123e
000002c0: c1a0 2b3e 812e 9f3d 085c 17be 4fd3 1cbe
000002d0: b696 5d3c d4e8 313e b086 433d a8fb 42bc
000002e0: 9fd9 933a 35e5 b2bd 7dec 0d3e 8ffc 893d
000002f0: ecc8 e63d e6d0 92bd f853 46bd 8ac3 35bc
00000300: e306 0c3e 5433 833d ac17 853b 2cd6 2f3e
00000310: 8979 4dbd 2bc5 3bbe 57f0 32be f075 793d
00000320: 7f79 8e3d 2e21 06be fcb1 1e3e 600e d9bd
00000330: 2c5e b0bd 1555 a23d 96df a23d 32bd 81bc
00000340: c993 003e 4e4e 5fbd 04ab 053d 8293 d5bd
00000350: 8ffc 24be 04f6 013d 5f1a af3b 54d8 62bd
00000360: 18d9 1bbe a728 09be 1d9f b5ba 617c b9bd
00000370: 3ee4 26bd 3bb3 b83d e120 38be 1902 673d
00000380: ce4e e7bd a5a7 04be acc5 d4bc 643d 433e
00000390: 9fe3 12be 97b7 30be 8e74 3dbe ce46 213d
000003a0: 96b5 2f3e 10c6 86bd c657 363e 2769 713d
000003b0: 7c2c e3bb 0885 203d baff 293e 0fdc 99bd
000003c0: 11bc f1bd 8402 09be 722d 18be c958 423e
000003d0: fcf8 2dbe 46b6 613b 55e5 363e 6dbc c53c
000003e0: 5d1c 2f3d 83b3 45bd a42a 8ebc 55b9 29be
000003f0: 2e07 febd 705e 2d3e 7b30 943c 1adb 203e
0.11760107 -0.10251908 -0.16621217 0.14414752 -0.029181594 -0.08771406 -0.042008825 0.11148858
-0.055786975 -0.17859584 0.05962643 -0.05451636 0.04151278 0.06406181 0.18925163 -0.035409886
-0.13054658 0.077868976 0.030556116 0.0492202 0.1388719 0.13086812 0.11632967 0.045128155
0.071337506 -0.17349754 0.17835823 0.1546745 0.055119596 0.14975296 0.1514104 0.18512772
0.10613601 -0.01623358 -0.02251616 0.17231658 -0.016721206 -0.09294764 0.11282114 0.12109959
0.1541131 -0.050887097 -0.078958355 0.024221402 0.11254508 -0.14591523 -0.047839265 -0.06008635
0.05409012 -0.1605612 -0.11312802 -0.10425131 0.09085709 -0.037324686 -0.09193342 0.16037227
-0.105659574 -0.10132363 -0.16799682 -0.1487992 -0.10965061 0.17183053 0.10688526 0.05387842
-0.18549909 0.17198512 0.06795149 0.038262706 0.11029331 0.025093226 0.004833102 -0.035555217
0.10600726 0.027557386 0.1386396 0.11158807 0.054401487 -0.11704655 0.16465679 0.047505137
0.124538 0.02835434 0.06743371 0.07170282 -0.13113762 0.024325922 -0.034214526 0.04639776
-0.09769412 -0.1846898 -0.07253607 0.011977769 -0.09328002 0.106263086 0.107187755 -0.19039087
0.14137088 -0.096223086 -0.00999708 0.09451484 -0.06754403 -0.058243174 -0.031600863 -0.14361183
0.04652385 0.11213179 -0.070045345 -0.1801627 -0.029955229 -0.059735347 0.03770568 0.16380188
-0.17418179 0.05794623 0.06403722 -0.04970729 -0.15012614 -0.086926945 -0.08505321 0.18952255
-0.14639524 0.18375742 0.012695876 -0.17629491 0.14138749 0.1611952 0.058687985 0.08322037
0.015527331 -0.18189792 -0.03628071 0.03547548 0.06229192 -0.03325765 0.065038465 0.036291547
0.15419781 -0.03086605 -0.06395079 -0.18145242 0.007557568 0.010272785 0.012992046 0.14884858
0.17836596 -0.089781076 0.0396073 -0.12508723 -0.18422495 0.10151876 -0.14496143 0.11931121
-0.021773245 0.19019099 -0.18132778 0.17831662 -0.013679286 -0.010049476 -0.08579191 -0.18349956
-0.11207311 0.057793293 -0.083768 -0.030971114 0.053578973 -0.0060470738 0.072328255 0.0091654025
-0.10397074 0.048381835 -0.17122947 0.08625674 -0.017549366 -0.17097062 -0.13636439 0.14303038
0.16760541 0.07772542 -0.14781201 -0.15314983 0.013524702 0.17373973 0.04773587 -0.01190082
0.0011280066 -0.08735124 0.13859744 0.06737625 0.112687916 -0.071687505 -0.048419923 -0.011093983
0.13674502 0.064062744 0.00406166 0.17171544 -0.050164733 -0.18336932 -0.17474495 0.06090349
0.06956767 -0.13098595 0.15497583 -0.10598445 -0.08611712 0.07926384 0.07952802 -0.015837286
0.12556376 -0.054518037 0.032633796 -0.104285255 -0.16111968 0.03172876 0.00534372 -0.055382088
-0.15219533 -0.13394414 -0.0013856624 -0.090569265 -0.040745012 0.090185605 -0.17981292 0.056398485
-0.11294328 -0.12954576 -0.025973164 0.19066387 -0.14344643 -0.17257534 -0.18501493 0.039374165
0.17159113 -0.06580746 0.1780692 0.05893817 -0.006932793 0.03918937 0.16601458 -0.07512676
-0.11803449 -0.13379866 -0.14861086 0.18979181 -0.16989511 0.0034440919 0.1786092 0.0241377
0.04275166 -0.0482669 -0.017354317 -0.16574605 -0.12403713 0.16930556 0.018089524 0.1570858

bias f4 [32]
00000000: 6de3 323d 32ba 153e f218 0e3e afe0 85bd
00000010: 4414 33be 45b1 043e 9138 8dbd 90c9 d8bc
00000020: e2dd c3bc 748c 3b3e ef04 2fbe e4b3 a43c
00000030: 96c9 98bd 45da 40be 8800 153e 496e 0fbb
00000040: fdc7 af3a 5f2c 09bd 550e 1ebd 8d5c 5fbd
00000050: 1cef 733d a6a2 263e cdb0 16bb d6d9 eebd
00000060: 22af 08be 8a9e adbd 0d46 26be e30b d5bd
00000070: 8637 04be efa2 353e e35b 37bb a400 603d
0.04367392 0.14621809 0.13876703 -0.065369956 -0.174882 0.12958248 -0.06895555 -0.0264633
-0.023909513 0.18315297 -0.17091726 0.02010531 -0.074603245 -0.18833263 0.14550984 -0.0021885803
0.0013411042 -0.03348958 -0.038587887 -0.054531623 0.059554204 0.16272983 -0.0022993565 -0.11662643
-0.13348058 -0.084775046 -0.1623766 -0.10402658 -0.12911806 0.17737935 -0.0027978353 0.05468811

weight f4 [1, 32, 3, 3]
00000000: ac33 00bd 8234 a73c 8bd4 46bd 0e8a 323d
00000010: cec0 04bd ee39 e3bc 8001 663c fbf2 653d
00000020: 0511 2ebd 5a30 1d3d a310 f43c 5051 543c
00000030: 0199 58bd 5480 8bbc 8f10 6ebd 4230 6ebd
00000040: f031 c0bc cc4e 61bd afdf 33bd 376b f0bc
00000050: 34ae 253d 0aaa 2f3c 0ca9 2d3d ad65 58bd
00000060: 1e06 4d3b 759e 68bd f38a f2bb bc36 b93c
00000070: 7b93 5b3d 9f9b 4e3d 5cfc 12bc 3ae6 5bbc
00000080: c0ec 36bd e8a1 58bc 6fa0 5a3d 599b 5c3d
00000090: f3bc 0b3d c23a 553d 0983 80bc 36f4 e8bc
000000a0: 0c43 02bc 66c7 7ebc 256e d33b 54d0 3bbd
000000b0: 3b6b 283d 2d13 273d 183b 28bd 37d1 4c3b
000000c0: 0fac 66bd 16f8 e4bb facb eabc 0929 27bd
000000d0: 31fe 7d3b 3249 5abd a36a eb3b 113b e43c
000000e0: ca11 313d 3fb3 57bd d099 a6bc 16e5 393d
000000f0: a1f4 67bd 2fe0 613d 9c43 81b9 3369 1abd
00000100: ce89 9b3c 2eda 663d 6783 58bc a351 453d
00000110: 1d33 a03c b329 17bd b9b0 093d 453f bfbc
00000120: 2b1a 5dbc cbd3 2ebc 27ec 3e3d 8fd5 37bd
00000130: 5cf7 d6bc 3879 653c ba6d 703d c106 493d
00000140: c1bf 37bd 9b9a 0ebb 7a35 1dbc 8e03 03bd
00000150: da7f 81bb c68c 8b3c ec79 bf3c 632a 44bd
00000160: e0f3 033c 4972 62bd 54eb 313d 3655 2bbd
00000170: 468e 5bbc 0b39 5bbc 8367 afbc 5a76 76bc
00000180: 8beb 26bc a636 fdba 9d33 07bd 9c93 dcbc
00000190: 57ec 29bd a769 243d dceb eebc 54fa 19bd
000001a0: 39d3 fbbc 7041 f2bc 77f4 35bd fc21 97bc
000001b0: 2faa 33bd af69 30bd ce19 4d3d 0353 923c
000001c0: 5a71 cf3c adff 67bd 83c9 0c3d bf00 423d
000001d0: e6b1 43bd b330 263d 3f86 013d 4674 df3c
000001e0: c061 0a3c 637e 07bd 6e3e 06bd 2848 0fbd
000001f0: 259b 37bd 4071 ed3c afcf 0dbd e0e6 f63c
00000200: 1c36 6a3d 6825 04bd e047 11bc 4589 54bc
00000210: a4a0 6fbd 0a66 163d f57d 143c e690 843c
00000220: 85b9 2c3d 90e0 f93c 7ae3 103d 9e9b 89bc
00000230: ecab 5ebd e32c d53c 697a 3fbd 9afa 9239
00000240: 3ff7 293d c29d fabb da9c 26bc 74d3 29bd
00000250: 6e0a 703d b995 43bd 3994 4e3c 034a 5abd
00000260: 26c9 393c 6778 3a3b 5463 8dbc da73 2fbc
00000270: 0fc7 f83c e8ba 163d 2f42 eebc d661 01bc
00000280: dd62 233d 0408 6b3d 232c ef3c 8710 45bd
00000290: 814b 5abd caf0 3c3c b432 853b 8a55 333c
000002a0: 976f 12bc b5a7 3c3d bbec 9bbc 7a52 30bd
000002b0: 45d9 d33c 6c7b 3dbc 8567 eb3c 55e1 ef3c
000002c0: 0b20 133b 3a57 123d 298c 083c 7613 d7bc
000002d0: aa2b fc3c 7ed7 4cbd 7157 3dbd 1dd8 70bd
000002e0: 18a3 45bd f390 b23c ea93 4dbd 8b1a 0abd
000002f0: 74c9 de3b 8a54 6bbd c8fe 333d ea29 a9bc
00000300: 58f5 05bd b8e0 e13c 6a6d 703d 2828 c33c
00000310: 5def 403d ae23 e33c 3aa9 e7bb 53de 18bd
00000320: 3c23 c8bc 70c8 abbc 54a1 03bc 07de 16bd
00000330: 5d19 38bd c3f5 243d 92e0 dfbc ac99 dabb
00000340: b700 0ebd 6d9d 603d 99cc 36bd 71f7 4ebd
00000350: 4dad 5d3d 51e2 11bd e72f 3d3d 816a 99bc
00000360: d26d 1c3d 1eb9 37bd d120 533c e897 a53b
00000370: 92b9 e03c ddf0 ea3c cc42 2b3d 5d80 e5bc
00000380: a022 a5bc c9ea 903b 4edb b5bc 174b fdba
00000390: 3bc8 043d 5a20 5bbd fef7 a73c 6757 823c
000003a0: ca73 1b3d b341 5abd 0525 553b 5841 393d
000003b0: de46 f8bc a3d7 2ebc 8e8e 09bd e4fd 81bc
000003c0: b4f9 c7bc ef88 4ebd a170 1ebb bcd6 24bd
000003d0: 6579 953c 554b 9dbc 0d80 623d 51bc 41bc
000003e0: 8008 163c ccb4 4e3d f189 413d 7f10 9fbb
000003f0: 7862 45bd afa8 4cbd 62ec 353d c8d2 323d
-0.03129928 0.02041078 -0.04854254 0.04358869 -0.032410435 -0.027737584 0.014038444 0.056139927
-0.0424967 0.03837619 0.02979309 0.01295884 -0.05288029 -0.017028965 -0.05812126 -0.05815149
-0.023461312 -0.055006787 -0.043914493 -0.029347999 0.040449336 0.010721693 0.042397544 -0.05283134
0.0031284164 -0.05679174 -0.007401818 0.022609107 0.053607445 0.05044138 -0.0089713 -0.0134215895
-0.044659376 -0.013222195 0.053375658 0.05385909 0.034115743 0.05205799 -0.015687482 -0.028436761
-0.0079505555 -0.01555047 0.0064523392 -0.045852974 0.041117888 0.04078977 -0.04107198 0.0031252631
-0.05631643 -0.006987582 -0.028661717 -0.04081062 0.0038756246 -0.05329246 0.007184343 0.027860196
0.043229856 -0.052661177 -0.020337015 0.04538449 -0.05662978 0.05514544 -0.0002465517 -0.037697982
0.018986609 0.056360416 -0.0132149225 0.048173558 0.019555623 -0.036905 0.0336158 -0.023345599
-0.013495008 -0.010670613 0.04661193 -0.0448814 -0.026240997 0.014005952 0.058698393 0.049078707
-0.044860605 -0.0021759633 -0.009595269 -0.031985812 -0.0039520087 0.0170349 0.023373567 -0.047891986
0.00805375 -0.055284772 0.043437317 -0.04182931 -0.01340062 -0.013380299 -0.021411663 -0.015042866
-0.010187994 -0.0019318655 -0.033008207 -0.026925854 -0.041485157 0.04013982 -0.0291652 -0.037592247
-0.030740367 -0.029572219 -0.044422593 -0.018448822 -0.04386347 -0.043069538 0.050073437 0.017861849
0.025322605 -0.056640316 0.034371864 0.047363993 -0.04777708 0.040573787 0.031622168 0.027277123
0.008446157 -0.033079516 -0.03277438 -0.034980923 -0.04482569 0.028984666 -0.03462189 0.030139387
0.05718051 -0.032262236 -0.008867234 -0.012972181 -0.05850281 0.036718406 0.009063234 0.016182374
0.042169113 0.030502588 0.03537319 -0.016797837 -0.054363176 0.02602238 -0.0467476 0.00028034003
0.041495558 -0.0076482007 -0.010169232 -0.041461423 0.058603697 -0.04775021 0.012608581 -0.05329324
0.011339461 0.0028453113 -0.017259277 -0.0107087735 0.030368356 0.03679934 -0.029084293 -0.007896861
0.039889205 0.05738069 0.02919585 -0.048111465 -0.053294662 0.011532018 0.004064882 0.010945687
-0.008937738 0.046058375 -0.01903378 -0.043047406 0.025860438 -0.011565071 0.028735885 0.029282251
0.002244952 0.035727717 0.008334198 -0.026254397 0.03078254 -0.050010197 -0.04622597 -0.05879985
-0.04825124 0.021797633 -0.05018989 -0.03371672 0.0067989174 -0.05745367 0.04394415 -0.020649869
-0.03270468 0.027572975 0.058698095 0.023822859 0.047103275 0.027726974 -0.007069734 -0.0373214
-0.024430864 -0.0209696 -0.008034069 -0.036832836 -0.044946063 0.04027344 -0.027328763 -0.006671151
-0.03466865 0.054837633 -0.044628713 -0.050528947 0.05412035 -0.035616223 0.04618826 -0.018727543
0.03819067 -0.044854276 0.012886242 0.005053509 0.027432237 0.028679306 0.04181175 -0.02801531
-0.020158112 0.00442252 -0.0221993 -0.0019324747 0.032417517 -0.05349765 0.020503994 0.015910817
0.037952222 -0.053285312 0.0032523286 0.045228332 -0.03030723 -0.010671529 -0.033583216 -0.015868135
-0.02441106 -0.05042356 -0.0024176019 -0.04024385 0.018246362 -0.01920096 0.0552979 -0.011824683
0.0091573 0.05046539 0.04725069 -0.0048542614 -0.04818961 -0.049965557 0.044414885 0.043658048

weight f4 [32]
00000000: 4603 803f 4603 803f 50f9 7f3f 50f9 7f3f
00000010: 4603 803f 4603 803f 50f9 7f3f 50f9 7f3f
00000020: 4603 803f 50f9 7f3f 50f9 7f3f 4603 803f
00000030: 4603 803f 4603 803f 50f9 7f3f 4603 803f
00000040: 4603 803f 4603 803f 50f9 7f3f 50f9 7f3f
00000050: 50f9 7f3f 50f9 7f3f 50f9 7f3f 50f9 7f3f
00000060: 50f9 7f3f 4603 803f 50f9 7f3f 50f9 7f3f
00000070: 4603 803f 4603 803f 50f9 7f3f 4603 803f
1.0000999 1.0000999 0.99989796 0.99989796 1.0000999 1.0000999 0.99989796 0.99989796
1.0000999 0.99989796 0.99989796 1.0000999 1.0000999 1.0000999 0.99989796 1.0000999
1.0000999 1.0000999 0.99989796 0.99989796 0.99989796 0.99989796 0.99989796 0.99989796
0.99989796 1.0000999 0.99989796 0.99989796 1.0000999 1.0000999 0.99989796 1.0000999

bias f4 [32]
00000000: 62d5 d3b8 62d5 d3b8 62d5 d338 62d5 d338
00000010: 62d5 d338 62d5 d3b8 62d5 d338 62d5 d3b8
00000020: 62d5 d338 62d5 d3b8 62d5 d3b8 62d5 d338
00000030: 62d5 d338 62d5 d338 62d5 d338 62d5 d338
00000040: 62d5 d3b8 62d5 d3b8 62d5 d3b8 62d5 d3b8
00000050: 62d5 d3b8 62d5 d3b8 62d5 d3b8 62d5 d3b8
00000060: 62d5 d3b8 62d5 d3b8 62d5 d3b8 62d5 d3b8
00000070: 62d5 d338 62d5 d3b8 62d5 d338 62d5 d338
-0.0001010101 -0.0001010101 0.0001010101 0.0001010101 0.0001010101 -0.0001010101 0.0001010101 -0.0001010101
0.0001010101 -0.0001010101 -0.0001010101 0.0001010101 0.0001010101 0.0001010101 0.0001010101 0.0001010101
-0.0001010101 -0.0001010101 -0.0001010101 -0.0001010101 -0.0001010101 -0.0001010101 -0.0001010101 -0.0001010101
-0.0001010101 -0.0001010101 -0.0001010101 -0.0001010101 0.0001010101 -0.0001010101 0.0001010101 0.0001010101

running_mean f4 [32]
00000000: f916 4442 28ba b142 9151 7b42 011b 7fc2
00000010: 5e3c 6a41 d5f2 9fc1 2b1d fd3f e691 c1c1
00000020: 7ea0 d5c2 e576 77c1 f900 1d42 694e bf42
00000030: 15b0 dd42 0435 3e42 cb78 6642 5d2c 6fc1
00000040: 8154 22c1 9bd7 1742 4991 2841 2cc7 0143
00000050: 69a6 3d41 2177 a241 ce6d 3b41 971c 72c2
00000060: 8b7a 51c2 e528 1a43 bc6a 8342 5814 9641
00000070: 49c0 bcc1 d678 d540 e7fa 2cc1 f199 e341
49.022434 88.86359 62.829655 -63.77637 14.639738 -19.99357 1.9774526 -24.19624
-106.81346 -15.466527 39.25095 95.653145 110.84391 47.551773 57.61796 -14.948331
-10.145631 37.960552 10.53547 129.77802 11.8531275 20.308168 11.714308 -60.52792
-52.36967 154.15974 65.708466 18.759933 -23.59389 6.6710005 -10.811255 28.450167

running_var f4 [32]
00000000: d9f8 5243 caf2 a343 d845 5043 8ad9 2243
00000010: 7ca4 4842 c470 a742 5934 1843 6c71 1143
00000020: 6950 5f43 06bc 5943 a3ba 9042 90e6 bc43
00000030: 72e3 d943 437a b842 e63c 0a43 36fc 8943
00000040: c73d 6a43 2284 9442 ed1b dd42 4e7b 7d43
00000050: eef5 bc43 57f7 7e43 c47d 1043 e534 3143
00000060: 9427 8542 3800 c543 5a92 9843 1b6a 0f43
00000070: 5f2e bc42 4613 3e43 3600 2b43 1c23 0643
210.97206 327.8968 208.27283 162.84976 50.16063 83.720245 152.20448 145.44305
223.3141 217.73447 72.364525 377.80127 435.77692 92.23879 138.23788 275.9704
234.24132 74.25807 110.55454 253.48166 377.92133 254.96617 144.49127 177.20662
66.5773 394.0017 305.14337 143.41447 94.09057 190.07529 171.00082 134.13715

weight f4 [20, 84]
00000000: 9b6c 20bd 6368 c1bc d628 94bb 326c 51bb
00000010: 63f6 93bd cda5 72bd 4317 c2bc 0ec6 723d
00000020: 65c2 98bd 37be 04bc b68b 8e3d 848e acbd
00000030: deea c53d 7e1e df3d 9f00 53bd e958 a3bc
00000040: 255b 0b3d 1f7e adbd a055 c7bd 5196 b43d
00000050: b51d 3e3d 60d6 a53d 7438 3bbc f71c 0b3c
00000060: 17bd c0bd 5a73 77bd b4e5 f53c 73f3 873c
00000070: 09c0 793d ca25 1bbd 8ff0 0dbd 0c6a a3bd
00000080: f31f c9bd af22 7fbb 1e46 cdbc 72aa a63d
00000090: 2744 82bc 160d 153b cd7f 413d 5ed3 813d
000000a0: a44f ae3b f373 9a3d 6e69 d2bd 4a02 6c3d
000000b0: f3e0 6bbd 115e a23c 3c3a 56bd eb09 b73d
000000c0: d4d3 863d 07be 83bd acb8 c6bd 2575 a43b
000000d0: 2f4b 79bc 9f50 c43c 0030 32bd 73ba 463a
000000e0: 13ce 81bc ef47 c23c 8a75 a13d e82c 90bd
000000f0: 4d18 973d 661f 96bc f964 603c b171 64bc
00000100: 2ee4 8b3d 8851 97bd c5fa aabd 26d6 d73c
00000110: ad0f ae3d f381 89bd be07 d53d 7993 8cbd
00000120: d3c5 85bc 296e 65bc b673 17bc 3b1e 963d
00000130: b89e 103d 0f8f 28bd 0ff3 02bd 7994 a1bd
00000140: 39e0 cf3d 1e1e c6bd 9fc2 683d f896 553d
00000150: 5603 1f3d f675 8a3d 78ae cebd bc1b 5e3c
00000160: b2d1 2b3d c5e4 7f3d 0a07 38bd a456 6abd
00000170: 9268 63bd e869 053d 95eb 19bd 15cb 9f3d
00000180: 0ab3 d63d e6d3 eb3b a21e 5d3d 5aae 86bd
00000190: 3029 953d f791 12bd ae48 a83d 53fd 483b
000001a0: 6d12 c6bc fcc6 be3d db33 23bd b9ac ccbd
000001b0: 47b6 4bbb affc 203c 7e1a cfbd 7a98 c9bc
000001c0: 3df5 8bbd db60 e63c 4e1a 26bd 7c3e c53c
000001d0: 0714 4d3d adfe 9bbd 1c15 7c3d 4b52 abbd
000001e0: 6bd9 673d 10df 57bd 8ab5 d9bd c0c1 ac3d
000001f0: 66c3 8abd f69d 9fbd 9e1e a03c 6166 d53d
00000200: c88f bebd 9b61 7fbd c9a6 51bd 23f9 90bd
00000210: 86aa a53c d23f dd3d cd94 c43d 4b1d a8bc
00000220: 0410 423d 96aa a83c 6008 babc d861 0ebd
00000230: aba6 3bbd a633 59bd 6e27 5fbc 0c7b 793d
00000240: fdb1 bfbd f0fb 6f39 abc0 b1bd f04e 863c
00000250: 8f90 183d f530 343d c7e3 54bd 6562 5fbd
00000260: e954 dabd a8fb 8d3c 1d7d 3a3d 0eca b03c
00000270: 4812 14ba 7f0d a9bc cef5 5b3d aca7 4a3d
00000280: 96b1 9f3d df72 43bd 6649 c53d fdb0 b03c
00000290: 41b0 bdbc 59d3 99bd 1789 c9bd 19c3 2f3d
000002a0: b3b2 3dbd 34b6 f03c 2e43 46bd 76b8 35bc
000002b0: bcda 66bd 8f90 953d 6546 a5bc 82bf cabd
000002c0: e83f 803d 299a 1c3d c4e6 1b3c 7381 d5bd
000002d0: a42d c0bd 1f24 91bd df97 33bd 67d0 98bc
000002e0: b1e9 a23d 2ab3 a3bb be80 343d b7ea 603d
000002f0: 7741 6b3d 5e41 00bd 5715 aa3d 7df0 ccbd
00000300: fcd9 1a3d cf1e a4bd 7346 693d 38d6 ccbb
00000310: 275d 87bd 50c1 e63c 4f97 773d fc5c d83b
00000320: baaa 083d 59c9 d23c ead3 8fbd c1fb 24bb
00000330: e6d3 7abd 0fd0 20bc 94de c5bd 3239 aebd
00000340: bc67 62bb 67b4 2fbd 5328 bcbd 20ea 07bd
00000350: 2284 77bc f8f3 c43d 5559 0a3d f080 09bd
00000360: e539 553d b080 993d 0cf7 a73c b836 c93d
00000370: 85a1 0b3c 1b9d b1bd d296 64bd f4b6 a93c
00000380: 1f44 4b3c 46e1 d8bd 91c9 513d 1b00 863d
00000390: 67e6 4c3c a475 53bd f0eb e33c 5ed5 5e3c
000003a0: 9487 573d c606 b8bc 63a4 a53c 42d5 0dbd
000003b0: a387 91bd 7ec5 ab3d 88ee c3bb 47f6 323d
000003c0: 78bf 203d 934b 6a3d 96c2 64bd e1d7 86bd
000003d0: 57fd 9f3d 9afd bb3c 9ce8 99bd 4451 a1bd
000003e0: d324 32bd 1f2d 313d 77ea bbbd b1e1 8bbd
000003f0: 9ba5 ad3d 2fba dcbd fdbc d23d f293 013d
-0.039166074 -0.023609346 -0.0045214696 -0.0031955359 -0.07224729 -0.05924015 -0.023692733 0.05927091
-0.07458953 -0.008101991 0.069602415 -0.0842562 0.09663938 0.10894488 -0.051514264 -0.019939857
0.03402247 -0.08471321 -0.097331285 0.08817733 0.04641505 0.080975294 -0.011427034 0.0084907925
-0.09411066 -0.060412742 0.030016758 0.016595578 0.060974155 -0.037877835 -0.034653243 -0.07979211
-0.09820547 -0.0038930585 -0.025057849 0.081379786 -0.015901638 0.0022743396 0.04724102 0.06339143
0.0053195525 0.07541647 -0.10274015 0.05761937 -0.057587575 0.019820245 -0.05230163 0.089374386
0.06583372 -0.06432729 -0.09703192 0.0050188475 -0.015215679 0.023964224 -0.043502808 0.00075808837
-0.015845334 0.023715941 0.07883747 -0.07039815 0.07377682 -0.018325519 0.013695949 -0.013943122
0.06830631 -0.07388598 -0.08348612 0.026347231 0.08499084 -0.06714239 0.10401867 -0.06864066
-0.016329682 -0.014003315 -0.009243896 0.07329985 0.035307616 -0.041152056 -0.03197008 -0.07889647
0.10150189 -0.09673713 0.05682623 0.05214593 0.03882154 0.067607805 -0.10091871 0.013556417
0.041948028 0.06247403 -0.044928588 -0.057211533 -0.055519648 0.032571703 -0.037578184 0.07802407
0.10483368 0.007196891 0.05398429 -0.06576224 0.072832465 -0.035783734 0.082169876 0.003066857
-0.024178708 0.09315297 -0.039844375 -0.09993882 -0.0031083988 0.009825869 -0.10112475 -0.02460884
-0.06833885 0.028122356 -0.04055243 0.024077646 0.050067928 -0.07616935 0.06154357 -0.083653055
0.05660383 -0.052702963 -0.10630329 0.084353924 -0.067755505 -0.077938005 0.01954585 0.10419918
-0.09304768 -0.062348943 -0.05118445 -0.07078769 0.020222913 0.108031884 0.09598694 -0.02052178
0.047378555 0.020589154 -0.022709072 -0.03476128 -0.045813244 -0.05302777 -0.013620241 0.060908362
-0.093601204 0.0002288667 -0.086793266 0.016395062 0.037247237 0.043992 -0.051975038 -0.054537196
-0.106607266 0.017331913 0.045529474 0.021580722 -0.0005648476 -0.020636318 0.053701214 0.04947631
0.07797544 -0.04771697 0.0963314 0.02156877 -0.023155333 -0.075110145 -0.09840601 0.04291067
-0.046313 0.029383756 -0.04840391 -0.011091342 -0.056360945 0.07302963 -0.020175168 -0.098998085
0.06262189 0.038232956 0.009515468 -0.10425081 -0.09383705 -0.07086968 -0.043846007 -0.018654061
0.07954729 -0.0049957233 0.04406809 0.05491134 0.05743548 -0.03131234 0.083048515 -0.10006807
0.037805542 -0.08013689 0.05695195 -0.006251123 -0.06609564 0.02816835 0.060447033 0.0066028815
0.033365943 0.025730776 -0.07022841 -0.002517447 -0.06123724 -0.00981523 -0.09661594 -0.08507003
-0.0034546694 -0.042896654 -0.09187379 -0.033182263 -0.0151071865 0.09616846 0.0337766 -0.03357023
0.052057166 0.07495248 0.020503543 0.0982489 0.008522396 -0.086725436 -0.055807896 0.020717122
0.012406378 -0.105898425 0.05121762 0.06542989 0.012506104 -0.051625863 0.027822465 0.013600675
0.05261953 -0.022464167 0.020219987 -0.034627207 -0.07105949 0.08387278 -0.005979363 0.0436919
0.0392451 0.05720098 -0.055849634 -0.065841444 0.078119926 0.022948075 -0.0751507 -0.07876828
-0.04349215 0.04325592 -0.0917558 -0.068301566 0.08478852 -0.10777699 0.10289953 0.031635232

bias f4 [20]
00000000: 5cc4 b2bd 0e3e 29bd 9fce 343d ddd7 9dbd
00000010: a92d 20bd e009 d7bd 41c3 ffbc 97f6 acbd
00000020: 85ed 593d 9fbc c2bd 74fa 70bd d3e2 9a3d
00000030: 655b 0a3d fabe b8bd 23c7 acbc ad02 b93c
00000040: f903 80bd ee00 75bd 75da 403d ec43 5cbd
-0.08728859 -0.041318946 0.04414236 -0.07707188 -0.039106045 -0.104999304 -0.031221034 -0.08445471
0.053205032 -0.09508633 -0.0588326 0.075627945 0.033778567 -0.09020801 -0.02109105 0.022584284
-0.06250758 -0.05981534 0.047083337 -0.053775713

weight f4 [6, 20]
00000000: a11a 25be d39c 52be 7709 38be 1b76 183d
00000010: 0f1b 4cbe 4172 1dbe 6f81 033e e65c 223e
00000020: c3a9 95bd 26fd 093e 7c66 603e 937a 0ebe
00000030: ccf8 aabd af1f 2b3e caf9 c33d 480b e0ba
00000040: 2890 c6bc bfe8 f83c cae9 a2bb 1689 d9bd
00000050: 0fe0 253e a0d2 a33c 303d cf3d 0496 5c3e
00000060: a370 563e eb96 36be 7bab a43d d46d cd3d
00000070: dc91 093e d4bf 7d3d 0775 513e 0b75 0a3e
00000080: adae 723d 2e55 5c3d 51ea c5bc 2847 05be
00000090: 29b5 2d3e 12e5 18bd d023 f8bd ae77 c03c
000000a0: 9a48 d4bd 75a7 ff3d 23d2 303e d6b7 f03d
000000b0: d699 0bbe 33e7 b93d 6247 08bd d0a4 493d
000000c0: 616e 0fbe 6c51 2dbd cd25 9dbd c9dc 9f3d
000000d0: 619d b0bd 29dd d3bd ae86 5d3e 2bcf 3dbe
000000e0: 525a 8a3c fe17 1fbe 7c57 053e c08c 20bc
000000f0: 98c1 adbd 5481 0ebe b7fc e0bc 33c1 113d
00000100: 9368 a53d c58f 2b3e a788 ecbd 84b0 433e
00000110: 5209 c53d e57b 153e 653a 83bc 1db1 643e
00000120: aa89 0c3e efb5 5abe 456d fbbb 444e 61bd
00000130: 8802 443b b975 1fbd 7f2b 53be ed05 84bc
00000140: 7a83 50bd 3b3f e63b 2cfe 953d 843b d63c
00000150: 3aba 2a3d a87f 20be 2ab5 abbc 3668 003e
00000160: 7968 d73d aca2 18be a167 10bd fc8a e5bd
00000170: d592 26be 6b8d 65bc 52b4 463e 7f14 6abd
00000180: ad99 61be 4703 8a3d db4c 1e3e eba6 4d3e
00000190: 56ae 17bd 4d6b 993d ce19 1dbd 9069 26be
000001a0: d6a0 b8bd 199c c0ba c6d2 48be b9da 473c
000001b0: 7f59 303e 7f77 cbbd 807a a13d 5235 183e
000001c0: 9b58 e3bd d360 76bd 8611 223e 750e 5fbe
000001d0: 6fdc 22be 37a9 03be 9628 493e a9a7 ebbd
-0.1612344 -0.20567636 -0.1797236 0.03722201 -0.19932197 -0.15375616 0.12842344 0.1585575
-0.0730777 0.13475475 0.21914095 -0.13913946 -0.083482355 0.16711305 0.09569128 -0.0017093206
-0.024238661 0.03038442 -0.0049717175 -0.1062185 0.16198753 0.019997895 0.101190925 0.21541601
0.20941405 -0.17831008 0.0804052 0.10030714 0.13434547 0.06195052 0.20454799 0.13521211
0.059248615 0.05379217 -0.024159582 -0.13015425 0.16963638 -0.037327833 -0.12116206 0.023494568
-0.1036541 0.12483112 0.17267661 0.11753814 -0.13632903 0.09077301 -0.0332712 0.049229443
-0.1400695 -0.042313978 -0.076732256 0.07805783 -0.08623768 -0.10344917 0.21633407 -0.1853606
0.016888771 -0.15536496 0.13021654 -0.009799182 -0.08484191 -0.13916522 -0.027464254 0.03558464
0.080765866 0.16754062 -0.11549502 0.19110304 0.09620918 0.14598043 -0.016019056 0.22333188
0.1372439 -0.21358465 -0.007672938 -0.05500628 0.0029908735 -0.03893063 -0.20622061 -0.016116107
-0.050906636 0.0070265806 0.0732387 0.026151426 0.041681506 -0.15673697 -0.02096041 0.12539753
0.105179735 -0.14905804 -0.03525508 -0.1120815 -0.1626695 -0.014010767 0.19404724 -0.057148453
-0.22031279 0.06738906 0.15459006 0.20083205 -0.037031494 0.07491169 -0.038354687 -0.16251206
-0.09015052 -0.0014694958 -0.19611654 0.012198144 0.1722164 -0.099349014 0.07884693 0.1486409
-0.111008845 -0.060150933 0.15826997 -0.21782859 -0.15904401 -0.12857519 0.19644389 -0.11506588

bias f4 [6]
00000000: 55ce 6e3d d63f 7ebd 979f 35bd b145 523e
00000010: 03fa 2abe 28f5 d43d
0.058302242 -0.062072597 -0.04434165 0.20534398 -0.16696934 0.10398322

weight f4 [20]
00000000: 0000 803f 0000 803f 0000 803f 0000 803f
00000010: 0000 803f 0000 803f 0000 803f 0000 803f
00000020: 0000 803f 0000 803f 0000 803f 0000 803f
00000030: 0000 803f 0000 803f 0000 803f 0000 803f
00000040: 0000 803f 0000 803f 0000 803f 0000 803f
1.0 1.0 1.0 1.0 1.0 1.0 1.0 1.0
1.0 1.0 1.0 1.0 1.0 1.0 1.0 1.0
1.0 1.0 1.0 1.0

bias f4 [20]
00000000: 0000 0000 0000 0000 0000 0000 0000 0000
00000010: 0000 0000 0000 0000 0000 0000 0000 0000
00000020: 0000 0000 0000 0000 0000 0000 0000 0000
00000030: 0000 0000 0000 0000 0000 0000 0000 0000
00000040: 0000 0000 0000 0000 0000 0000 0000 0000
0.0 0.0 0.0 0.0 0.0 0.0 0.0 0.0
0.0 0.0 0.0 0.0 0.0 0.0 0.0 0.0
0.0 0.0 0.0 0.0

running_mean f4 [20]
00000000: 0000 0000 0000 0000 0000 0000 0000 0000
00000010: 0000 0000 0000 0000 0000 0000 0000 0000
00000020: 0000 0000 0000 0000 0000 0000 0000 0000
00000030: 0000 0000 0000 0000 0000 0000 0000 0000
00000040: 0000 0000 0000 0000 0000 0000 0000 0000
0.0 0.0 0.0 0.0 0.0 0.0 0.0 0.0
0.0 0.0 0.0 0.0 0.0 0.0 0.0 0.0
0.0 0.0 0.0 0.0

running_var f4 [20]
00000000: 0000 803f 0000 803f 0000 803f 0000 803f
00000010: 0000 803f 0000 803f 0000 803f 0000 803f
00000020: 0000 803f 0000 803f 0000 803f 0000 803f
00000030: 0000 803f 0000 803f 0000 803f 0000 803f
00000040: 0000 803f 0000 803f 0000 803f 0000 803f
1.0 1.0 1.0 1.0 1.0 1.0 1.0 1.0
1.0 1.0 1.0 1.0 1.0 1.0 1.0 1.0
1.0 1.0 1.0 1.0

weight f4 [6]
00000000: 0000 803f 0000 803f 0000 803f 0000 803f
00000010: 0000 803f 0000 803f
1.0 1.0 1.0 1.0 1.0 1.0

bias f4 [6]
00000000: 0000 0000 0000 0000 0000 0000 0000 0000
00000010: 0000 0000 0000 0000
0.0 0.0 0.0 0.0 0.0 0.0

running_mean f4 [6]
00000000: 0000 0000 0000 0000 0000 0000 0000 0000
00000010: 0000 0000 0000 0000
0.0 0.0 0.0 0.0 0.0 0.0

running_var f4 [6]
00000000: 0000 803f 0000 803f 0000 803f 0000 803f
00000010: 0000 803f 0000 803f
1.0 1.0 1.0 1.0 1.0 1.0
