stateModel.pt (torch, 21807 bytes, 6 tensors)

weight f4 [64, 1]
00000000: 0ec4 be39 09fe 363e c477 2b3f 94c4 67bf
00000010: a28e a23d 780e 58bf 3e8f 75bb ba1f 47bb
00000020: 1551 a8bb e959 6cbb ba8e 293f 236b 623e
00000030: 14ee 953e 4eb3 2b3e 0ece 16bf 8ed8 3dbf
00000040: be97 8c3d 2e50 9fbb c690 11bf 5348 c33e
00000050: d6ae 6abf a4dc 223f c6f6 66bb 3f50 ad3e
00000060: 5e75 063f ae6a 5abb 7354 3f3f 2139 033e
00000070: 7d32 993e d2d5 b93e 6f22 f63e a3c7 8d3e
00000080: 16ed 6cbf 3cf6 2fbf 2b0c a83e 1b08 973e
00000090: e1b2 5b3e 568c aa3d ec3d 88bb 5f50 2e3f
000000a0: 606b c9bd 9048 39bf ea3c 8c3c a49e 503d
000000b0: c360 f63e 2f5a 813e 5ef4 61bf 5807 99be
000000c0: fae2 65bf ae4b 2abf 372d 993d 2b2e 493f
000000d0: 8fa7 bf3e 0213 70bf 2450 63bb b806 5abf
000000e0: ece4 14bf 7bbe c73c d4b3 843e cc47 ebbe
000000f0: 2411 66bf 6ec9 073f 4a26 2b3f 9212 543f
0.00036385696 0.17870344 0.6697962 -0.9053433 0.07937361 -0.8439708 -0.0037469412 -0.00303839
-0.005136619 -0.0036064333 0.6623341 0.22111182 0.29283202 0.16767618 -0.58908165 -0.7415856
0.0686488 -0.004861853 -0.5686153 0.38141116 -0.9167303 0.6361792 -0.0035242303 0.33850285
0.5252284 -0.0033327746 0.74738234 0.12814762 0.29921332 0.36295944 0.48073146 0.27691373
-0.92549264 -0.687351 0.32821783 0.2949837 0.21454956 0.08327548 -0.0041577723 0.68091387
-0.09834933 -0.72376347 0.01711889 0.05093254 0.48120698 0.25264117 -0.882635 -0.29888415
-0.89799464 -0.6652173 0.07479327 0.7858607 0.37432525 -0.93779004 -0.0034685219 -0.851665
-0.5816181 0.02438282 0.25918448 -0.45953214 -0.89869905 0.5304173 0.668553 0.82840836

bias f4 [64]
00000000: 7000 ef3f 72cf 0a40 2271 f63f 8674 20bf
00000010: 7e21 cabf 0cd0 6bbf cbba 0440 54e6 ce3f
00000020: 702b 1f40 6079 0140 8b0d 08c0 c434 333f
00000030: 2042 d63f 2c05 bcbf 049d a83e 889b ee3e
00000040: 284f 16c0 f905 2740 3819 4dbe 86ad 803f
00000050: c033 f43d f298 f6bf 29b5 eb3f 5279 1240
00000060: d86c c4bf 83fd ed3f 6fb0 833f 40f2 8cbe
00000070: 9e23 bebf 6f47 a4bf ef2f bcbf 5c36 133d
00000080: d40a d3be 9a27 10bf e70b 2fbf 5218 623f
00000090: 42ba fd3f e999 c13f 057d 1340 7656 09bf
000000a0: 78ea 45bf d81f b53e efd8 5d3f 597c 0640
000000b0: 60f5 0940 5d10 1cbf 44b2 44bf f074 413e
000000c0: 68f1 503f 38c6 42bf f2c3 0240 16a6 44bf
000000d0: d3c2 c13f 9825 26bf 9dce 1640 80ee fd3c
000000e0: 5068 e43d f07e 973f 450f d1bf 5afb 22bf
000000f0: c070 ba3d 44ef abbf df3b 1940 c182 fb3f
1.8672009 2.1689115 1.9253275 -0.626778 -1.5791471 -0.9211433 2.073901 1.616404
2.4870262 2.0230331 -2.1258266 0.7000239 1.673893 -1.4689078 0.32932293 0.46603036
-2.3485813 2.6097395 -0.20029151 1.0052955 0.11923933 -1.9265425 1.8414661 2.2886548
-1.5345716 1.8592991 1.0288218 -0.27528572 -1.485462 -1.28343 -1.4702128 0.035940513
-0.412192 -0.5631043 -0.68377537 0.8831836 1.9822466 1.5125095 2.3045056 -0.53647554
-0.77310896 0.35375857 0.8665914 2.1013396 2.1556015 -0.6096247 -0.7683451 0.18892264
0.81618357 -0.7608371 2.0432096 -0.7681593 1.5137581 -0.64901114 2.3563607 0.030997515
0.111527085 1.1835613 -1.6332785 -0.6366478 0.091035366 -1.3432393 2.3942792 1.9649278

weight f4 [64, 64]
00000000: e072 2bbe fe39 0cbe ba63 06be c618 cfbd
00000010: 3876 223e 9840 993c bb18 95bf d744 e9be
00000020: 4208 c7bf 7882 c2bf aa43 e43d ceba de3d
00000030: f516 213d 6d2f 653d e0dd b33c 98c7 323d
00000040: 64fc 143e 2232 08c0 ee4c b7bd 5fd2 b13d
00000050: c09e e43d f839 05bd 3c6f 11bf c95c 04be
00000060: 67ed b13d 66b2 c0bf 21d9 81bd b14d d7bb
00000070: f63f 61bd a0e6 273c 63e6 df3d f06d 303b
00000080: 2c5a 65bd 4aff c03d 3039 523d 36a7 85bd
00000090: 7363 babd 031d af3d f3e5 b9bf bc27 cb39
000000a0: 1a8f a7bd 4644 f13d 46b7 efbd 5c14 78bd
000000b0: b998 09be 5cc7 c53d 44b8 60bd 64f1 ba3d
000000c0: 1c57 63bd a6f5 81bd 8076 40be 3b3f 993d
000000d0: 65b0 6d3d be0e a43d 9089 23bf e4d3 f7bd
000000e0: e0d1 87bb 0447 1cbe 0131 91bd 48a7 2ebd
000000f0: e8e6 b23d c6ce babd 4b32 10bd 4db3 cf3d
00000100: c101 58bd e59a 2d3d 1093 20be 003d 353a
00000110: 8054 c4ba 3a6f d3bd 66c2 cc3c ad9b 163d
00000120: e914 913d 467d f0bd 843e 3abd 0f58 9f3d
00000130: f9f9 d8bd 080d dc3c 7c6d 003d 0012 123b
00000140: 385f eebd 2c64 e8bd 3442 3b3d f795 16bd
00000150: c412 63bd aecc 8abd 0fa4 b0bd 0763 9a3d
00000160: 10e1 46bc 884e 25bb 07d8 3fbc 21e8 663d
00000170: 20ff 383d 56d1 823d 9472 dcbd 75d7 14be
00000180: 20c7 7a3c 563a a03d 9093 aa3c f859 acbd
00000190: 846c ed3c e858 ad3d b00c 9f3d 44d9 14bc
000001a0: e089 f63b 1833 e1bc 541b 9f3d cb96 27bd
000001b0: 1cc6 f6bd dfc1 14be 588b debd f05f f83c
000001c0: d89f c23c 28bf b7bc 8bc9 52bd 2fc9 14bd
000001d0: 8084 f3bd 8628 ea3d e576 a7bd c2af 91bd
000001e0: ecb4 70bd baae 543d ae22 febd ae01 e8bd
000001f0: 4e12 a2bd c70e c5bd a2af b13d 2bae 503a
00000200: 0050 e63a 30d5 033c 288a 583d ca92 f7bd
00000210: e083 ecbc 96d2 e8bd 182e f6bd c8dc 713d
00000220: b21b b5bd b08b 73bc 80c4 adbc c8c8 773d
00000230: 9abc afbd 0c68 8fbd 1c24 89bd 6024 abbc
00000240: 9261 b4bd 7cc1 213d 746f c5bd 36dd e7bd
00000250: c61e 84bd a2ff af3d e291 cb3d 90df 1fbc
00000260: 9408 c53d 204f a33b 726c babd a61c 893d
00000270: 5034 d63c a835 40bd 548a 0b3d 0015 813a
00000280: d6fe bbbd ec7f 3b3d a4ec 1d3d 3c27 413d
00000290: 82bd a43d 9032 7abc ba8b f9bd 2e07 88bd
000002a0: 8040 4c3b 4691 8b3d b2fc de3d 2c9d 9f3d
000002b0: 7485 6abd 70cd 34bc b454 b33d 3447 813d
000002c0: c0ce ca3c 8011 57bd c0ba 76bb 3aa6 82bd
000002d0: a8c2 aabd d8fb c1bc 8c56 063d 34dc d23d
000002e0: 56b5 82bd e815 dcbc 4aa9 8d3d e03e a73b
000002f0: 8cb9 83bd 38f2 1b3d 444a ed3d c0e1 95bd
00000300: 6eb1 1d3f 49f5 973c 2313 1a3d 4052 15bd
00000310: 88ff eabc 9c1f 08bd b855 4b3f c68a 373f
00000320: 4bdd 613f 2d40 3e3f b694 0e3d 24e4 b6bd
00000330: 3c9e 493d 0c8d 933c aafb 92bd c0f2 753d
00000340: 7e75 bc3b 2356 503f 7844 713d 8ee3 a6bd
00000350: 1439 eebd 7f51 5abd 012e 233f aae0 423d
00000360: f3cf 15bc 04ce a13f 17f9 a3bd efbe 7cbc
00000370: 2145 18ba 7a12 fbbd 204e f4bd b73a da3d
00000380: 2088 eb3b fa1c febd eb2b c8bc 803c b2bd
00000390: 18bf 853c b151 6dbd 1589 683f 7c66 c03d
000003a0: 747a b3bd fcd4 0a3d 996e 0ebe 2ff2 f8bb
000003b0: 5dc0 273c 128b fbbd c00c 9fbc 48e2 a43c
000003c0: c86f 9f3c e057 95bb 7d8e ea3d 5b53 a83d
000003d0: 3934 963c f87f b23d 22c1 df3e b0b5 d6bc
000003e0: 183a bd3c fce7 3dbd d7ac 273d ac46 7f3d
000003f0: dabf 993d 2386 e5bc 944e 8ebd a89f a33d
-0.1674304 -0.13693997 -0.1312398 -0.10112147 0.1586541 0.018707559 -1.1648172 -0.45560333
-1.5549395 -1.5196066 0.111457184 0.10875474 0.039328534 0.055953432 0.021956384 0.04364738
0.14549404 -2.1280599 -0.0895022 0.08682703 0.11163092 -0.032525986 -0.56810355 -0.1292602
0.08687859 -1.5054443 -0.06340242 -0.006570541 -0.05499264 0.010247856 0.10932615 0.0026920997
-0.055994198 0.094236925 0.05132407 -0.065260336 -0.09101 0.085504554 -1.45233 0.00038748782
-0.08181591 0.117806 -0.117048785 -0.06056629 -0.13437165 0.096571654 -0.05486323 0.09128073
-0.055502996 -0.06345682 -0.18795204 0.074827634 0.05802955 0.08010624 -0.6388178 -0.12100962
-0.004144892 -0.15261465 -0.07089425 -0.04264 0.08735448 -0.0912147 -0.035204213 0.10141621
-0.052736048 0.042384047 -0.156811 0.0006913692 -0.0014978796 -0.10323949 0.02499504 0.036769558
0.070840664 -0.11742644 -0.045469776 0.07780468 -0.105945535 0.026861683 0.031354412 0.002228856
-0.11639255 -0.11347231 0.045717433 -0.03676411 -0.05543782 -0.06777321 -0.08625042 0.07538419
-0.01213862 -0.002522381 -0.01170922 0.05637372 0.04516518 0.06387584 -0.107640415 -0.14535315
0.015306264 0.07823627 0.020822316 -0.08415598 0.028982408 0.08464223 0.07766092 -0.009085003
0.00752376 -0.027490184 0.07768884 -0.04091529 -0.12049505 -0.14527081 -0.108664215 0.030319184
0.02375786 -0.022430018 -0.051461738 -0.036324676 -0.11890507 0.114335105 -0.08176974 -0.07113601
-0.05876629 0.051924445 -0.124089584 -0.113284454 -0.079136476 -0.09621959 0.086760774 0.00079605234
0.0017571449 0.008046433 0.05286613 -0.12088545 -0.028871477 -0.11368291 -0.120205104 0.059048444
-0.08843173 -0.014864847 -0.021211863 0.060494214 -0.08580895 -0.07002267 -0.066963404 -0.020891368
-0.088076726 0.03949116 -0.096403986 -0.113214895 -0.06451182 0.0859368 0.09939934 -0.009757891
0.09620777 0.0049837977 -0.091027156 0.066949174 0.026147991 -0.04692617 0.034067467 0.0009848177
-0.091794655 0.045776293 0.038555756 0.047156557 0.08043958 -0.015270844 -0.12184854 -0.066419944
0.0031166375 0.06814818 0.108880416 0.0779365 -0.057256177 -0.011035308 0.0875639 0.06312409
0.02475679 -0.052506924 -0.0037647933 -0.063793615 -0.08337909 -0.023679659 0.03279738 0.10295907
-0.06382243 -0.026865914 0.06917055 0.005103931 -0.06431875 0.038072795 0.11586431 -0.07318449
0.6159886 0.018549578 0.037615906 -0.036455393 -0.0286863 -0.03323327 0.7942767 0.71696126
0.8822829 0.74316674 0.03480979 -0.08930233 0.04922317 0.018011592 -0.07176907 0.060045958
0.005751311 0.81381434 0.058903188 -0.08148871 -0.116319805 -0.053300377 0.6374207 0.047577538
-0.009143817 1.2640996 -0.080064945 -0.0154263815 -0.0005808641 -0.122593835 -0.11928964 0.1065573
0.007187858 -0.124078706 -0.024435004 -0.08702946 0.016326472 -0.057939235 0.9083417 0.09394547
-0.087635905 0.033894524 -0.13909377 -0.00759723 0.010238734 -0.12282385 -0.01941526 0.02012743
0.019462481 -0.0045575947 0.11452959 0.08219024 0.018335449 0.08715814 0.43702036 -0.026209682
0.02309899 -0.046363816 0.040936317 0.062323257 0.07507296 -0.028018063 -0.06948581 0.079894364

bias f4 [64]
00000000: 60a6 bfbf c7d8 783d 8a08 aebd f37e e83e
00000010: acad 833f 912a 873e 5181 3bbf 5c2e 08bf
00000020: 9bfc 923f 705d f43c 2775 c3bd 94bc dc3e
00000030: 943b bf3f 20fe bf3c f4c8 193d 0537 873f
00000040: 8df6 dbbe 2c21 fdbd 2724 32bf 908a bf3d
00000050: f124 82be f559 99bd 34c6 373f 70ee 23bc
00000060: 2058 86be 492e 353f a230 a33d afb9 7a3f
00000070: 1614 1bbf ee67 bc3d 7eaf ffbd ecc8 093f
00000080: f55a 343d 9b16 babd 65e9 3f3f 3de2 e2be
00000090: 4056 33bb 7a20 ae3f bd65 46bb 5873 5b3f
000000a0: 8c46 49bd 020a e73d 903d 0f3f a6bb da3d
000000b0: 685a 973f 4343 533f db6f d73d 7e76 cf3c
000000c0: 58ac 86be 14db 0abe e099 00be f862 0b3d
000000d0: 78a8 f6bc c092 203c 3c78 243f d8f3 a33f
000000e0: 55d2 753f 458a 1c3e 8091 013b 5e4c 463f
000000f0: f344 703f 5b88 b73f e892 b13f a896 af3c
-1.4972649 0.06075361 -0.084977224 0.45409355 1.0287375 0.26399663 -0.73244196 -0.5319574
1.1483339 0.02982971 -0.095438294 0.43112624 1.4940057 0.023436606 0.03754516 1.0563666
-0.4296154 -0.12359843 -0.69586414 0.093526006 -0.2541881 -0.07487861 0.7178681 -0.010005578
-0.2623911 0.7077375 0.0796826 0.9793958 -0.60577524 0.091995105 -0.12484644 0.5382221
0.044032056 -0.09086343 0.74965507 -0.4431323 -0.0027364641 1.3603661 -0.0030273043 0.85722876
-0.049139544 0.11281206 0.5595331 0.10680322 1.1824465 0.8252451 0.105193816 0.025325056
-0.26303363 -0.13560134 -0.12558699 0.03402993 -0.030109629 0.009800613 0.64245963 1.280879
0.96024066 0.1528712 0.0019770563 0.7746028 0.9385521 1.4338487 1.3872957 0.021434143

weight f4 [6, 64]
00000000: c159 a4bd 9bfe 4bbd 3043 22bd 8e44 2dbc
00000010: a685 9e3c d7d8 0e3d ff20 f5bd 61bf 13bd
00000020: 1e0b 223d e433 b9bd f6fa e3bd e9c3 583b
00000030: 5b72 523e eb5c 433d 2626 59bd 5218 dd3e
00000040: 7ec3 94bd 3b05 5ebd 4179 47be afcb 773c
00000050: 854b f2bc f5ba d73c 9e3d 3e3d 7691 82bd
00000060: d9d1 53bc 70aa 843a 76a5 95bd 9ccd 813e
00000070: 5400 07be debf d0bd 80b9 dc3d f3b0 b23b
00000080: 562e 5dbd 7e5b b9bd 1541 b43c 2851 08bd
00000090: 208c e63c ac62 353d 8eb8 a93c 5b7a 043d
000000a0: 7eee 92bd 7864 2fbd 6174 0e3d 3a67 b1bd
000000b0: c07b 1f3d c641 053d cc2d 55bc e0f8 b8bd
000000c0: daca c4bc c100 b2bd 3b32 083c 744d 1e3d
000000d0: c088 39bc e0aa e43d 1832 933c 099c 1a3e
000000e0: a66b 93bb 6b0e 04bc ce74 cbbd 8754 b4bb
000000f0: d7a0 6b3d b2d7 823e a09e 0c3e 1482 683d
00000100: cd6f f9bd 8ed7 8d3d c0b4 7cbc 559a d53c
00000110: e51b cc3c 58b7 a73d ebd8 dcbb f328 573c
00000120: 9d10 3e3d e033 c63c 9d17 bc3c 6900 a3bd
00000130: 388b 0b3e fb69 aabd 7547 9a3d a742 8a3e
00000140: 31fb 3b3d f230 013e e8c2 713d 8e4f 30bd
00000150: bfbb c53c c0bb f13b c775 ccbc 907d 92bc
00000160: 18fe 983c 120e 70bd d4d4 edbd 3e51 263e
00000170: 3f7d 0fbd 6e93 b63d 6056 34bc cea4 093d
00000180: a4c4 bc3b 2cff 913d dc47 053b 1f78 ae3c
00000190: 0890 733d 6e21 9a3d 89a8 ebbd 9c05 4cbc
000001a0: 2c67 8b3d 0072 74bb 9cbd 573d 602a a53b
000001b0: e055 e13d 1390 8f3d 348b a23d ccc8 7bbd
000001c0: 960c 3e3d 9f88 45bd 88ce 5c3d 4c61 023d
000001d0: 9835 833c 38c5 dbbd c0dd e0be 5537 a63e
000001e0: eaeb 103f a764 0a3d a82a aabc 23c1 a63d
000001f0: decd db3c 6940 6a3e bbae 2c3e 8cc1 d93d
00000200: de1e 5bbd 6ab4 afbd eee9 933d 5380 6b3b
00000210: 9de9 673c bb73 ae3d dd5a 33bd e100 0cbc
00000220: c229 3d3d 9acf b4bd 36bf afbd 338f 46bd
00000230: 7aa4 6f3e 6b5d 003e 367b b03b 8d0f a93e
00000240: 0016 f0bb 6396 66bd 1577 abbd 2b15 17bd
00000250: 2695 4e3d 944e c6bd 062e f2bc b075 833d
00000260: 3465 6fbc 8572 663b 6229 fabd 3525 953e
00000270: 2e40 e13c 54cd aa3d dc9c 4abd ab7f 9b3a
00000280: 8a42 dbbc 0659 de3d ffd1 8c3d 8136 58bd
00000290: 2ae2 d03d f7ec b63d 1439 48bd 5841 5fba
000002a0: e635 c7bd 2a29 e13d d4ca 883d 1c57 693d
000002b0: 9447 c33c c3df c13c 8ed1 553d 16c2 8bbd
000002c0: 6887 033a 995c aabd 5c6f 43bd 7ccd 123d
000002d0: 24d1 163d 7cd7 20bd 74d5 b93d d049 373e
000002e0: f7c9 ebbc fe49 dd3b b0eb 4b3d 7da3 843c
000002f0: 8efd 1f3d 1a01 533e 8bb7 fc3d 100b bdbc
00000300: 831c c0bd c892 8c3c 22fe 843d bae6 373c
00000310: 000f 1238 ef68 d13d 229d febc 9b26 d73c
00000320: 04ae 9d3d 38c6 df3d b0a2 203d d9c2 62bd
00000330: cbc0 4d3e bded f83a 75d5 e33c 3fb5 8e3e
00000340: 7be1 9d3d 36e1 d63c 1249 953d 46b5 3f3c
00000350: b37d 443d 8ee2 8abd 8776 d7bc 06dd 9f3d
00000360: 4149 ae3c d05f 3d3a d091 8b3d 9a3f 723e
00000370: 9a68 b7bd 000f e53b 28b6 19bd 5e2c 6d3c
00000380: 0776 bfbc 581e 8d3c 57ca 313d be81 9abd
00000390: e460 0ebd 14b6 813d 8d20 dabc 147d 573b
000003a0: 9af7 dd3d 9c8c 8e3d 8c67 85bc c2dc b4bd
000003b0: fa07 413d d068 7b3c 27da b53d c0d8 423c
000003c0: 69d2 c2bc 490c 8d3d 9c7d 12bd 508f d8bd
000003d0: 0cb6 ffbd b8cb 5cbd 8887 2e3e c32d 503e
000003e0: bce4 f1bd 638c 7bbb 6821 c6bd 7d97 353d
000003f0: 6960 353d 58d1 9a3e 658c f23d 40bb 8e3c
-0.08024932 -0.049803358 -0.039614856 -0.010575427 0.019350838 0.034874763 -0.11969184 -0.036071185
0.039561383 -0.090431005 -0.111318514 0.0033075756 0.20551436 0.047696035 -0.053014897 0.43182617
-0.0726385 -0.054204207 -0.19479848 0.015124246 -0.029577026 0.026334265 0.04644548 -0.06375401
-0.01292845 0.0010121595 -0.0730695 0.2535218 -0.13183719 -0.10192846 0.10777569 0.005453223
-0.053999268 -0.09050654 0.02200369 -0.03328052 0.028142989 0.044283554 0.020717885 0.03234325
-0.07174395 -0.042820424 0.034778956 -0.08662267 0.038936377 0.03253343 -0.013011407 -0.09031844
-0.024022508 -0.0869155 0.008312757 0.038648084 -0.011324108 0.11165404 0.017968222 0.15098585
-0.0044989167 -0.008060078 -0.09934388 -0.0055032405 0.057526436 0.25555187 0.13732386 0.056764677
-0.121795274 0.069258794 -0.0154239535 0.026074568 0.024915645 0.08189267 -0.006739726 0.013132322
0.046402562 0.024194658 0.022960478 -0.079590626 0.13627326 -0.083209954 0.075331606 0.27003977
0.04589385 0.12616327 0.059023768 -0.04304462 0.024137376 0.007377118 -0.024958504 -0.017882138
0.018675849 -0.05860717 -0.11612859 0.16241929 -0.035031553 0.08914839 -0.0110069215 0.033604436
0.005760746 0.07128748 0.002033702 0.021297513 0.05946353 0.075259075 -0.11506755 -0.012452509
0.06806788 -0.0037299395 0.05267106 0.005040452 0.110027075 0.07009902 0.07936707 -0.06147079
0.04639872 -0.048225995 0.0539079 0.03183107 0.016016766 -0.10730976 -0.43919182 0.3246409
0.56609976 0.033787396 -0.020772293 0.08142307 0.026831564 0.22876133 0.1686353 0.10632619
-0.053496234 -0.08579333 0.07222353 0.0035934641 0.014154819 0.085181676 -0.043787826 -0.008545131
0.0461824 -0.08828659 -0.085813925 -0.04847641 0.23402587 0.12535636 0.0053857816 0.33019677
-0.0073268414 -0.056295764 -0.083723225 -0.03688542 0.050435208 -0.09682956 -0.029562961 0.064189315
-0.014611531 0.0035163474 -0.122149244 0.2912995 0.027496424 0.083399445 -0.049466 0.001186361
-0.026765127 0.108568236 0.06875991 -0.052786354 0.10199387 0.08931916 -0.04888256 -0.0008516512
-0.09727077 0.109941795 0.066793114 0.05696784 0.023837842 0.023666268 0.0522018 -0.06824128
0.00050174305 -0.08318443 -0.047713622 0.035840496 0.036820546 -0.039268002 0.09073916 0.17899251
-0.028782828 0.0067532053 0.049785316 0.016191239 0.039060168 0.20605889 0.123396955 -0.023076564
-0.09380438 0.017159835 0.064937845 0.011224443 3.4823082e-05 0.102250926 -0.031080786 0.026263526
0.076992065 0.10926479 0.03921765 -0.055361602 0.20093076 0.001899175 0.027811745 0.27872655
0.077090226 0.026230436 0.07289328 0.011700934 0.04797144 -0.06781493 -0.026301635 0.07805829
0.021275165 0.0007224055 0.06814921 0.23657075 -0.08955498 0.0069903135 -0.037527233 0.01447591
-0.02337171 0.017226383 0.043405857 -0.075442776 -0.03476037 0.06333557 -0.02662685 0.003288095
0.10838242 0.06960413 -0.016284727 -0.08831169 0.047126748 0.0153448135 0.088795 0.011892498
-0.023781972 0.06887109 -0.03576432 -0.1057421 -0.124858946 -0.05390522 0.17043889 0.20329957
-0.11811206 -0.0038383238 -0.096743405 0.044333924 0.044281397 0.30237842 0.118431844 0.017423272

bias f4 [6]
00000000: ba46 863f c003 413e c943 303f eb78 8b3e
00000010: 6a7b 67bd 1461 93be
1.0490334 0.18849087 0.6885343 0.2724069 -0.05651418 -0.28785002
