StateTrainers/stateDQN.pt (torch, 21599 bytes, 6 tensors)

weight f4 [64, 1]
0	0xbc4415a2	-0.011968048
1	0xc11b9419	-9.723657
2	0x3e4ce89d	0.2001061
3	0xc06f06f7	-3.7348
4	0xc05ba38c	-3.431857
5	0xc0c194eb	-6.0494285
6	0x3d494268	0.049135596
7	0xc0bc4421	-5.8833165
8	0xbc173b33	-0.009230423
9	0xbef46075	-0.4772984
10	0xbf26d39b	-0.65166634
11	0xc0ac0877	-5.3760333
12	0xc0976078	-4.730526
13	0xbf03fb24	-0.51555085
14	0x3d201f20	0.039092183
15	0x3e120a14	0.14261657
16	0xc0e563a8	-7.168415
17	0x3e7821ee	0.24231693
18	0x3e451a58	0.1924833
19	0xbbbe20af	-0.005802236
20	0xbf1fc042	-0.6240274
21	0xc130b27c	-11.043575
22	0xc04f95bb	-3.2435138
23	0xc130eced	-11.057843
24	0xc0db3ec3	-6.8514113
25	0xbede44e3	-0.4341193
26	0xc10e837e	-8.907103
27	0xbf4d20c1	-0.80128103
28	0x3c846b0c	0.016164325
29	0xc0ca2484	-6.3169575
30	0xbf440b37	-0.7657961
31	0xbeee9bd8	-0.46603274
32	0xbe9472d8	-0.2899387
33	0xbf5e08ca	-0.8673216
34	0xbd90a612	-0.070629254
35	0xc08565c3	-4.168672
36	0xbc2a42ee	-0.010391934
37	0xbf607282	-0.87674725
38	0xbf4ce55d	-0.8003748
39	0xbde869d1	-0.11348308
40	0x3ea5f46e	0.32413048
41	0xbf4ff0c1	-0.81226736
42	0x3c99dd2c	0.01878222
43	0xc0cfb46a	-6.490773
44	0x3e9048b3	0.28180465
45	0xc0e05c25	-7.011248
46	0xc11d9bf0	-9.850571
47	0xc0f741cf	-7.7267833
48	0x3dcf38bb	0.10118242
49	0xc0fe1ef0	-7.9412766
50	0xbe8ffd8d	-0.2812313
51	0x3ca50bec	0.020147286
52	0xbe2f0192	-0.17090443
53	0xc0b34422	-5.602067
54	0xbf5fb302	-0.8738252
55	0xbf46f62e	-0.7771939
56	0xbd13e101	-0.036103252
57	0xc10f7852	-8.966875
58	0xbc382d0f	-0.011241212
59	0xc0e69b05	-7.2064233
60	0x3e500937	0.20316015
61	0xc0b8f29c	-5.7796154
62	0xbe237c2f	-0.15965341
63	0xc0c7bfb1	-6.24215

bias f4 [64]
0	0x40db516f	6.8536906
1	0xc0eadb9b	-7.3393073
2	0x402b9b37	2.6813486
3	0x41156e88	9.339485
4	0x41146a5d	9.275968
5	0x411c2928	9.760048
6	0x412a8687	10.657844
7	0xc125196a	-10.318705
8	0x41007843	8.029361
9	0x3e65e1a3	0.22449355
10	0xbf47643f	-0.7788734
11	0xc05be5df	-3.4359052
12	0x4131bb57	11.108237
13	0xbe5f7be6	-0.21824607
14	0x410f64be	8.962095
15	0x410eaaec	8.916729
16	0x4132daaf	11.17839
17	0x4123d9d5	10.240682
18	0xc11d4c59	-9.83114
19	0x41103653	9.013263
20	0xbeea8811	-0.45806935
21	0xc11c01e4	-9.750462
22	0x403b6767	2.9281862
23	0xc11951d9	-9.582482
24	0xbfdd6c6f	-1.7298716
25	0xbe9cb4d0	-0.306067
26	0xc127d5e1	-10.489717
27	0x3f1e3359	0.617971
28	0x412c1ffe	10.757811
29	0xc117bb00	-9.483154
30	0xbe9b8847	-0.3037741
31	0xbed33b99	-0.41256407
32	0xbe932b25	-0.28743854
33	0x3f00f014	0.5036633
34	0xbdaf37c7	-0.085555606
35	0x4124c4e3	10.298068
36	0x41099b1d	8.600369
37	0x3f091f7b	0.5356366
38	0x3f36fbe9	0.71478134
39	0xbf4dbfc1	-0.8037072
40	0x412a539e	10.645414
41	0x3f3a56cd	0.727887
42	0x412bea54	10.744709
43	0xc122afa3	-10.16788
44	0x412e3aa0	10.889313
45	0x40708015	3.7578175
46	0xc0e88bea	-7.2670794
47	0x41315e4a	11.08552
48	0x407fb7cc	3.995593
49	0xc11c6650	-9.774979
50	0x3e8f5536	0.27994698
51	0x412e46be	10.892271
52	0x4126c95f	10.424163
53	0xc094b88d	-4.647528
54	0xbe8f3bdb	-0.27975354
55	0x3e304491	0.17213656
56	0xbf44ea1d	-0.7691973
57	0x411b1c11	9.694352
58	0xbf12c63a	-0.5733372
59	0xc12a5f87	-10.648322
60	0xc12a4d61	-10.643891
61	0x412fb904	10.98267
62	0xbe8d53a2	-0.2760287
63	0x41117f36	9.093557

weight f4 [64, 64]
0	0xc089b46b	-4.3032737
1	0x3d611e0c	0.054960296
2	0xc085da73	-4.182916
3	0x3dd6a5da	0.104808524
4	0x3c113a5e	0.0088640135
5	0x3dd88635	0.10572473
6	0xc089d680	-4.307434
7	0xbc8942b3	-0.016755437
8	0xc0896c28	-4.2944527
9	0x3ddf88ad	0.10914741
10	0xbdd3ddd5	-0.103450455
11	0x3dd2c0b5	0.10290662
12	0xbd560713	-0.05225284
13	0xbdad5ee0	-0.084653616
14	0xc089a91d	-4.3018937
15	0xc089a690	-4.3015823
16	0x3d66a7b3	0.056312274
17	0xc0836f78	-4.107357
18	0xbd642c28	-0.055706173
19	0xc08535f9	-4.1628385
20	0x3ddd1fd4	0.10797086
21	0x3c645f6e	0.013938768
22	0xc0891bca	-4.284642
23	0xbd95131b	-0.07279035
24	0x3d36da37	0.0446417
25	0xbd926e5f	-0.07149958
26	0xbd0caf9c	-0.03434716
27	0xbd392fa5	-0.045211453
28	0xc084335e	-4.1312704
29	0xbcf70831	-0.030155273
30	0xbd346177	-0.044038262
31	0x3c3bf8c9	0.011472889
32	0xbbf629e3	-0.0075123175
33	0xbddc88ed	-0.10768304
34	0xbc1524b2	-0.009102987
35	0xc089db14	-4.307993
36	0xc0875a22	-4.2297525
37	0x3dc8df1e	0.09808181
38	0x3d1aa568	0.0377554
39	0xbcb15cf3	-0.021650767
40	0xc08464d7	-4.1373096
41	0xbdc0a015	-0.09405533
42	0xc085b312	-4.178109
43	0x3c8be817	0.017078442
44	0xc088f6c0	-4.280121
45	0x3d661b36	0.056178294
46	0x3c180124	0.009277616
47	0xbddf0232	-0.108890906
48	0xc083f01f	-4.1230617
49	0xbcc23bb0	-0.023710102
50	0x3b78a6b8	0.003794117
51	0xc0859819	-4.1748166
52	0xbd9af4a0	-0.0756619
53	0x3cbf7ffb	0.023376456
54	0xbc9b888a	-0.018986005
55	0xbaaf2e07	-0.0013365158
56	0x3d7af3be	0.061267607
57	0xbdde6b81	-0.108603485
58	0xbde0734e	-0.109594926
59	0x3d2dc2bd	0.042422045
60	0xc08983bc	-4.297331
61	0xbdc7a34b	-0.097479425
62	0xbd0bebea	-0.034160532
63	0xbc9990db	-0.01874583
64	0xc123c0c9	-10.234567
65	0xc12398e9	-10.224832
66	0xc1264c84	-10.393681
67	0xc123e007	-10.242194
68	0xc124f530	-10.30986
69	0xc125c81a	-10.361353
70	0xc125a5a5	-10.352941
71	0xc1238a8c	-10.221325
72	0xc1250cbd	-10.31561
73	0xbcb77841	-0.022396209
74	0x3de228b4	0.1104292
75	0x41279008	10.472664
76	0xc12389fb	-10.221187
77	0xbd819447	-0.0632711
78	0xc123e53f	-10.243468
79	0x4126fe22	10.437044
80	0xc125bed1	-10.359086
81	0xc125b71b	-10.3572035
82	0xc1265d42	-10.397768
83	0xc1235834	-10.209034
84	0x3dae4fd3	0.08511319
85	0x4124f6c3	10.310245
86	0x41261263	10.379489
87	0xc1262eea	-10.386454
88	0x412617a5	10.380773
89	0x3cd17369	0.025567727
90	0xc123bedd	-10.2340975
91	0x3c94f098	0.01818113
92	0xc1235675	-10.208608
93	0xc1244a73	-10.268176
94	0x3d89388a	0.06700237
95	0xbd8f7e38	-0.07006496
96	0xbda1efca	-0.07907064
97	0xbcec190d	-0.028820539
98	0x3dae9078	0.08523649
99	0xc124a1c1	-10.289491
100	0xc1229602	-10.161623
101	0xbd34a3b9	-0.04410145
102	0x3d278de0	0.040906787
103	0xbd8e7788	-0.069563925
104	0xc124df31	-10.30449
105	0x3da95446	0.08268027
106	0xc125c668	-10.360939
107	0xc1249b49	-10.287911
108	0xc1262307	-10.383552
109	0xc1241d8b	-10.257213
110	0xc1261cfc	-10.382076
111	0xc1261d70	-10.382187
112	0xc124a15a	-10.289392
113	0xc1259baf	-10.350509
114	0xbdd11a3b	-0.10210081
115	0xc1260616	-10.376486
116	0xc12535f6	-10.325674
117	0xc12361c5	-10.2113695
118	0x3d9e3984	0.07725814
119	0x3d790444	0.060795084
120	0x3d561e0b	0.052274745
121	0xc125ae1d	-10.355008
122	0x3d7e35f4	0.062063172
123	0xc125eb50	-10.369949
124	0xc1254d8b	-10.331431
125	0xc124eb04	-10.307377
126	0xbdd07f58	-0.10180539
127	0xc12687ec	-10.408184
128	0xc127d6ba	-10.4899235
129	0xc1265e1a	-10.397974
130	0xc124b9af	-10.295333
131	0xc125750e	-10.341078
132	0xc052ab68	-3.2917118
133	0xc1256979	-10.33825
134	0xc124bebd	-10.296567
135	0xc1265a97	-10.397117
136	0xc124c5dd	-10.298306
137	0x3d5ff542	0.054677255
138	0xbd5132f9	-0.051074002
139	0x41259797	10.349509
140	0xc125dd73	-10.366565
141	0xbdcd3f29	-0.100218125
142	0xc1248d34	-10.284473
143	0xc0522bd5	-3.2839253
144	0xc124cb37	-10.299613
145	0xc0561149	-3.344805
146	0xc05549d9	-3.3326323
147	0xc127972b	-10.474406
148	0xbdc034d9	-0.0938508
149	0xc1262429	-10.383828
150	0x41267ba8	10.4051895
151	0xc1255e65	-10.335546
152	0x41286190	10.523819
153	0x3cb12051	0.021621855
154	0xc124955a	-10.286463
155	0xbc0e489e	-0.0086843055
156	0xc127bfff	-10.484374
157	0xc05b75fc	-3.4290762
158	0x3b8a4c7b	0.004220543
159	0xbd565439	-0.052326415
160	0x3d082ad0	0.033243954
161	0xbccfb573	-0.025355076
162	0xbdb88998	-0.09010619
163	0xc0569e9a	-3.3534303
164	0xc126002e	-10.375044
165	0xbdb891e1	-0.09012199
166	0x3dcb0e71	0.09914864
167	0x3dc9fa36	0.09862177
168	0xc1245135	-10.269826
169	0x3cd76e63	0.026297754
170	0xc051dff5	-3.2792943
171	0xc1278a50	-10.471268
172	0xc051c924	-3.2779016
173	0xc127cfe7	-10.488257
174	0xc1275c71	-10.460069
175	0xc125f145	-10.371404
176	0xc05336da	-3.3002229
177	0xc126afca	-10.417917
178	0xb91ec328	-0.00015140756
179	0xc12578bc	-10.341976
180	0xc125d450	-10.364334
181	0xc125f88e	-10.373182
182	0xbd5b4630	-0.053533733
183	0x3dc5429a	0.09631844
184	0x3c1bed44	0.009517018
185	0xc12782ff	-10.469481
186	0xbcab2e98	-0.020896241
187	0xc1273e92	-10.452776
188	0xc124ce54	-10.300373
189	0xc1266583	-10.399783
190	0xbd6a9afc	-0.05727671
191	0x41267b4a	10.4051
192	0xc10dc6cb	-8.861033
193	0x3d274c29	0.040844116
194	0xc10e6f24	-8.902134
195	0xc10e2036	-8.882864
196	0xc10d281a	-8.82229
197	0xc10d3a00	-8.82666
198	0xc10cfd19	-8.811791
199	0xc10ee972	-8.9319935
200	0xc10e0c26	-8.877966
201	0x3dd1fee1	0.102536924
202	0xbbfe5d13	-0.00776256
203	0xc10e6fc0	-8.902283
204	0xc10e66e4	-8.90012
205	0xbdbbbd28	-0.09166938
206	0xc10f60bb	-8.961116
207	0xc10d37e7	-8.826148
208	0xc10e9b6c	-8.912945
209	0xc10f931f	-8.973418
210	0xc10f659f	-8.96231
211	0xc10e6023	-8.898471
212	0xbdc9caa9	-0.098531075
213	0xbbc3946f	-0.0059686224
214	0xc10d6b7a	-8.838739
215	0xbde4cca6	-0.11171846
216	0xc10f5e85	-8.960576
217	0x3cbce875	0.023060063
218	0x3c60cac6	0.01372022
219	0xbd2de100	-0.042450905
220	0xc10e01a6	-8.875402
221	0xc10cde69	-8.804299
222	0xbd8bbf51	-0.068236
223	0x3d84ca4b	0.06483897
224	0xbd9043f6	-0.070442125
225	0xbdd54d47	-0.1041513
226	0x3d07b420	0.033130765
227	0xc10cf020	-8.808624
228	0xc10f6ed6	-8.96456
229	0xbd1fc0ac	-0.039002106
230	0x3dc5213a	0.09625478
231	0xbd2ac1c2	-0.041688688
232	0xc10c292c	-8.760052
233	0x3da1e98b	0.07905873
234	0xc10c903d	-8.785214
235	0xc10ecbd4	-8.924763
236	0xc10f16e6	-8.94309
237	0xc10ceaa0	-8.8072815
238	0x3db33c42	0.08751728
239	0xc10d5ebb	-8.835628
240	0xc10e5453	-8.895587
241	0xc10c69c0	-8.775818
242	0xbc5f6526	-0.0136349555
243	0xc10d4694	-8.829731
244	0xc10ea286	-8.914679
245	0xc10d89f5	-8.846181
246	0x3d99dab3	0.07512417
247	0x3c9a3420	0.018823683
248	0x3daa1a6a	0.08305819
249	0xbda5d6af	-0.08097588
250	0xbcf7c971	-0.030247422
251	0xc10e989b	-8.912257
252	0xc10c4f87	-8.769416
253	0xc10f5a94	-8.959614
254	0xbdb0f32a	-0.0864013
255	0xc10eb147	-8.918281

bias f4 [64]
0	0xc0870a9b	-4.2200446
1	0xc124b862	-10.295015
2	0x412527a0	10.322174
3	0xc10f3ee4	-8.952854
4	0xc126ad83	-10.417361
5	0xc10d9dbd	-8.85101
6	0xc1162173	-9.383166
7	0x4126c8db	10.424037
8	0x41226016	10.1484585
9	0xc11d35ef	-9.825667
10	0xc1268baf	-10.409102
11	0xc126b5ea	-10.419413
12	0xc126762d	-10.4038515
13	0x41254b1c	10.330837
14	0xc0eff372	-7.4984674
15	0x4125b191	10.355851
16	0xc0d3fd01	-6.6246343
17	0xc127ec82	-10.495241
18	0x4117ac62	9.479586
19	0x4126e4a3	10.4308195
20	0x412425de	10.259245
21	0xc0182f0a	-2.377871
22	0x4125001f	10.31253
23	0xc0e41cfd	-7.1285386
24	0x3d0d0c44	0.034435526
25	0x4126213d	10.383115
26	0xc10a6a3c	-8.650936
27	0xc1257917	-10.342063
28	0x41269803	10.412112
29	0xc1207815	-10.029317
30	0x412502db	10.313197
31	0xc119ee11	-9.620622
32	0xc100e856	-8.056723
33	0xc119f02b	-9.621135
34	0xc10b8a35	-8.721242
35	0x41261173	10.37926
36	0xc0c7ee9c	-6.247877
37	0xc1267e8c	-10.405895
38	0x41271ed6	10.445028
39	0x4116eeb3	9.433276
40	0x4125c0b4	10.359547
41	0xbfc3c060	-1.5293083
42	0x4114ce20	9.3003235
43	0x41279979	10.474969
44	0x41273253	10.449786
45	0x4127a27d	10.47717
46	0x41261e94	10.382465
47	0xc1239111	-10.222917
48	0x41262e81	10.3863535
49	0xbab7ab33	-0.0014012813
50	0xc12731bb	-10.449641
51	0xc126526e	-10.395124
52	0x41249748	10.286934
53	0xc101d581	-8.114625
54	0xc100a151	-8.039384
55	0xc1187ec9	-9.530953
56	0xc0f52b01	-7.6614995
57	0x4125d3f7	10.364249
58	0xc127b5ff	-10.481933
59	0x41259e99	10.35122
60	0xc124414f	-10.2659445
61	0xc1161a54	-9.381428
62	0xc12693a1	-10.411042
63	0xc125f491	-10.372209

weight f4 [6, 64]
0	0x4085eb72	4.184991
1	0x4124e779	10.306512
2	0xc12576e3	-10.341525
3	0xbc5463fd	-0.012963292
4	0x4126128e	10.37953
5	0xc10c902b	-8.785197
6	0xc10c171c	-8.755642
7	0xc12682aa	-10.4069
8	0xbe304497	-0.17213665
9	0xc11a6a04	-9.650883
10	0xc1068bdd	-8.409146
11	0xc125a752	-10.35335
12	0xc1259301	-10.34839
13	0x41253fbe	10.328062
14	0x40eccf10	7.400276
15	0xc1285276	-10.520132
16	0xbd520e8b	-0.0512834
17	0x3dbb55ed	0.091472484
18	0xc117f207	-9.496589
19	0x3ac46cfe	0.0014986095
20	0xc10d4010	-8.82814
21	0xc0138ff6	-2.3056617
22	0x41263f96	10.390524
23	0xbd8d19ad	-0.06889663
24	0xbbd29bc9	-0.0064272624
25	0xc0dac502	-6.836549
26	0x41092d8f	8.573623
27	0xc1260216	-10.375509
28	0xc0c8c23e	-6.273711
29	0xbdda12f5	-0.10648147
30	0x3d312f66	0.043258093
31	0xc110cb63	-9.049655
32	0xc1009a53	-8.037677
33	0xc10f7e0d	-8.968274
34	0x410e6c8f	8.901504
35	0x4126c711	10.4236
36	0xbdd1b59d	-0.10239718
37	0x41278b37	10.471488
38	0x4124d9dc	10.303188
39	0xc10d31d7	-8.824668
40	0x40a2b014	5.083994
41	0xbfbacf0e	-1.4594438
42	0xc117769e	-9.466459
43	0xc0ebba09	-7.3664594
44	0x41160b32	9.377733
45	0xbf2c0fe0	-0.67211723
46	0x410fa623	8.978061
47	0xc10f1178	-8.941765
48	0xc1090f4f	-8.566237
49	0x3bdae589	0.0066801948
50	0xc12508ae	-10.314619
51	0x41271a4b	10.443919
52	0x40b1e7b5	5.5595345
53	0xc1030da4	-8.19083
54	0xc101f7b6	-8.122976
55	0xc10c2209	-8.758309
56	0x40f3b176	7.6154127
57	0xc10adc8f	-8.678847
58	0xc1251d50	-10.319656
59	0x41184e97	9.519187
60	0x3db909fb	0.09035107
61	0xc1175ca0	-9.460114
62	0xc12534d7	-10.3254
63	0xc1277167	-10.465186
64	0x3dbe3e62	0.09289242
65	0x412528f7	10.322501
66	0x4125e7c1	10.369081
67	0x3bd0e9e5	0.0063755387
68	0x4124d9b9	10.303155
69	0xc10f46e8	-8.954811
70	0xc10cd53c	-8.802059
71	0x41259f8e	10.351454
72	0xbe32cadc	-0.17460197
73	0xc11ad732	-9.677538
74	0xc106109a	-8.379053
75	0xc1258b96	-10.346579
76	0xc1266be1	-10.401338
77	0x41258408	10.344734
78	0x40ee8391	7.4535604
79	0xc125c2ae	-10.360029
80	0xbb2a6384	-0.0025999257
81	0xbda45aad	-0.080251075
82	0x4117c596	9.485739
83	0x3b5a4e25	0.0033310738
84	0xc114bac7	-9.2956
85	0x40183a6f	2.3785665
86	0x4124f20d	10.309094
87	0x40e02dd5	7.0055947
88	0x3db1abbb	0.08675333
89	0xc0dac4dd	-6.836531
90	0x3bb947cf	0.005654312
91	0xc12651b3	-10.394946
92	0xc0c5d4cd	-6.1822267
93	0x3d2adcfb	0.04171465
94	0x3d33f1c4	0.043931738
95	0xc10fcf60	-8.988129
96	0xc1007158	-8.027672
97	0xc10eb5d0	-8.919388
98	0xbd929317	-0.071569614
99	0xc12804e9	-10.501199
100	0xbcf62ef8	-0.030051693
101	0x412652ce	10.395216
102	0x41281ee5	10.507543
103	0x410d119d	8.8168
104	0x409413cb	4.627416
105	0xbfc306db	-1.5236467
106	0xc1151064	-9.316502
107	0x40fec575	7.9616036
108	0xc106e56f	-8.431014
109	0x40a91368	5.283619
110	0xc105b34d	-8.356275
111	0x411030c8	9.0119095
112	0xc109b63d	-8.606992
113	0xbde47a9e	-0.111562
114	0x41274f55	10.456868
115	0x4125b53a	10.356745
116	0x40b8e76f	5.778251
117	0xbcbaf0bc	-0.02281987
118	0xc10250bb	-8.14471
119	0xc10b8140	-8.719055
120	0xc0f536ff	-7.6629634
121	0xc109115a	-8.566736
122	0xc12679ef	-10.404769
123	0x41186a74	9.52599
124	0x3d3c75da	0.04601083
125	0xc11507fd	-9.31445
126	0x41251228	10.316933
127	0x412700f6	10.437735
128	0xc084fb6e	-4.155692
129	0xc123c7b3	-10.236255
130	0xc124f390	-10.3094635
131	0xbccaedce	-0.024771597
132	0x41254b08	10.330818
133	0xc10cba26	-8.795446
134	0x410dc5aa	8.860758
135	0x41275f83	10.460818
136	0xbe4d294b	-0.20035283
137	0xc11aea13	-9.682147
138	0x4109c5e7	8.610816
139	0xc12645a6	-10.392004
140	0xc127aca7	-10.479651
141	0x4125bb1f	10.358184
142	0x40ee714c	7.45133
143	0xc12543b8	-10.329033
144	0xbc0ed2d7	-0.00871726
145	0x41254775	10.329946
146	0xc11a3876	-9.638784
147	0x399e398e	0.0003017899
148	0xc10d1a90	-8.818985
149	0x4019831d	2.3986275
150	0xc1254439	-10.329156
151	0x3d8e0547	0.069346
152	0xbd1a7e37	-0.037718024
153	0xc0d8a60f	-6.770271
154	0x3d04a2a3	0.032381665
155	0xc125c56f	-10.360702
156	0xc0c209ec	-6.063711
157	0x3d252b04	0.040324226
158	0x3d72704d	0.05918913
159	0x410d6ec1	8.83954
160	0xc0feb3f2	-7.959466
161	0xc10f0071	-8.937608
162	0xbd174095	-0.036926825
163	0xc1257811	-10.341813
164	0x3cad49d8	0.021153376
165	0x4126e423	10.430697
166	0x41263a2d	10.389203
167	0x410d9a5e	8.850187
168	0x40acb8ba	5.3975496
169	0xbfb2084b	-1.3908781
170	0xc116d080	-9.425903
171	0x4101988b	8.099742
172	0xc10bb3da	-8.731409
173	0x40aa033f	5.3128963
174	0xc10b6cf6	-8.714102
175	0xc10d8d5d	-8.8470125
176	0xc107a33f	-8.477355
177	0xbcb0bd84	-0.021574743
178	0x4125f49f	10.372222
179	0x41260fd7	10.378867
180	0xc0b4576b	-5.635671
181	0xc101d358	-8.114098
182	0xc100cc62	-8.049898
183	0xc10b51a0	-8.707428
184	0xc0f7dfbe	-7.7460623
185	0xc1074fc5	-8.456975
186	0xc125d4f8	-10.364494
187	0x41177868	9.466896
188	0xc122367d	-10.138303
189	0xc115fc9e	-9.374174
190	0x41255dc1	10.335389
191	0x4124e275	10.305287
192	0x4085073e	4.157134
193	0xc124991d	-10.287381
194	0x41248bb3	10.284106
195	0xbd1f2cc6	-0.03886106
196	0x41281cb8	10.507011
197	0xc10c37f3	-8.7636595
198	0xc10dec2e	-8.870161
199	0xc125d8f0	-10.365463
200	0xbe41d675	-0.18929465
201	0xc11d7d96	-9.843161
202	0xc1052e2e	-8.323774
203	0xc127700d	-10.464856
204	0xc12655eb	-10.395976
205	0x41273cd5	10.452352
206	0x40ece97d	7.403502
207	0xc1273f3b	-10.452937
208	0xc0d08088	-6.51569
209	0xbda8ad5a	-0.08236189
210	0x4119a713	9.60329
211	0x3c06f677	0.008237473
212	0xc10eada4	-8.917393
213	0xc014827b	-2.320464
214	0x41258358	10.344566
215	0x3ce68125	0.028137753
216	0x3c21ce53	0.009875852
217	0xc0db1785	-6.846621
218	0xbddafc5f	-0.10692667
219	0xc124cc80	-10.299927
220	0xc0c1c013	-6.0546966
221	0x3d05e0cd	0.03268509
222	0x3d57424c	0.05255346
223	0x410dbc63	8.858493
224	0xc0fd342c	-7.9126186
225	0xc10e3081	-8.886842
226	0x410b74cc	8.716015
227	0x4124b355	10.293782
228	0x40c7e3bc	6.2465496
229	0x4124f390	10.3094635
230	0x412797be	10.474546
231	0xc10b50b7	-8.707206
232	0xc0af405f	-5.476608
233	0xbfb46b1a	-1.4095185
234	0xc117a7a2	-9.478426
235	0x4100eb06	8.057379
236	0x411068b4	9.025562
237	0x40ab4746	5.3524504
238	0xc1078351	-8.46956
239	0x411006c9	9.001657
240	0xc108c658	-8.548424
241	0x3cda59e9	0.0266542
242	0xc125b3d7	-10.356406
243	0x4126026e	10.375593
244	0xc0a6bea3	-5.210771
245	0x3da6644d	0.081245996
246	0xc1000f13	-8.00368
247	0x410d49b3	8.830493
248	0xc0f66585	-7.6998925
249	0xc10aa1db	-8.6645155
250	0xc1276c0d	-10.46388
251	0x4119e567	9.618506
252	0xc1209cf1	-10.038316
253	0xc11782cc	-9.469433
254	0xc1266ad7	-10.401084
255	0xc1255b00	-10.334717

bias f4 [6]
0	0xc127f974	-10.498402
1	0xc124f2b3	-10.309253
2	0xc126ef73	-10.433459
3	0xc1274479	-10.454217
4	0xc1279702	-10.474367
5	0xc127ef00	-10.49585
