StateTrainers/stateModel.pt (torch, 21807 bytes, 6 tensors)

weight f4 [64, 1]
0	0x3debd9f7	0.11516183
1	0xbb80d64c	-0.003931796
2	0x3ee599ed	0.44844
3	0xbf5e06ac	-0.8672893
4	0xbf329fc6	-0.69775045
5	0x3f60b4ee	0.87776077
6	0xbefa8ec8	-0.48937058
7	0x3e54a7ca	0.20767131
8	0x3c98e15f	0.018662153
9	0xbbb4c8ff	-0.0055171247
10	0xbb8060b0	-0.003917776
11	0xbd774dc0	-0.060376883
12	0xbea58ae8	-0.3233254
13	0x3e5fed4b	0.21867864
14	0xbec6514c	-0.387339
15	0x3ecb00e8	0.3964913
16	0x3f12a900	0.57289124
17	0x3e2a38ec	0.16623276
18	0xbe2c2910	-0.16812539
19	0xbba6bd8d	-0.005088514
20	0xbf43a638	-0.76425505
21	0xbe4a24a0	-0.19740534
22	0xbb12c1be	-0.0022393311
23	0xbe717695	-0.23580392
24	0xbf45601c	-0.77099776
25	0x3f122539	0.5708805
26	0xbe1a8fa0	-0.15093851
27	0x3e23e44d	0.16005059
28	0x3f620277	0.8828501
29	0xbf687ad4	-0.9081242
30	0xbefda174	-0.4953724
31	0x3ec3e40c	0.38259923
32	0x3e8eb576	0.2787282
33	0xbe6be8d0	-0.2303803
34	0xbef40cc0	-0.47665977
35	0xbe296448	-0.1654216
36	0x3e84b7e5	0.2592155
37	0xbedd86f4	-0.43267024
38	0xbe6f4258	-0.23365152
39	0x3f092230	0.5356779
40	0x3f1e3724	0.6180289
41	0x3ba6eb5f	0.0050939764
42	0xbf502856	-0.8131155
43	0x3efb3d5b	0.49070248
44	0xbe69da05	-0.22837074
45	0xbdd71120	-0.10501313
46	0x3f141fd5	0.5786107
47	0x3f6a54a9	0.9153543
48	0xbeecb0d4	-0.4622866
49	0xbefd21c4	-0.49439824
50	0x3f13e7b3	0.5777542
51	0xbf705c5c	-0.9389093
52	0xbe849a30	-0.25898886
53	0x3ed58344	0.4170171
54	0x3bd3e800	0.0064668655
55	0x3e9d44b3	0.30716476
56	0xbe0a56b8	-0.13509643
57	0x3e9a0b1e	0.30086607
58	0x3bd1805b	0.006393475
59	0x3ede1f5e	0.43383306
60	0x3ed92970	0.42414427
61	0x3dc91a6d	0.098194934
62	0x3eb42a0a	0.35188323
63	0xbe8c5a6c	-0.27412736

bias f4 [64]
0	0x3ff784e7	1.9337434
1	0x40192732	2.3930173
2	0xbee70d38	-0.45127273
3	0xbf130daa	-0.57442725
4	0x3f1be5a6	0.6089729
5	0x3fd86fc0	1.6909103
6	0x3ec77800	0.3895874
7	0xbfddce39	-1.7328559
8	0x3fcb18ff	1.5867003
9	0x4035f43c	2.843032
10	0x4012d429	2.2941992
11	0xbf75a654	-0.9595692
12	0xbef735d0	-0.48283243
13	0xbeedb440	-0.46426582
14	0x3c60fd00	0.013732195
15	0xc01c06c2	-2.4379125
16	0xbfd066a5	-1.6281325
17	0xbf97e777	-1.1867512
18	0xbe568410	-0.20948815
19	0x4037bbec	2.8708448
20	0xbf2e8414	-0.68170285
21	0xbdf1e350	-0.118109345
22	0x3fd66542	1.6749651
23	0x3fd0bca4	1.6307569
24	0xbe337ff0	-0.17529273
25	0xc0069ae0	-2.1032028
26	0xbe9858e8	-0.2975533
27	0x3fb018d8	1.3757582
28	0x3f959097	1.168475
29	0x3ea66808	0.32501245
30	0xbf5309cc	-0.82436824
31	0xbf285a90	-0.6576319
32	0x3e57d6ff	0.21078108
33	0xbf239ffe	-0.63916004
34	0x3e829610	0.25505114
35	0xbf19ecb4	-0.60126805
36	0xbece4550	-0.40287256
37	0xbe87390c	-0.2641071
38	0xbdad84d0	-0.084725976
39	0x3eb4b854	0.3529688
40	0x3faec2dc	1.3653216
41	0x3fa09674	1.2545915
42	0x3ed3c57c	0.41361606
43	0xbf90c00f	-1.1308612
44	0x3fcb73cf	1.5894717
45	0xbe91c1cc	-0.28468168
46	0x3fd3ae6a	1.6537602
47	0x401407a6	2.3129668
48	0xbd4666c0	-0.048437834
49	0xbed47c70	-0.41501188
50	0xbfab3bdf	-1.3377646
51	0xbf02818a	-0.5097891
52	0xbf35450e	-0.70808494
53	0xc008f602	-2.1400151
54	0xbfdd35f6	-1.7282093
55	0xbfc9fa85	-1.5779577
56	0xbf26f7dc	-0.65221953
57	0xc0049a70	-2.071926
58	0xbfaafafa	-1.3357842
59	0x3dc31acf	0.09526598
60	0x3fe4ef1d	1.7885472
61	0xc0122437	-2.2834604
62	0xbdcb2d4c	-0.09920749
63	0xbf67463c	-0.90341544

weight f4 [64, 64]
0	0xbd49d428	-0.049274594
1	0x3d673130	0.056443393
2	0xbe21336d	-0.15742274
3	0xbd7c7ae8	-0.06164065
4	0xbcd80db0	-0.026373714
5	0xbde545ac	-0.111949295
6	0x3de5cc6c	0.11220631
7	0x3d7e38d6	0.06206592
8	0xbde359c2	-0.11101104
9	0xbd4b2c9f	-0.0496031
10	0xbdea02db	-0.11426326
11	0xbd45c6c4	-0.04828526
12	0xbce77100	-0.028252125
13	0xbd18005c	-0.037109718
14	0xbdd9c086	-0.10632424
15	0x3da3c72a	0.07996972
16	0xbd97282a	-0.073807076
17	0xbd4b2e75	-0.04960485
18	0xbdbe6ab2	-0.09297694
19	0x3cf9499c	0.030430607
20	0xbd323938	-0.0435116
21	0x3d3e0e94	0.04640062
22	0xbca12f0b	-0.019675752
23	0xbd1236b4	-0.0356967
24	0xbcc428d8	-0.023945257
25	0x3cbeba9b	0.02328234
26	0xbd1bfc38	-0.03808233
27	0x3d27604b	0.040863317
28	0x3d904090	0.07043564
29	0x3c923330	0.017846674
30	0x3d10ca18	0.03534898
31	0xbe1ee2f2	-0.1551626
32	0xbd174678	-0.03693244
33	0xbdaa9708	-0.08329588
34	0x3b97cda0	0.0046326667
35	0x3dfd7ab8	0.12376922
36	0x3d5638fc	0.05230044
37	0x3df47472	0.11936273
38	0x3a679600	0.00088343024
39	0x3d81d038	0.06338543
40	0x3cd6e4c0	0.026232123
41	0xbd1aa777	-0.037757363
42	0x3d2b5328	0.04182735
43	0x3d38e480	0.04513979
44	0xbd871a70	-0.065968394
45	0xbce774b0	-0.028253883
46	0xbde4c7ef	-0.11170947
47	0xbc0b4fe3	-0.008502933
48	0xbdc7ab7a	-0.097495034
49	0xbd6fa2c8	-0.05850485
50	0x3d424d69	0.047437105
51	0xbd9ab3fa	-0.07553859
52	0x3da05a50	0.07829726
53	0xbe256f0a	-0.1615564
54	0xbb8111c1	-0.003938884
55	0x3b2b10d0	0.002610255
56	0xbb7c0200	-0.003845334
57	0x3d60360b	0.05473904
58	0xbe2aaaf1	-0.16666771
59	0xbdddd1a9	-0.10831005
60	0xbdeb2581	-0.11481763
61	0xbda46c10	-0.08028424
62	0xbdb9efa0	-0.09078908
63	0x3d05e150	0.032685578
64	0x3d0de5ec	0.0346431
65	0x3e7d797e	0.24753377
66	0xbd2103a3	-0.03931011
67	0xbde06d58	-0.10958356
68	0xbc81ca40	-0.01584351
69	0x3b5e90d9	0.0033960848
70	0x3c06acf0	0.008219942
71	0xbd2acecd	-0.041701127
72	0xbb33c847	-0.0027432607
73	0x3f16bf0c	0.58885264
74	0x3e6673e7	0.2250515
75	0x3d83a616	0.06428163
76	0x3dd098ec	0.101854175
77	0xbc6980d2	-0.014251905
78	0x3d2b4b1c	0.041819677
79	0x3c2094ee	0.009801133
80	0xbd117d01	-0.035519604
81	0xbdc39e3f	-0.095516674
82	0x3c2d2880	0.010568738
83	0x3e6c1845	0.23056133
84	0x3df6a99c	0.12044069
85	0x3da0702c	0.07833895
86	0xbe8a6bde	-0.2703542
87	0xbecd3e2d	-0.400865
88	0xbc808210	-0.015687019
89	0x3d418880	0.047249317
90	0xbc583c50	-0.013197973
91	0xbd0806b5	-0.03320952
92	0xbe034e65	-0.12822874
93	0x3dcb847c	0.09937379
94	0xbd23e9f8	-0.040018052
95	0x391ec5e5	0.00015141776
96	0x3d91286a	0.070877865
97	0x3d941e80	0.0723238
98	0xbdda6d34	-0.1066536
99	0xbd6fd0e0	-0.058548808
100	0xbdf72735	-0.12068025
101	0xbd3ae314	-0.045626715
102	0xba8bed80	-0.0010675639
103	0xbd209ccb	-0.03921203
104	0x3d113712	0.03545291
105	0x3d2a0443	0.04150797
106	0xbd113d44	-0.035458818
107	0x3d939acc	0.072072595
108	0xbee89d07	-0.45432302
109	0x3caf7540	0.021418214
110	0xbaa3ca48	-0.0012496198
111	0x3d516c4f	0.05112868
112	0x3d197148	0.03746155
113	0xbd9817d6	-0.07426421
114	0xbe243dbf	-0.1603918
115	0x3cc9d398	0.024637029
116	0xbdbba762	-0.09162785
117	0xbddc2751	-0.107496865
118	0x3c003aec	0.007826548
119	0xbe23c41e	-0.15992782
120	0xbdd87ef2	-0.10571088
121	0xbe022f78	-0.1271342
122	0xbd4cd394	-0.050006464
123	0xbdda106d	-0.10647664
124	0x3c41e96a	0.011835435
125	0xbc0b43e4	-0.008500073
126	0xbcf1519e	-0.029457863
127	0x3dbdb1f6	0.09262459
128	0xbdb90a41	-0.09035159
129	0x3cb6f860	0.022335231
130	0xbddd54ae	-0.10807167
131	0x3dba0054	0.09082094
132	0x3c9dc530	0.019259065
133	0x3d7a22cb	0.061068337
134	0xbd90e030	-0.0707401
135	0xbdc85dc6	-0.09783511
136	0x3d81a684	0.063305885
137	0x3d0ed744	0.034873262
138	0xbd71fb40	-0.0590775
139	0x3d0883e0	0.03332889
140	0xbd9b4b72	-0.075827494
141	0xbddc9fbe	-0.10772656
142	0xbb8f2120	-0.0043679625
143	0x3d7ee74d	0.062232304
144	0xbd11e17a	-0.03561542
145	0x3de17cfe	0.110101685
146	0xbcb69ed8	-0.02229254
147	0xbe02a400	-0.12757874
148	0x3d96cb70	0.073630214
149	0xbd86a59a	-0.06574555
150	0xbceab668	-0.028651431
151	0x3d59b704	0.053153053
152	0x3da9ca64	0.08290556
153	0xbd30bf05	-0.04315092
154	0xbd134b84	-0.03596069
155	0xbcca4a25	-0.024693558
156	0x3db63f3c	0.0889878
157	0x3d20d9e4	0.039270297
158	0xbdc914dc	-0.09818432
159	0x3d8788e7	0.06617909
160	0xbde1a3a4	-0.1101754
161	0xbdb643f6	-0.08899681
162	0x3dda40dc	0.10656902
163	0xbdacc7d8	-0.08436555
164	0xbdd08ff5	-0.101837076
165	0xbda9601a	-0.08270283
166	0xbd937858	-0.07200688
167	0xbda5db82	-0.080985084
168	0x3d8b6746	0.06806807
169	0xbcb97418	-0.022638366
170	0xbdbc8e80	-0.09206867
171	0x3dcd7358	0.10031766
172	0xbdc773e2	-0.097389
173	0xbd17beac	-0.037047073
174	0x3d25b17e	0.040452473
175	0xbdd46097	-0.103699856
176	0xbd45c8f8	-0.04828736
177	0x3de04f40	0.10952616
178	0xbc15ea53	-0.0091501055
179	0xbca07258	-0.019585773
180	0x3dd6bb1c	0.10484907
181	0xbd9dad34	-0.076990515
182	0xbba920ec	-0.0051613953
183	0x3dcb5700	0.09928703
184	0xbd1caba0	-0.03824961
185	0xbdc8099f	-0.0976746
186	0x3d5916d5	0.05300029
187	0xbbe14c29	-0.006875534
188	0x3dcc90b3	0.09988537
189	0xbd687de4	-0.056760684
190	0x3b330eba	0.002732201
191	0xbd9774b8	-0.07395309
192	0xbcd176ce	-0.025569346
193	0x3e7aea90	0.24503541
194	0xbcecd4c5	-0.02891005
195	0xbd8dbd16	-0.06920831
196	0xbc0d4cf0	-0.0086243
197	0x3b48cd7b	0.0030640054
198	0xbc3c6840	-0.0114994645
199	0xbdb66b79	-0.089072175
200	0x3b7b60a5	0.0038357165
201	0x3f1165a8	0.5679574
202	0x3e7ac67e	0.24489781
203	0x3d3344e8	0.043766886
204	0x3df8c630	0.12147176
205	0xbd25472c	-0.040351078
206	0xbb3d2480	-0.0028860867
207	0xbd6e10c4	-0.058121458
208	0xbe0073a9	-0.12544121
209	0x3d88c1d9	0.066775985
210	0xbd9cb456	-0.07651584
211	0x3eaf014a	0.3418067
212	0xbd7c62cc	-0.061617658
213	0xbd3bef48	-0.045882493
214	0xbf12d813	-0.57360953
215	0x3f045747	0.51695675
216	0xbd9ae1f4	-0.075626284
217	0xbe2afdd6	-0.16698393
218	0xbdc15420	-0.09439874
219	0xbde4e761	-0.111769445
220	0xbde00966	-0.109392926
221	0xbd6b45ac	-0.05743949
222	0xbd84fea0	-0.06493878
223	0x3c94fadd	0.018186027
224	0xbcf8732b	-0.030328354
225	0xbc71f1f0	-0.014767155
226	0xbd1ad6a0	-0.03780234
227	0x3daf45fa	0.08558269
228	0xbdc728f0	-0.09724605
229	0xbd22b0d0	-0.039719403
230	0x3d9ba352	0.0759951
231	0xbd9fe9cb	-0.07808264
232	0x3da3558b	0.079753004
233	0xbee66c42	-0.4500447
234	0x3d0d2448	0.03445843
235	0xbd245aaa	-0.040125526
236	0x3e998f31	0.2999206
237	0x3c416520	0.011803895
238	0x3d70a495	0.058750708
239	0x3cefa6e0	0.029254377
240	0xbce0c9d0	-0.027439982
241	0x3d32d63c	0.04366134
242	0xbe149eae	-0.14513656
243	0x3d93a4f0	0.07209194
244	0x3d0e5250	0.034746468
245	0xbda97ebd	-0.082761265
246	0xbd3d3929	-0.04619709
247	0xbd03c860	-0.032173514
248	0x3dd232a0	0.10263562
249	0x3d8fabc8	0.070151865
250	0xbdd47263	-0.1037338
251	0xbdc62956	-0.09675853
252	0xbe0fc561	-0.14040138
253	0xbddcc3dd	-0.107795455
254	0xbd88d3d9	-0.06681032
255	0xbc8b35e8	-0.016993478

bias f4 [64]
0	0x3b0f544b	0.002187031
1	0x3e7af39e	0.24506995
2	0xbdcff1db	-0.10153552
3	0x3ef29587	0.47379705
4	0x3e219351	0.15778853
5	0xbdc21a36	-0.094776556
6	0x3f35abc1	0.709652
7	0xbf411227	-0.75418323
8	0xbdc3eb70	-0.095663905
9	0x3f580267	0.84378666
10	0x3f8ad7f9	1.084716
11	0xbbbdd380	-0.005793035
12	0xbc96e668	-0.018420413
13	0xbd0e0c2c	-0.034679577
14	0xbecd1e78	-0.40062308
15	0x3f789bc8	0.97112703
16	0x3d1210ab	0.035660427
17	0x3da29eb6	0.07940428
18	0x3e70a801	0.23501588
19	0x3fce3b3d	1.6111828
20	0xbdd2e5af	-0.10297715
21	0xbd98667e	-0.07441424
22	0x3f066e16	0.5251173
23	0x3dce0c72	0.100609675
24	0x3d023f60	0.03179872
25	0xbea4aa6a	-0.32161266
26	0xbd278a58	-0.04090342
27	0x3dd5acb4	0.10433331
28	0x3f3c6933	0.7359802
29	0x3f90ce1d	1.1312901
30	0x3ed8fe8a	0.42381698
31	0xbcecb728	-0.02889593
32	0x3d9b2b50	0.075766206
33	0x3e64ade0	0.22331953
34	0x3f8ddbcf	1.1082705
35	0xbc2fb100	-0.010723352
36	0xbdfa2ca8	-0.12215549
37	0x3f8aed26	1.0853622
38	0x3fb9be27	1.4511155
39	0x3fd01590	1.625658
40	0xbf118cbc	-0.5685537
41	0xbf862139	-1.0478889
42	0x3fbfabc7	1.4974297
43	0x3f8b9ad8	1.090663
44	0x3fa48e24	1.2855878
45	0x3c7914e1	0.015202732
46	0xbdf85164	-0.12124899
47	0x3ec0c4e0	0.37650204
48	0xbdb20c68	-0.086937726
49	0x3de1086b	0.10987934
50	0xbca792c8	-0.020455733
51	0xbe19498e	-0.14969465
52	0xbddc5721	-0.10758806
53	0x3d22e80c	0.03977208
54	0x3eb449d1	0.35212567
55	0x3dc03944	0.093859226
56	0xbde22298	-0.110417545
57	0xbdd4ca7e	-0.10390185
58	0xbed95663	-0.4244872
59	0x3f9007c4	1.125237
60	0xbd6d2760	-0.05789888
61	0x3c8bbce0	0.017057836
62	0x3d226062	0.0396427
63	0x3f8efb14	1.1170373

weight f4 [6, 64]
0	0xbcb3f19c	-0.021965794
1	0x3da421d9	0.080142684
2	0xbd0e677a	-0.03476665
3	0x3d1f442c	0.038883373
4	0xbc9c85be	-0.019106742
5	0x3de82d08	0.11336714
6	0x3cd9850f	0.026552705
7	0xbe89d97f	-0.2692375
8	0xbdc57ca2	-0.096429124
9	0x3c10a08f	0.008827343
10	0xbcc58b5e	-0.024114307
11	0x3ca70ae8	0.020390943
12	0x3b9d5368	0.0048012026
13	0xbcd6b0e8	-0.026207402
14	0xbd9d14f8	-0.07670015
15	0xbc0b02f0	-0.008484587
16	0xbe1c5f40	-0.1527071
17	0xbdd0a57a	-0.10187812
18	0xbe0f92be	-0.14020821
19	0x3eeb0d59	0.4590862
20	0xba001756	-0.000488629
21	0x3da6cd0c	0.08144578
22	0x3bdda24a	0.006763731
23	0xbdd5e226	-0.10443525
24	0xbcb3da4a	-0.021954674
25	0xbda4a3eb	-0.08039077
26	0xbd7aa0f8	-0.061188668
27	0x3c9fcdc8	0.019507304
28	0x3b05f10d	0.0020437867
29	0xbc20e0ad	-0.009819192
30	0xbd49d189	-0.049272094
31	0x3da19a3e	0.078907475
32	0xbd694f77	-0.05696055
33	0xbdde7375	-0.108618654
34	0x3d061a79	0.03274009
35	0x3d83836c	0.06421551
36	0x3d7faeb3	0.062422466
37	0x3de4c3d1	0.111701615
38	0x3e2512da	0.16120473
39	0x3f1e833f	0.61919016
40	0xbce564eb	-0.028002223
41	0xbe2f0abe	-0.17093942
42	0x3e604f64	0.21905285
43	0xbd08a66b	-0.033361834
44	0x3e4009e4	0.18753773
45	0xbdb7f231	-0.08981741
46	0x3d8f7188	0.07004076
47	0x3d9578bc	0.07298419
48	0x3c543b9e	0.012953667
49	0x3dece73c	0.11567542
50	0x3c8fe758	0.017566368
51	0x3ced78b7	0.028988225
52	0xbd54007d	-0.05175828
53	0xbd4da775	-0.050208528
54	0x3c9457b5	0.018108228
55	0xbd953ee0	-0.07287383
56	0x3a3cdd00	0.00072045624
57	0x3ddfca9c	0.109273165
58	0xbe025ca9	-0.1273066
59	0x3d2cc184	0.04217674
60	0x3cfc0810	0.030765563
61	0xbc2d9550	-0.010594681
62	0xbd281672	-0.04103703
63	0x3dd5cf2f	0.10439908
64	0xbb40f261	-0.0029441344
65	0x3d049949	0.032372747
66	0xbd57bb10	-0.05266863
67	0x3e3179eb	0.17331664
68	0xbd879a83	-0.06621268
69	0x3dbd54ce	0.09244691
70	0x3d053721	0.03252328
71	0x3d77505f	0.060379382
72	0xbbc77fe0	-0.006088242
73	0xbd29b00a	-0.04142765
74	0x3dc42d5e	0.095789656
75	0xbdc45dde	-0.09588216
76	0x3c878ccc	0.01654663
77	0x3d9ebb14	0.07750526
78	0xbdb3d232	-0.08780326
79	0x3c950ca8	0.018194512
80	0x3cafc99e	0.021458443
81	0xbd80149e	-0.062539324
82	0xbed52206	-0.4162752
83	0x3eb840cc	0.35986936
84	0xbdbac63f	-0.09119844
85	0x3de37e50	0.111080766
86	0x3d7a9e55	0.061186153
87	0xbd246d50	-0.04014331
88	0x3cb83fec	0.022491418
89	0x3c38caf2	0.011278855
90	0x3de1bf38	0.110228
91	0x3d8310f6	0.063997194
92	0x3c0c6e5d	0.0085712345
93	0x3d5af18f	0.053453024
94	0xbe16b78b	-0.14718454
95	0x3cebbd18	0.02877669
96	0x3daa21ce	0.08307229
97	0x3dd9f817	0.106430225
98	0x3cd72150	0.026261002
99	0xbcd250d8	-0.025673315
100	0xbd299e2a	-0.041410603
101	0x3cdd3203	0.027001387
102	0x3e3dc777	0.18533121
103	0x3ef3ffc2	0.47656065
104	0x3b5a8fed	0.0033349947
105	0xbd393348	-0.04521492
106	0x3e817928	0.25287747
107	0x3df4a38e	0.11945258
108	0x3e786dcd	0.24260636
109	0xbcc8b49c	-0.024500184
110	0xbdb80fe6	-0.089874074
111	0x3d955344	0.07291272
112	0xbadee000	-0.0017004013
113	0xbd1688bc	-0.036751494
114	0xbd2ad0c8	-0.041703016
115	0x3d20c547	0.03925064
116	0xbd85bf3d	-0.065306164
117	0xbd776fd4	-0.060409382
118	0x3d0ed048	0.0348666
119	0x3ca64ac0	0.020299315
120	0xbd78d1c8	-0.060746938
121	0x3c8f9cf8	0.017530903
122	0xbc3f42f9	-0.011673682
123	0x3da99ab0	0.082814574
124	0x3dab7c30	0.08373296
125	0xbdf2aca8	-0.11849338
126	0xbdd54910	-0.10414326
127	0x3df61038	0.12014812
128	0xbd49d7eb	-0.04927818
129	0x3e206e5b	0.15667097
130	0x3dd01090	0.10159409
131	0xbd02557e	-0.031819813
132	0x3d80c456	0.06287448
133	0xbd97d3da	-0.07413454
134	0x3cbc8136	0.023010831
135	0xbe05b5b9	-0.13057603
136	0x3df373ce	0.11887322
137	0x3d1fdc56	0.039028488
138	0xbd1ef6f9	-0.03880975
139	0x3ce96bf8	0.028493866
140	0xbdba6b37	-0.09102481
141	0xbdf9e59c	-0.12201998
142	0x3d62b27f	0.05534601
143	0x3bc6be3d	0.0060651586
144	0x3c65b156	0.014019331
145	0xbc8795a0	-0.016550839
146	0xbe2c5dc9	-0.16832651
147	0x3f06139c	0.5237367
148	0xbd50b9b6	-0.050958358
149	0x3d6e480c	0.058174178
150	0xb9ae82b5	-0.0003328525
151	0xbd1b64fc	-0.037938103
152	0x3c86cc18	0.016454741
153	0x3cc53a50	0.024075657
154	0xbd8f7d42	-0.07006313
155	0xbcac4b80	-0.021032095
156	0xbdc82d1e	-0.097742304
157	0x3d0f5920	0.034997106
158	0x3d7bd276	0.061480008
159	0xbd699cdc	-0.05703436
160	0xbc523720	-0.012830526
161	0xbd09cb06	-0.033640884
162	0x3d536f5f	0.051619884
163	0x3cc935f0	0.024561852
164	0x3d9dc1cb	0.07702979
165	0x3dc4a089	0.09600932
166	0x3e0d63c7	0.13807593
167	0x3f0114b8	0.5042224
168	0x3bd3ecdb	0.0064674444
169	0xbdeaf9d4	-0.11473432
170	0x3e6458b6	0.22299466
171	0x3cc5c0a1	0.024139704
172	0x3e27d0d8	0.16388261
173	0x3cb97cf7	0.022642596
174	0xbd322680	-0.043493748
175	0xbdb01554	-0.08597818
176	0xbda9c652	-0.0828978
177	0x3c23aa60	0.009989351
178	0x3c15fb30	0.009154126
179	0xbd90146a	-0.07035144
180	0x3da83353	0.08212914
181	0xbe0bf664	-0.1366821
182	0x3d0dc8ab	0.0346152
183	0x3dfb1dd4	0.12261549
184	0x3d8e3c88	0.06945139
185	0xbd72f638	-0.059316844
186	0x3d856234	0.065128714
187	0x3daa14f9	0.083047815
188	0xbda4323a	-0.080173925
189	0x3dd6dd0c	0.1049138
190	0x3e0736ba	0.1320447
191	0x3d89fb9e	0.06737445
192	0xbd0b3963	-0.033990275
193	0x3df89ce5	0.121393
194	0xbdbba592	-0.091624394
195	0x3de57688	0.11204249
196	0xbca74f00	-0.020423412
197	0xbc505df0	-0.012717709
198	0x3d1fe13b	0.039033156
199	0xbd92fd74	-0.071772486
200	0x3dea69d8	0.11445969
201	0xbb8816d3	-0.0041531115
202	0xbd95f984	-0.07322982
203	0xbdef0c2c	-0.116722435
204	0x3d6f8e11	0.058485094
205	0x3dd346a8	0.10316211
206	0xbcc59cd4	-0.024122633
207	0x3ccf5e87	0.025313629
208	0x3c816d1d	0.0157991
209	0xbd74dbe8	-0.05978003
210	0xbe12e2bb	-0.14344303
211	0x3efae1fc	0.49000537
212	0xbd956d4f	-0.072962396
213	0x3da8846e	0.08228384
214	0x3c3b3c6a	0.011427978
215	0x3cefd278	0.029275164
216	0x3c348d9f	0.011020093
217	0x3bb4f200	0.0055220127
218	0x3de27b08	0.110586226
219	0x3d8da6aa	0.06916554
220	0xbdf7e0b1	-0.12103403
221	0x3d784400	0.060611725
222	0x3d2a996b	0.041650217
223	0xbda95684	-0.08268455
224	0xbd9abf41	-0.0755601
225	0xbd8caab1	-0.06868494
226	0x3d6216d6	0.05519756
227	0x3d324418	0.04352197
228	0xbc9ee65c	-0.019396953
229	0x3e0f31c9	0.13983835
230	0x3e1632c8	0.14667809
231	0x3eca15a6	0.3946964
232	0xbced5eb9	-0.028975831
233	0xbe1e429f	-0.15455101
234	0x3e958e6c	0.29210222
235	0x3d748f59	0.05970702
236	0x3e3ec3ea	0.18629423
237	0xbdb49761	-0.08817936
238	0xbdf3eece	-0.11910783
239	0xbe0ab586	-0.13545808
240	0xbca7ae10	-0.020468742
241	0xbd1ad63c	-0.037801966
242	0xbcea4918	-0.028599307
243	0xbd58fd8e	-0.052976184
244	0xbc55f428	-0.0130587
245	0xbc1b940a	-0.0094957445
246	0x3d2738ee	0.040825777
247	0x3d9c82d2	0.076421395
248	0xbd6c5928	-0.057702214
249	0xbcf9c8b0	-0.030491203
250	0x3d748dcb	0.059705537
251	0x3db19f27	0.08672934
252	0x3d9e6d4c	0.077356905
253	0xbd06e580	-0.032933712
254	0x3da051ae	0.07828079
255	0x3da5d78c	0.08097753

bias f4 [6]
0	0x3f979b39	1.1844245
1	0x3ecfb686	0.40568942
2	0x3f4b863c	0.795017
3	0x3f1f8139	0.62306553
4	0xbd5bd8a1	-0.05367339
5	0x3e9a2729	0.30108002
