cnnQLearning/DQN.pt (torch, 23129 bytes, 19 tensors)

weight f4 [32, 3, 3, 3]
-0.1312256 -0.06581109 0.1845393 -0.0539115 0.040073127 0.059973564 0.19248126 -0.031574525
0.12427081 0.12751247 0.12536319 0.10052929 0.0663563 -0.11964063 0.1302091 -0.1494659
-0.083004616 0.16829313 -0.13817492 0.19013898 0.03591041 -0.17175071 0.014253434 -0.00892891
0.19022353 0.1876225 -0.027754735 0.18346441 -0.1658949 0.07328914 -0.17374988 0.16317345
-0.10437165 0.09371428 0.016519058 -0.03119222 -0.09404086 -0.037324928 0.16643322 -0.082729064
0.14861038 0.07348085 -0.091154516 0.16291223 -0.15777093 0.106809415 0.17169634 0.046354055
0.0037106283 0.045217086 -0.16441055 -0.16295457 0.11810619 -0.10650708 -0.123943456 -0.10079941
0.12887229 -0.051690806 0.0034389358 0.10237054 0.02425197 -0.004136638 -0.047156148 0.09389977
0.1743354 -0.07376156 0.048566677 -0.18219782 0.11332483 0.109862626 -0.18149137 -0.09950244
0.09954209 -0.19013773 0.14637046 -0.13371994 0.1762976 -0.013398316 0.084923446 0.13260044
0.032629073 -0.0440705 -0.0665765 -0.11074134 0.110818 0.16406685 0.17756583 0.12731795
-0.026482604 -0.17240758 0.15779082 -0.10306455 0.15954913 -0.09589556 0.039997652 0.08956933
0.09057189 -0.11133252 0.18947251 0.16331747 -0.09340762 -0.16918197 -0.008452194 -0.039040897
0.10574503 0.12834997 0.14500877 0.18195148 0.1065522 0.111680724 -0.18332727 0.16527633
0.14549388 0.14861454 -0.16473785 0.16902599 -0.17002545 0.14070556 -0.18244943 -0.15905058
0.007863339 -0.16005486 -0.013828566 0.13735907 -0.030516716 0.1746833 0.18326169 0.044518594
-0.1746056 0.06825008 0.15901545 0.072392836 -0.16032237 0.015258496 0.16526578 -0.17805071
-0.008478593 -0.12916455 -0.021251526 0.05104453 -0.1166012 0.15017071 0.10549659 0.114218
0.14378598 0.13207652 0.13273771 -0.08098814 -0.17284717 -0.13258839 -0.018325971 0.042301178
-0.16293377 0.012462161 0.1823255 -0.092243254 0.1854447 -0.13195561 0.1217697 -0.18368521
-0.07750038 0.13318478 0.19091083 -0.007938834 0.14771095 0.07122063 -0.16953559 -0.15777498
-0.114539996 0.12935393 0.1725432 0.005673512 -0.14056133 0.06780967 0.11143273 -0.029440155
0.09929757 -0.022188408 0.19019522 0.16010036 0.010846504 -0.11369033 0.16154946 0.1598455
0.1414788 -0.079764105 0.14592767 -0.18577416 -0.013674374 -0.14664672 -0.121988975 0.13774717
0.15374315 -0.11995311 0.17022297 -0.10527104 0.048396103 -0.03396558 0.1281615 0.06433719
0.17481595 0.18110272 0.029327923 0.104320176 -0.1760884 -0.0025832227 0.10125122 0.1707766
-0.031139616 0.034188956 -0.0425676 -0.07886773 -0.07405682 -0.19048426 -0.14010616 -0.15803823
0.17172721 0.10584442 0.08327634 0.07488852 0.024575504 0.18216246 -0.044730853 -0.18466523
-0.028927019 -0.10310452 0.15055409 -0.14420484 0.014187839 0.053042535 0.0848522 0.1056279
-0.0027414581 -0.020712618 -0.11246594 -0.17261174 -0.07730013 0.044820894 0.098524064 -0.16987583
0.09069867 -0.015310833 -0.16797899 -0.0010280497 -0.158454 0.123187006 0.068612896 -0.12165822
0.07781814 -0.004640997 0.08395962 -0.051741976 0.13549128 -0.13864243 0.046384588 0.10006366
00000000: 0160 06be f7c7 86bd dff7 3c3e 4ed2 5cbd
00000010: b823 243d d7a6 753d cf19 453e 4a54 01bd
00000020: b281 fe3d a192 023e 355f 003e 4de2 cd3d
00000030: d0e5 873d 2606 f5bd 8955 053e 970d 19be
00000040: 53fe a9bd 0955 2c3e ba7d 0dbe cbb3 423e
00000050: cb16 133d 6bdf 2fbe 3c87 693c 904a 12bc
00000060: f5c9 423e 1d20 403e e65d e3bc 18de 3b3e
00000070: 5ae0 29be 9e18 963d 7deb 31be f116 273e
00000080: cec0 d5bd 46ed bf3d fa52 873c d486 ffbc
00000090: 7f98 c0bd 06e2 18bd 786d 2a3e db6d a9bd
000000a0: 522d 183e 217d 963d 38af babd 77d2 263e
000000b0: b48e 21be e5be da3d 2ad1 2f3e c0dd 3d3d
000000c0: 032e 733b 8d35 393d 3d5b 28be 90dd 26be
000000d0: a8e1 f13d 6220 dabd 11d6 fdbd ec6f cebd
000000e0: 19f7 033e bdb9 53bd c55f 613b a5a7 d13d
000000f0: 11ac c63c a28c 87bb ce26 41bd 864e c03d
00000100: fb84 323e 4d10 97bd daed 463d 1192 3abe
00000110: d916 e83d a8ff e03d e0d8 39be efc7 cbbd
00000120: b9dc cb3d 77b3 42be 23e2 153e e1ed 08be
00000130: 5c87 343e 9c84 5bbc 58ec ad3d 69c8 073e
00000140: 10a6 053d 4583 34bd 4359 88bd 5bcc e2bd
00000150: 8cf4 e23d 2401 283e d1d3 353e a35f 023e
00000160: 0cf2 d8bc 9d8b 30be eb93 213e 8213 d3bd
00000170: d960 233e e464 c4bd 94d4 233d 2070 b73d
00000180: c17d b93d 4e02 e4bd 1505 423e b23c 273e
00000190: 7f4c bfbd 0a3e 2dbe 127b 0abc 59e9 1fbd
000001a0: da90 d83d 2d6e 033e 2e7d 143e 7d51 3a3e
000001b0: 0a38 da3d ddb8 e43d 25ba 3bbe 333e 293e
000001c0: 59fc 143e 692e 183e 0ab1 28be 2615 2d3e
000001d0: 271b 2ebe 1e15 103e 06d4 3abe 28de 22be
000001e0: 3cd5 003c 6ce5 23be 3691 62bc dba7 0c3e
000001f0: 31fe f9bc 2ee0 323e f4a8 3b3e 2159 363d
00000200: cfcb 32be b3c6 8b3d f2d4 223e b242 943d
00000210: 8c2b 24be c5fe 793c 6f3b 293e ed52 36be
00000220: cce9 0abc b643 04be ae17 aebc 1214 513d
00000230: 9ccc eebd 5ac6 193e 990e d83d 20eb e93d
00000240: a23c 133e 113f 073e 65ec 073e 1cdd a5bd
00000250: d9fe 30be 40c5 07be 5920 96bc 0044 2d3d
00000260: 1cd8 26be 172e 4c3c 89b3 3a3e 08ea bcbd
00000270: 37e5 3d3e 5f1f 07be 6462 f93d fa17 3cbe
00000280: 85b8 9ebd 9761 083e 217e 433e e211 02bc
00000290: 8a41 173e 1fdc 913d bd9a 2dbe c48f 21be
000002a0: f293 eabd 5b75 043e 2aaf 303e dee8 b93b
000002b0: 4fef 0fbe ccdf 8a3d d836 e43d 7b2c f1bc
000002c0: 865c cb3d 77c4 b5bc 89c2 423e 59f1 233e
000002d0: 89b5 313c 7ad6 e8bd 396d 253e 8aae 233e
000002e0: d2df 103e 5d5b a3bd 106e 153e 953b 3ebe
000002f0: 7b0a 60bc 8f2a 16be 5bd5 f9bd 980d 0d3e
00000300: d86e 1d3e faa9 f5bd ee4e 2e3e 5898 d7bd
00000310: fe3a 463d 7e1f 0bbd c53c 033e 37c3 833d
00000320: f402 333e fe72 393e 1d41 f03c d1a5 d53d
00000330: 8450 34be 494b 29bb cd5c cf3d 10e0 2e3e
00000340: 8218 ffbc b809 0c3d 5d5b 2ebd 6885 a1bd
00000350: 1aab 97bd 4e0e 43be fd77 0fbe c6d4 21be
00000360: 42d9 2f3e f6c4 d83d c98c aa3d 275f 993d
00000370: 9152 c93c cc88 3a3e b337 37bd e218 3dbe
00000380: 5bf8 ecbc 7628 d3bd da2a 1a3e 6faa 13be
00000390: 1c74 683c 2143 593d fdc6 ad3d 7153 d83d
000003a0: 09aa 33bb 82ad a9bc 8b54 e6bd 22c1 30be
000003b0: 884f 9ebd 1d96 373d fcc6 c93d eef3 2dbe
000003c0: 39c0 b93d 4ada 7abc af02 2cbe a0bf 86ba
000003d0: c441 22be 7849 fc3d eb84 8c3d f227 f9bd
000003e0: 1e5f 9f3d 8113 98bb 05f3 ab3d 65ef 53bd
000003f0: 3abe 0a3e 48f8 0dbe c4fd 3d3d 2dee cc3d

bias f4 [32]
0.07031203 0.15990484 -0.11918118 0.10170393 0.18280509 0.11771861 -0.18264012 -0.10168798
-0.110474646 -0.0220938 0.019757792 0.0017418152 0.12431493 -0.1831729 -0.08909842 -0.008620172
-0.13703877 0.037171185 -0.08616412 -0.06842708 -0.07334684 -0.16489753 0.05822321 -0.06839759
-0.12795694 -0.064737596 -0.067518234 0.11180762 0.048174053 0.14330107 -0.050826136 0.05046901
00000000: c1ff 8f3d 18be 233e 4315 f4bd 264a d03d
00000010: 4231 3b3e 7416 f13d 0306 3bbe ca41 d0bd
00000020: 8840 e2bd 0ffe b4bc 18db a13c 9f4d e43a
00000030: d398 fe3d ad91 3bbe 3c79 b6bd 9f3b 0dbc
00000040: e453 0cbe d040 183d d076 b0bd 7f23 8cbd
00000050: de36 96bd e6da 28be 767b 6e3d 0914 8cbd
00000060: 2507 03be 2595 84bd 0047 8abd 65fb e43d
00000070: 2852 453d 84bd 123e 112f 50bd 98b8 4e3d

weight f4 [1, 32, 3, 3]
0.031167662 0.026549902 0.041543894 -0.028236482 -0.020242665 0.037385494 -0.054612305 0.049814276
-0.012703336 0.046123486 -0.040334176 0.009797926 0.027923198 -0.020135928 -0.010788382 0.057226762
-0.040683784 0.036153123 -0.0003265166 -0.052737948 -0.02569444 0.010802788 -0.045176655 0.053224567
-0.03321986 0.023376167 -0.00793395 0.03803693 0.04668534 0.045540854 -0.037577536 0.037842557
-0.027665257 -0.030629732 -0.02247375 -0.028126704 0.040116575 0.053754795 0.023176663 -0.045337964
-0.0016194107 -0.05170625 -0.01996845 0.009284139 -0.040952355 0.007625966 0.05423482 0.0062169507
0.041954573 0.016244523 0.021573596 0.023725955 0.01849499 0.031249894 -0.0026849697 -0.0374964
-0.042842023 0.007203394 -0.037335463 -0.026438085 0.02329918 0.051624417 0.04655886 -0.028495554
0.02164741 0.032803785 -0.0046741036 -0.017574672 -0.019931138 -0.014308611 -0.0019963707 0.045258246
0.054862697 0.045142382 -0.052693147 -0.050562 0.054000154 -0.04913465 -0.0064213076 0.007970401
-0.05149146 -0.008368847 -0.031512357 -0.05291936 -0.021673577 -0.033335604 -0.035140466 -0.023202628
-0.014833982 -0.01995149 -0.015464848 -0.012353627 -0.025869725 0.055108156 -0.0012182533 -0.024510257
0.058547832 -0.00959518 -0.036479436 -0.058060575 -0.016764347 0.0031314099 -0.031867806 0.051624686
-0.049745914 -0.009994275 -0.0034307851 0.016743116 -0.009177196 0.0020478747 -0.038890693 -0.0054287245
0.026198117 0.046723682 0.05717182 0.012821838 0.03522045 0.043497737 -0.035608586 -0.04735247
-0.03816065 0.008880411 0.0037087004 -0.022356663 -0.04638007 -0.011984461 -0.0420911 -0.02185281
-0.036682267 0.005110205 0.04829853 0.026015898 -0.030063353 0.03572675 -0.009146348 -0.050332103
0.05476587 -0.03458961 -0.0066770795 -0.021806946 -0.03459111 -0.0050100656 0.020590477 -0.05367034
0.054720614 0.005614366 0.058670945 -0.023008905 0.013260366 0.03767108 -0.023291014 0.053482216
0.024787312 -0.008928134 -0.0044696047 0.010700461 -0.05629988 0.048689313 0.0137395505 0.020992443
0.048139628 -0.010994631 -0.04092059 -0.02106523 0.0473742 -0.04437871 0.00291224 0.037426367
0.047938656 -0.04741961 -0.033211183 0.050492905 -0.046289098 0.055506304 0.0050609275 -0.022948878
-0.0324872 0.023150017 -0.0121473055 -0.043920647 0.03186671 -0.04470454 -0.022367517 -0.056988347
0.020785462 -0.029397013 0.019211616 -0.008308311 -0.05494614 0.031068217 0.034157198 0.052809745
-0.006833026 -0.02183112 0.0168363 -0.021077635 0.04929019 0.029779516 0.043715406 0.020947764
-0.038688015 -0.00038582896 -0.047814835 -0.050822455 -0.056367654 0.016403992 -0.006807757 -0.03718335
0.01475159 0.05428869 -0.037312083 -0.031481203 0.03527761 0.0054450785 -0.038132407 0.046439685
-0.04703933 0.013392152 0.0013530327 -0.042917307 0.05350702 0.027212653 -0.0009866656 -0.038455542
-0.052335784 -0.024345733 0.02339433 0.03967182 -0.027998209 0.035147157 0.050117303 0.013476155
0.05570324 0.0190161 0.027485564 -0.031857364 0.009538879 0.017758545 0.04011564 0.03042817
-0.036847476 0.037403427 -0.04393436 -0.036426023 -0.01244883 0.033904318 -0.025173856 0.032798227
-0.02811936 -0.027466469 0.048214663 -0.048363008 0.05628181 0.034921125 0.055729296 0.027606804
00000000: 5353 ff3c 2e7f d93c ee29 2a3d 3250 e7bc
00000010: f2d3 a5bc 8821 193d 27b1 5fbd 0e0a 4c3d
00000020: a721 50bc fbeb 3c3d 7335 25bd 7b87 203c
00000030: 31bf e43c 1af4 a4bc c1c1 30bc 9c66 6a3d
00000040: 0aa4 26bd 4c15 143d 5130 abb9 bf03 58bd
00000050: 257d d2bc 2dfe 303c 280b 39bd 0102 5a3d
00000060: 8c11 08bd 607f bf3c 66fd 01bc 9dcc 1b3d
00000070: 2139 3f3d 0c89 3a3d e7ea 19bd cc00 1b3d
00000080: 40a2 e2bc 34eb fabc df1a b8bc f969 e6bc
00000090: 4751 243d fd2d 5c3d fcdc bd3c 4db4 39bd
000000a0: 6842 d4ba efc9 53bd e094 a3bc 801c 183c
000000b0: a8bd 27bd 3de3 f93b 5525 5e3d 90b7 cb3b
000000c0: 8fd8 2b3d 3c13 853c 1cbb b03c ef5c c23c
000000d0: ce82 973c c7ff ff3c 51f6 2fbb d395 19bd
000000e0: 1e7b 2fbd 730a ec3b 12ed 18bd af94 d8bc
000000f0: ecdd be3c 2074 533d 81b4 3e3d 826f e9bc
00000100: e955 b13c 435d 063d 3929 99bb c2f8 8fbc
00000110: a046 a3bc aa6e 6abc 8bd5 02bb b660 393d
00000120: b5b7 603d 38e7 383d c5d4 57bd 1a1a 4fbd
00000130: 442f 5d3d 6a41 49bd d569 d2bb 4996 023c
00000140: b6e8 52bd 7d1d 09bc 1a13 01bd f9c1 58bd
00000150: c98c b1bc ea8a 08bd 73ef 0fbd 7013 bebc
00000160: 3b0a 73bc 4f71 a3bc 4660 7dbc de66 4abc
00000170: bfec d3bc 17b9 613d ccad 9fba bcc9 c8bc
00000180: dacf 6f3d 1a35 1dbc 766b 15bd edd0 6dbd
00000190: 6255 89bc 5738 4d3b d187 02bd 6874 533d
000001a0: 5fc2 4bbd 07bf 23bc 06d7 60bb dc28 893c
000001b0: f35b 16bc a335 063b d94b 1fbd 71e3 b1bb
000001c0: 6f9d d63c 5561 3f3d 002d 6a3d b012 523c
000001d0: 5243 103d af2a 323d 4fda 11bd aaf4 41bd
000001e0: 574e 1cbd 257f 113c ab0d 733b 5225 b7bc
000001f0: 07f9 3dbd 795a 44bc b867 2cbd aa04 b3bc
00000200: 2540 16bd 8273 a73b aed4 453d 4b1f d53c
00000210: 6c47 f6bc 3656 123d 90da 15bc 0929 4ebd
00000220: 2d52 603d d6ad 0dbd 67cb dabb 7ba4 b2bc
00000230: 68af 0dbd 7a2b a4bb 5cad a83c 6ed5 5bbd
00000240: b922 603d b7f8 b73b f250 703d 2c7d bcbc
00000250: 0242 593c fe4c 1a3d cccc bebc 2b10 5b3d
00000260: c30e cb3c 4f47 12bc c375 92bb fd50 2f3c
00000270: b49a 66bd 726e 473d da1b 613c 58f8 ab3c
00000280: 0f2e 453d d322 34bc 599c 27bd fd90 acbc
00000290: 730b 423d 73c6 35bd 48db 3e3b 644c 193d
000002a0: 535b 443d 113b 42bd 7308 08bd a6d1 4e3d
000002b0: a399 3dbd 945a 633d 23d6 a53b 49ff bbbc
000002c0: 4c11 05bd 1ba5 bd3c 7e05 47bc 23e6 33bd
000002d0: ab86 023d 1c1c 37bd 153c b7bc 9d6c 69bd
000002e0: 4646 aa3c 01d2 f0bc ae61 9d3c 951f 08bc
000002f0: 340f 61bd c682 fe3c 6be8 0b3d 084f 583d
00000300: 94e7 dfbb 2dd7 b2bc 48ec 893c 01ab acbc
00000310: 83e4 493d 2cf4 f33c ed0e 333d a59a ab3c
00000320: 5377 1ebd 1649 cab9 7dd9 43bd 352b 50bd
00000330: c5e1 66bd aa61 863c 9b13 dfbb 924d 18bd
00000340: a7b0 713c d15d 5e3d 8ed4 18bd 6ff2 00bd
00000350: 417f 103d a16c b23b ba30 1cbd 8a37 3e3d
00000360: 50ac 40bd c26a 5b3c 3e58 b13a 0fca 2fbd
00000370: 2d2a 5b3d 12ed de3c 0153 81ba 8f83 1dbd
00000380: 0c5e 56bd b470 c7bc 77a5 bf3c eb7e 223d
00000390: 805c e5bc 77f6 0f3d cd47 4d3d 17cb 5c3c
000003a0: 1529 643d a7c7 9b3c 6829 e13c de7c 02bd
000003b0: f548 1c3c 5e7a 913c 4c50 243d 7f44 f93c
000003c0: 61ed 16bd 5634 193d 84f4 33bd 7433 15bd
000003d0: 2df6 4bbc 41df 0a3d 6739 cebc 6f57 063d
000003e0: 925a e6bc 5c01 e1bc bd7c 453d 4a18 46bd
000003f0: c187 663d 7409 0f3d 6744 643d aa27 e23c

weight f4 [32]
1.0000999 1.0000999 1.0000999 1.0000999 1.0000999 1.0000999 1.0000999 0.99989796
1.0000999 1.0000999 1.0000999 1.0000999 1.0000999 0.99989796 0.99989796 1.0000999
0.99989796 0.99989796 0.99989796 1.0000999 0.99989796 1.0000999 0.99989796 1.0000999
0.99989796 0.99989796 0.99989796 1.0000999 0.99989796 0.99989796 1.0000999 1.0000999
00000000: 4603 803f 4603 803f 4603 803f 4603 803f
00000010: 4603 803f 4603 803f 4603 803f 50f9 7f3f
00000020: 4603 803f 4603 803f 4603 803f 4603 803f
00000030: 4603 803f 50f9 7f3f 50f9 7f3f 4603 803f
00000040: 50f9 7f3f 50f9 7f3f 50f9 7f3f 4603 803f
00000050: 50f9 7f3f 4603 803f 50f9 7f3f 4603 803f
00000060: 50f9 7f3f 50f9 7f3f 50f9 7f3f 4603 803f
00000070: 50f9 7f3f 50f9 7f3f 4603 803f 4603 803f

bias f4 [32]
0.0001010101 0.0001010101 0.0001010101 0.0001010101 0.0001010101 0.000101010104 0.0001010101 0.00010101011
-0.0001010101 0.0001010101 0.0001010101 0.0001010101 0.0001010101 0.0001010101 -0.0001010101 0.0001010101
0.0001010101 0.0001010101 -0.0001010101 -0.0001010101 -0.0001010101 0.0001010101 -0.0001010101 0.0001010101
-0.0001010101 -0.0001010101 -0.0001010101 0.0001010101 -0.0001010101 0.0001010101 0.0001010101 0.0001010101
00000000: 62d5 d338 62d5 d338 62d5 d338 62d5 d338
00000010: 62d5 d338 63d5 d338 62d5 d338 64d5 d338
00000020: 62d5 d3b8 62d5 d338 62d5 d338 62d5 d338
00000030: 62d5 d338 62d5 d338 62d5 d3b8 62d5 d338
00000040: 62d5 d338 62d5 d338 62d5 d3b8 62d5 d3b8
00000050: 62d5 d3b8 62d5 d338 62d5 d3b8 62d5 d338
00000060: 62d5 d3b8 62d5 d3b8 62d5 d3b8 62d5 d338
00000070: 62d5 d3b8 62d5 d338 62d5 d338 62d5 d338

running_mean f4 [32]
106.51918 22.603329 25.16257 108.985054 62.27937 -3.2288785 105.48099 21.980236
12.694419 41.912964 -54.652893 -12.283968 56.33111 44.568035 30.354445 -20.037447
-75.06989 35.362144 21.002932 -9.582589 41.818752 -20.409634 -38.50739 61.478306
-3.6905417 -30.515064 17.628016 95.45204 60.65256 65.54613 -84.39694 41.225098
00000000: d209 d542 9ed3 b441 f24c c941 59f8 d942
00000010: 131e 7942 f2a5 4ec0 44f6 d242 86d7 af41
00000020: 571c 4b41 e0a6 2742 909c 5ac2 228b 44c1
00000030: 0e53 6142 ab45 3242 e7d5 f241 b14c a0c1
00000040: c923 96c2 d672 0d42 0106 a841 4952 19c1
00000050: 6746 2742 ee46 a3c1 9107 1ac2 c9e9 7542
00000060: d631 6cc0 da1e f4c1 2d06 8d41 72e7 be42
00000070: 399c 7242 9e17 8342 3ccb a8c2 80e6 2442

running_var f4 [32]
184.10147 117.56711 132.0735 230.53383 304.49454 86.31559 101.26777 470.1511
233.36519 209.82712 151.06238 131.46986 58.548855 113.42238 250.0023 134.47662
148.84279 178.97894 204.66328 140.06541 76.81978 252.01611 369.7715 112.41002
116.58277 102.457756 197.08896 69.78959 69.587296 472.6436 309.27844 154.77478
00000000: fa19 3843 5c22 eb42 d112 0443 a988 6643
00000010: 4d3f 9843 95a1 ac42 1989 ca42 5713 eb43
00000020: 7d5d 6943 bed3 5143 f80f 1743 4978 0343
00000030: 0732 6a42 42d8 e242 9700 7a43 047a 0643
00000040: c1d7 1443 9cfa 3243 cda9 4c43 bf10 0c43
00000050: baa3 9942 2004 7c43 c1e2 b843 eed1 e042
00000060: 612a e942 5fea cc42 c616 4543 4594 8b42
00000070: b22c 8b42 6152 ec43 a4a3 9a43 58c6 1a43

weight f4 [20, 84]
-0.10573988 -0.004166438 -0.09568256 0.02448176 0.013709611 0.007884014 0.015255008 0.06415299
0.0828104 0.05015098 -0.0106731765 -0.01947294 0.065711744 -0.06626804 0.0706904 0.023521844
-0.044685315 -0.07264339 0.03575522 -0.019795364 0.07756378 -0.07052754 -0.072783664 -0.10882373
0.040473044 0.10217238 0.019778289 0.10610127 -0.07429911 0.052789375 0.10586601 -0.09069539
0.085036874 0.04183903 -0.04429686 -0.10792826 -0.0024754484 -0.040429592 0.047012214 0.02593793
0.01733216 -0.051866643 -0.032224067 -0.048606716 0.037060503 -0.05895351 0.041834652 -0.061352845
-0.10289863 0.037422705 0.06103568 0.06889299 -0.0010923757 0.08423123 -0.028805988 -0.035760727
-0.05488085 -0.03512722 -0.0029990668 -0.104361944 -0.010844327 0.10621306 0.101404615 -0.041810386
-0.08559142 -0.08515024 -0.040227927 0.10611464 -0.0152928475 -0.0094890455 0.068028025 -0.10190018
0.06401041 0.059003424 -0.023345701 -0.0804314 -0.008635632 0.059892945 -0.021163043 0.09515749
-0.049564302 -0.103713 -0.092647426 -0.08730884 -0.03696475 0.07061625 -0.033879768 -0.017660704
-0.0826494 0.003089723 -0.006851055 -0.039699655 0.0897725 0.058518432 0.00431114 -0.030273013
-0.091699995 -0.001058339 -0.067354284 -0.017773036 -0.05014739 0.050014973 -0.0064797113 -0.055902
-0.09171241 0.07518426 0.09784806 -0.0031016662 0.028653465 0.08422953 0.012890415 0.06418076
0.08609929 -0.037084363 -0.08576584 0.07082238 0.011321787 0.074675046 -0.020930143 0.088180326
0.06401639 0.0011852148 0.03152748 -0.056178823 0.060362913 -0.08660763 0.09909037 -0.08303203
0.043874867 0.018255074 0.015563219 -0.041992832 0.057694323 0.09431401 0.04293009 0.10366752
0.07990357 -0.06376938 -0.08644094 -0.06711375 0.022605613 -0.059443776 0.029643334 -0.04433708
-0.0613675 -0.047209278 0.06575829 -0.10683645 0.101344846 -0.09556565 -0.020092601 0.019213278
0.056964602 0.016304111 -0.012322436 0.08797028 0.08578918 0.0053820107 0.025908764 0.08312824
-0.029212616 -0.029368944 -0.013883808 0.0019046346 0.04053327 0.043628283 -0.0131337885 -0.098276965
0.00391472 0.00038614354 0.0360963 -0.05359147 0.063385606 -0.09612229 -0.039798647 0.091476336
0.029434387 -0.00032916362 -0.06255401 0.025244495 -0.07183646 -0.015892658 -0.097092524 -0.07791423
0.03583528 0.003679647 0.070213474 0.086892985 0.089749716 0.030735986 0.07450667 0.014533925
0.10690568 0.03157787 0.042828325 0.0029234185 0.01915784 -0.06289608 0.09948514 0.013750576
0.0438422 -0.08770107 -0.0026815953 0.098610185 0.098943345 -0.03724896 0.031207696 0.06509645
0.06546786 0.0026781233 -0.05816557 0.08343224 0.1048092 -0.07721678 0.047089815 0.045093615
0.09549767 0.10025617 -0.052388553 -0.023251247 -0.06683886 -0.00353212 -0.08693145 0.06792602
-0.024568 -0.048162322 -0.07836295 0.06615636 0.0069213165 0.02205832 0.043820847 -0.055542722
0.024003558 0.09776653 -0.0699779 -0.08153972 -0.027228735 -0.016729617 0.103575215 0.041528516
-0.09043814 0.029480223 -0.09187359 -0.0035993839 -0.006595106 -0.03247879 0.106345095 -0.08200445
-0.08167774 -0.042517822 -0.010685534 -0.046554696 0.08414352 0.020011347 -0.10136663 0.07898855
00000000: 268e d8bd 9d86 88bb 38f5 c3bd f98d c83c
00000010: 479e 603c f42b 013c 24f0 793c a562 833d
00000020: 8098 a93d 1d6b 4d3d 8cde 2ebc b785 9fbc
00000030: e193 863d 8ab7 87bd 21c6 903d e2b0 c03c
00000040: f307 37bd 0fc6 94bd 1174 123d e329 a2bc
00000050: c2d9 9e3d be70 90bd 9a0f 95bd fade debd
00000060: 10c7 253d c13f d13d 1406 a23c 9f4b d93d
00000070: 222a 98bd ac39 583d 47d0 d83d 81be b9bd
00000080: d027 ae3d 675f 2b3d a070 35bd 7e09 ddbd
00000090: 223b 22bb 8099 25bd e18f 403d c87b d43c
000000a0: 2dfc 8d3c 1e72 54bd 62fd 03bd d617 47bd
000000b0: c1cc 173d 3c79 71bd d05a 2b3d 1f4d 7bbd
000000c0: 84bc d2bd 8d48 193d 8d00 7a3d c517 8d3d
000000d0: 0c2e 8fba 6c81 ac3d 89fa ebbc d779 12bd
000000e0: beca 60bd 8fe1 0fbd fe8b 44bb b7bb d5bd
000000f0: 67ac 31bc 3c86 d93d 39ad cf3d 5e41 2bbd
00000100: 8e4a afbd 4063 aebd 0ac6 24bd a252 d93d
00000110: da8e 7abc f177 1bbc 4752 8b3d 0bb1 d0bd
00000120: e417 833d 93ad 713d 7c3f bfbc 38b9 a4bd
00000130: 777c 0dbc 4e52 753d 1e5e adbc eee1 c23d
00000140: f003 4bbd 7b67 d4bd efbd bdbd face b2bd
00000150: 5a68 17bd 419f 903d 83c5 0abd 2ead 90bc
00000160: 1744 a9bd f37c 4a3b d17e e0bb 1b9c 22bd
00000170: a5da b73d 06b1 6f3d 7744 8d3b 1cff f7bc
00000180: 35cd bbbd f7b7 8aba 0bf1 89bd c298 91bc
00000190: 5a67 4dbd 80dc 4c3d c253 d4bb 7ff9 64bd
000001a0: b7d3 bbbd 35fa 993d 9064 c83d 5345 4bbb
000001b0: acba ea3c 8880 ac3d 5232 533c 3471 833d
000001c0: d354 b03d c6e5 17bd 00a6 afbd 530b 913d
000001d0: 047f 393c 3bef 983d b175 abbc e397 b43d
000001e0: 061b 833d 3659 9b3a f522 013d c41b 66bd
000001f0: 1a3f 773d 575f b1bd e4ef ca3d b20c aabd
00000200: 22b6 333d aa8b 953c dffc 7e3c ad00 2cbd
00000210: e250 6c3d b427 c13d 76d7 2f3d a34f d43d
00000220: 7ca4 a33d 8599 82bd f307 b1bd ef72 89bd
00000230: 682f b93c 517b 73bd 94d6 f23c cc9a 35bd
00000240: 7d5c 7bbd 845e 41bd 48ac 863d 12cd dabd
00000250: e38d cf3d ecb7 c3bd 3d99 a4bc 2a65 9d3c
00000260: b753 693d 3390 853c 0be4 49bc c329 b43d
00000270: 3db2 af3d 945b b03b 9e3e d43c 243f aa3d
00000280: 4c4f efbc 2497 f0bc e978 63bc efa4 f93a
00000290: 3706 263d 92b3 323d 1a2f 57bc 6f45 c9bd
000002a0: 0d47 803b 4f73 ca39 b7d9 133d bb82 5bbd
000002b0: 50d0 813d c3db c4bd e803 23bd f257 bb3d
000002c0: 6220 f13c 9893 acb9 511c 80bd 8bcd ce3c
000002d0: fe1e 93bd 5231 82bc 72d8 c6bd 7f91 9fbd
000002e0: 04c8 123d 3c26 713b 15cc 8f3d f3f4 b13d
000002f0: b3ce b73d 09ca fb3c f496 983d b31f 6e3c
00000300: 5df1 da3d cc57 013d c16c 2f3d d396 3f3b
00000310: e7f0 9c3c a9cf 80bd ddbe cb3d 194a 613c
00000320: e193 333d 9e9c b3bd b4bd 2fbb 23f4 c93d
00000330: cfa2 ca3d 5e92 18bd 48a7 ff3c 4a51 853d
00000340: 0314 863d 7483 2f3b 053f 6ebd 86de aa3d
00000350: 35a6 d63d d523 9ebd 40e1 403d 15b4 383d
00000360: 4894 c33d 1b53 cd3d 6195 56bd 6679 bebc
00000370: d0e2 88bd 247b 67bb 1e09 b2bd cc1c 8b3d
00000380: d542 c9bc db45 45bd c17c a0bd fc7c 873d
00000390: 36cc e23b a6b3 b43c 7d7d 333d c480 63bd
000003a0: 1ca3 c43c d239 c83d 9350 8fbd 4cfe a6bd
000003b0: cc0e dfbc 8d0c 89bc 3e1f d43d ce19 2a3d
000003c0: a237 b9bd 8280 f13c 3928 bcbd a4e3 6bbb
000003d0: c21b d8bb 7b08 05bd 75cb d93d f3f1 a7bd
000003e0: a946 a7bd 2b27 2ebd 6112 2fbc 23b0 3ebd
000003f0: 7053 ac3d d6ee a33c 4f99 cfbd c0c4 a13d

bias f4 [20]
0.0037610836 -0.088422254 0.08577857 0.059514377 -0.055849247 -0.05837909 -0.04247778 -0.07845593
-0.06861267 0.014974898 -0.008814725 -0.062659316 0.03921809 -0.046051946 0.07571847 0.033207793
0.07684119 -0.106304795 0.023973553 -0.023113882
00000000: 837c 763b ba16 b5bd adac af3d 59c5 733d
00000010: 2ec2 64bd ea1e 6fbd 2efd 2dbd 81ad a0bd
00000020: cd84 8cbd 4659 753c a36b 10bc 8753 80bd
00000030: 26a3 203d f7a0 3cbd 4912 9b3d e504 083d
00000040: ea5e 9d3d 54b6 d9bd 2f64 c43c 5359 bdbc

weight f4 [6, 20]
-0.09846274 0.034612026 -0.025146637 -0.041974504 0.1258127 -0.031340744 -0.12694454 0.097096644
0.13726433 -0.11824571 0.052762903 -0.090376675 0.20722803 -0.13209382 -0.21758093 0.18642765
0.15482266 0.066280685 -0.17688295 -0.018080931 -0.21869214 0.19652541 0.035807334 0.12783946
0.049157243 -0.22075982 0.086673886 0.11334599 -0.06686757 0.12733577 -0.077749945 -0.13823245
-0.07560092 0.09210285 -0.19962513 0.021972172 0.10940278 0.059938997 0.13625433 0.21138167
-0.18583378 0.1979485 -0.08994605 -0.12171115 -0.19279839 -0.07301742 0.062481012 -0.08593494
-0.15045393 0.11368484 0.19803558 -0.1322919 -0.09181477 0.1098919 -0.030830173 0.14103785
0.047062498 0.019108947 -0.14299981 -0.15549675 0.17674819 -0.16202688 -0.050622933 0.034571525
0.061109897 0.13041575 0.025148872 -0.11419325 0.045434013 0.20791656 -0.12211992 0.026593689
-0.18356684 -0.1825577 -0.058322728 0.1734944 -0.076098695 0.20290738 -0.037085317 0.10188101
0.07697521 0.086509466 -0.18693404 0.15233493 -0.17612627 -0.20333563 -0.112717055 -0.1421996
0.055409495 -0.04816256 0.025555734 0.026788535 0.17103148 -0.068177946 0.17473397 -0.09038369
-0.1999354 0.22055121 -0.10505887 0.008144728 -0.14470653 -0.19712116 0.19195646 0.04198796
-0.14176668 0.12721525 0.18240948 0.013921083 0.12987511 -0.07912941 0.13599876 -0.13457114
0.017054135 -0.16437402 -0.15098599 -0.053008117 -0.1370149 -0.06988859 0.14804602 0.17366621
00000000: d5a6 c9bd 57c5 0d3d 5200 cebc 75ed 2bbd
00000010: 0bd5 003e 275f 00bd c0fd 01be 9bda c63d
00000020: 058f 0c3e cf2a f2bd ea1d 583d 6817 b9bd
00000030: 9633 543e 9a43 07be 89cd 5ebe e4e6 3e3e
00000040: d589 1e3e 2bbe 873d ce20 35be 761e 94bc
00000050: d5f0 5fbe f53d 493e b6aa 123d 59e8 023e
00000060: 1b59 493d dd0e 62be 1482 b13d f121 e83d
00000070: ddf1 88bd 4f64 023e 5d3b 9fbd cf8c 0dbe
00000080: a8d4 9abd 6ba0 bc3d 886a 4cbe fcfe b33c
00000090: 910e e03d 9882 753d 4186 0b3e 7074 583e
000000a0: 364b 3ebe 03b3 4a3e a235 b8bd b243 f9bd
000000b0: f16c 45be 288a 95bd 17ec 7f3d a8fe afbd
000000c0: 9810 1abe 99d3 e83d d7c9 4a3e 8777 07be
000000d0: 6209 bcbd 010f e13d 8f8f fcbc 3a6c 103e
000000e0: 9bc4 403d 5e8a 9c3c 8b6e 12be 8a3a 1fbe
000000f0: 7afd 343e 60ea 25be fe59 4fbd df9a 0d3d
00000100: 5f4e 7a3d b58b 053e 0205 ce3c 27de e9bd
00000110: 0419 3a3d 14e8 543e 021a fabd 02db d93c
00000120: f2f8 3bbe 68f0 3abe d0e3 6ebd 84a8 313e
00000130: a2d9 9bbd f4c6 4f3e c6e6 17bd fea6 d03d
00000140: 2ea5 9d3d e02b b13d a36b 3fbe b0fd 1b3e
00000150: 725a 34be 3737 50be 33d8 e6bd c69c 11be
00000160: 11f5 623d 1b46 45bd 425a d13c a173 db3c
00000170: e022 2f3e e1a0 8bbd 76ed 323e 161b b9bd
00000180: debb 4cbe 2dd8 613e 1b29 d7bd 7771 053c
00000190: f32d 14be 21da 49be 3c90 443e 91fb 2b3d
000001a0: 492b 11be b744 023e 8dc9 3a3e 4115 643c
000001b0: fbfd 043e 9a0e a2bd 4243 0b3e 04cd 09be
000001c0: 1db5 8b3c aa51 28be 129c 1abe 0a1f 59bd
000001d0: a24d 0cbe c021 8fbd 6099 173e 8ed5 313e

bias f4 [6]
0.1452556 0.13884918 0.22300844 0.054901127 0.11275376 -0.11667622
00000000: e2bd 143e 7b2e 0e3e 535c 643e 01e0 603d
00000010: 71eb e63d f1f3 eebd

weight f4 [20]
1.0 1.0 1.0 1.0 1.0 1.0 1.0 1.0
1.0 1.0 1.0 1.0 1.0 1.0 1.0 1.0
1.0 1.0 1.0 1.0
00000000: 0000 803f 0000 803f 0000 803f 0000 803f
00000010: 0000 803f 0000 803f 0000 803f 0000 803f
00000020: 0000 803f 0000 803f 0000 803f 0000 803f
00000030: 0000 803f 0000 803f 0000 803f 0000 803f
00000040: 0000 803f 0000 803f 0000 803f 0000 803f

bias f4 [20]
0.0 0.0 0.0 0.0 0.0 0.0 0.0 0.0
0.0 0.0 0.0 0.0 0.0 0.0 0.0 0.0
0.0 0.0 0.0 0.0
00000000: 0000 0000 0000 0000 0000 0000 0000 0000
00000010: 0000 0000 0000 0000 0000 0000 0000 0000
00000020: 0000 0000 0000 0000 0000 0000 0000 0000
00000030: 0000 0000 0000 0000 0000 0000 0000 0000
00000040: 0000 0000 0000 0000 0000 0000 0000 0000

running_mean f4 [20]
0.0 0.0 0.0 0.0 0.0 0.0 0.0 0.0
0.0 0.0 0.0 0.0 0.0 0.0 0.0 0.0
0.0 0.0 0.0 0.0
00000000: 0000 0000 0000 0000 0000 0000 0000 0000
00000010: 0000 0000 0000 0000 0000 0000 0000 0000
00000020: 0000 0000 0000 0000 0000 0000 0000 0000
00000030: 0000 0000 0000 0000 0000 0000 0000 0000
00000040: 0000 0000 0000 0000 0000 0000 0000 0000

running_var f4 [20]
1.0 1.0 1.0 1.0 1.0 1.0 1.0 1.0
1.0 1.0 1.0 1.0 1.0 1.0 1.0 1.0
1.0 1.0 1.0 1.0
00000000: 0000 803f 0000 803f 0000 803f 0000 803f
00000010: 0000 803f 0000 803f 0000 803f 0000 803f
00000020: 0000 803f 0000 803f 0000 803f 0000 803f
00000030: 0000 803f 0000 803f 0000 803f 0000 803f
00000040: 0000 803f 0000 803f 0000 803f 0000 803f

weight f4 [6]
1.0 1.0 1.0 1.0 1.0 1.0
00000000: 0000 803f 0000 803f 0000 803f 0000 803f
00000010: 0000 803f 0000 803f

bias f4 [6]
0.0 0.0 0.0 0.0 0.0 0.0
00000000: 0000 0000 0000 0000 0000 0000 0000 0000
00000010: 0000 0000 0000 0000

running_mean f4 [6]
0.0 0.0 0.0 0.0 0.0 0.0
00000000: 0000 0000 0000 0000 0000 0000 0000 0000
00000010: 0000 0000 0000 0000

running_var f4 [6]
1.0 1.0 1.0 1.0 1.0 1.0
00000000: 0000 803f 0000 803f 0000 803f 0000 803f
00000010: 0000 803f 0000 803f
