cnnQLearning/DQN.pt (torch, 22809 bytes, 19 tensors)

weight f4 [32, 3, 3, 3]
00000000: 472c 53bd 05ab 543d 7926 6b3d 1821 293e
00000010: 63a3 36bd c920 433e abb2 3c3e ace1 74bd
00000020: 797a 10be 1eb6 bc3b a998 0e3e f88a b53d
00000030: 1735 63bc 0a65 a53c 6d8a 0d3e c2a4 063c
00000040: 17ad cfbd 4702 4c3d 9412 c0bd df0f 8b3d
00000050: a158 1b3c 59b6 9ebd 3ccd 5239 6671 313e
00000060: f599 50bd 6475 20bd 167d cdbd 6035 38be
00000070: 0f03 183e 1c0d 69bd fd57 99bd b177 1abe
00000080: 4e70 f3bd cbfd 3abd f2d4 b3bc 318c f2bd
00000090: 0850 39be 57db 423e ecf9 383e 15b2 0dbe
000000a0: 93c3 b7bd c342 433e ae9a cbbd 7fe7 573d
000000b0: 8de4 30be fadc 13be c0cf 023e 2fb6 2dbd
000000c0: 3f44 9c3d 5648 1ebe b642 05be c31a b1bd
000000d0: c771 293e 5b26 be3d af29 90bd e062 003d
000000e0: 4957 1fbe 77a4 e83c 96d0 f83d 8dcc d4bc
000000f0: 574a dabd d268 013d feaa f93d 9827 b13d
00000100: bd63 a73d dfc0 0fbd 477d 47bd c45e 14be
00000110: b884 c43c 8f83 f63d 1dd7 39be 67cd acbc
00000120: db38 ca3d b14f 743d 7140 723d b924 393e
00000130: 3f2a edbd 4bc2 3a3e c782 813d 1b39 71bd
00000140: 8c8b 24be e7e0 3d3e 17c4 1d3e 5612 29be
00000150: ed41 d03c 4e2e d0bd cf46 3d3e 5f5a 24be
00000160: bb10 cd3d b58d 36be c422 c43d b23b b4bd
00000170: e14d 6e3d 3aa0 18be 779d d9bc 5472 143e
00000180: f141 1cbc e08f 1abe 4a3e b9bd af6f ea3d
00000190: 9dd0 273e 05c1 b93d 1b40 b0bd 847c 2b3d
000001a0: 3eff 083d 8c75 3bbe b394 fb3d 0efd 233e
000001b0: be03 fbbd 61a1 093e 4bf1 22be dc84 51bc
000001c0: 706c 213e d232 7bbd da46 273e f0ba 26bd
000001d0: 3e10 e5bc a022 8fba 8a36 35be 3073 b0bd
000001e0: bdee 9abd c0d3 603d a2b3 80bb a9f5 343e
000001f0: 1960 2c3e 27f2 893d 78ed 433d 6921 bfbb
00000200: afa5 b2bd cb8d 1c3d 7d28 dabd aacd 833c
00000210: d7b0 793d 3c27 323d 7d25 9d3d 1e3d 10be
00000220: 0c88 05be 70c3 43be 5720 38bd 8c91 1c3e
00000230: 952c 1a3e 12cb 35be c735 0ebe fbc5 393d
00000240: fd6e 2b3e 16e3 953d e4f0 d6bd 774c e4bd
00000250: 2e8b 303e aa82 293c 7266 2dbe 1fd5 14be
00000260: 2966 373e 2bef 93bb 28cd 323e ea6d ae3b
00000270: f23e 1e3d 4ec0 3fbe 25d0 283e 067d 17be
00000280: edb1 56bc 01de 88bc 5a0e 23be eb8a c23d
00000290: 05ab 3e3e 96cb adbd 4b4a b7ba b6ee 0bbe
000002a0: b89a a8bc 7c99 193e f634 14be 4c4c cbbd
000002b0: dfb7 50bb 0e55 b0bd 4ecc 323e dbf1 863d
000002c0: 1db3 24be 26bc c5bd 1edc c6bc fba0 1cbe
000002d0: ca8f 4c3d fc10 293e c13a a3bd 26b2 e4bc
000002e0: ac0c 28be d3e2 3ebe b552 2ebe 3d7d 323e
000002f0: 0608 183e 4ecb 1a3e a753 403e 1ef5 313c
00000300: 9799 55bd 0ba3 093e 4061 283e 7d79 0bbe
00000310: 77aa 30be 431a fe3d 36cc 493d 91b8 bc3c
00000320: 9d73 dd3d 3f25 413e 1b88 363d 5e80 493d
00000330: 277d a9bd 1096 e43d 088f 2d3d e4d6 26bd
00000340: 295e 433e d162 a53d 41ee f7bd 78fb 7d3d
00000350: 8d73 c73c dbcb 3a3d 112e b6bc ac9b 393e
00000360: c065 17be 8f69 10be 4cd8 babd 7a85 04bd
00000370: 5262 8cbd 5eb8 b93b 3ee2 24be 8fe4 43be
00000380: 5b7a c03d ab1c 8a3d 3b4c 50bd 0ffb eabd
00000390: 7943 85bd f234 423e cb3c 1b3e 02ac 02bc
000003a0: dc50 5abc aa35 353e 58b0 303e efe0 c2bd
000003b0: b80b e7bd a389 553d 14f2 09be 77f9 873d
000003c0: 192d c63c 0e22 07be 7c32 25be cbe3 4abd
000003d0: 0836 ae3d 89c8 163e 2901 e7bd f9ef 003e
000003e0: 2df4 2cbd 700d 91bd 7002 183e 31b8 6b3d
000003f0: 008d c1bc 23b5 803d 2ddc cc3c 2775 74bd
-0.051555898 0.05192091 0.057409737 0.1651653 -0.04458941 0.19055475 0.18427531 -0.05978553
-0.1410922 0.0057590147 0.13925423 0.08864397 -0.013867638 0.02018978 0.13822336 0.008217992
-0.10140436 0.04980686 -0.093785435 0.067901365 0.00948158 -0.07749624 0.00020103616 0.17328414
-0.050928075 -0.039174452 -0.10033624 -0.17989111 0.14844917 -0.056897268 -0.074874856 -0.15084721
-0.11886655 -0.045652192 -0.021952126 -0.11843146 -0.18096936 0.19028984 0.18064088 -0.13837464
-0.0897285 0.19068436 -0.09941612 0.052711006 -0.17274685 -0.14439765 0.12774563 -0.042410072
0.076302044 -0.15457281 -0.1301373 -0.086476825 0.16547309 0.092846595 -0.070392005 0.031344295
-0.1556064 0.028398735 0.121491596 -0.025976444 -0.106587104 0.031594105 0.12190817 0.0865013
0.081733204 -0.035096046 -0.04870346 -0.14489275 0.023989066 0.120368116 -0.18148465 -0.021094037
0.098741256 0.059646312 0.059143487 0.18080415 -0.115803234 0.1823818 0.06323772 -0.05889235
-0.16068858 0.18542825 0.15406834 -0.16510901 0.02542206 -0.10165082 0.18484043 -0.16050099
0.10012957 -0.17827494 0.095769435 -0.088004485 0.05817974 -0.14904872 -0.026564343 0.14496738
-0.009537206 -0.15093946 -0.09045084 0.11447083 0.16388173 0.09070019 -0.08605977 0.041866794
0.033446543 -0.1830656 0.122842215 0.16014501 -0.12256573 0.13440467 -0.15912358 -0.012788024
0.15764022 -0.061327763 0.16335621 -0.04070562 -0.027961846 -0.0010920353 -0.17696586 -0.0861572
-0.07565067 0.05488944 -0.003927664 0.17671837 0.16833533 0.0673564 0.04783389 -0.00583284
-0.08723008 0.03822116 -0.10652254 0.01608928 0.060959663 0.043494448 0.07673166 -0.14085814
-0.13040179 -0.19117522 -0.044952717 0.15289897 0.15056069 -0.17753246 -0.13887702 0.045354825
0.16741557 0.07318704 -0.10495165 -0.11147397 0.17240593 0.010346094 -0.16933611 -0.14534424
0.17910065 -0.004514595 0.17461073 0.0053231614 0.038634248 -0.18725702 0.16485651 -0.14793786
-0.013103944 -0.016707422 -0.15923443 0.09499153 0.18619926 -0.084860966 -0.0013983933 -0.1366528
-0.020581588 0.14999956 -0.14473328 -0.09926662 -0.0031847877 -0.08609973 0.17460749 0.06589099
-0.16083951 -0.09655027 -0.024274882 -0.15295784 0.049941815 0.16510385 -0.07970191 -0.027916979
-0.16411084 -0.18641214 -0.17023738 0.17430587 0.1484681 0.15116617 0.18781911 0.010861663
-0.052148428 0.13441102 0.16443348 -0.13620563 -0.17252527 0.12407353 0.049267016 0.023037227
0.10813067 0.18861865 0.044563394 0.049194686 -0.08275824 0.11161435 0.042372733 -0.04073228
0.19078888 0.08075488 -0.1210599 0.062007397 0.024347091 0.045604568 -0.022238763 0.1812579
-0.14784908 -0.14102767 -0.091232866 -0.032353856 -0.068546906 0.0056677302 -0.1610193 -0.19130157
0.093983375 0.06743749 -0.05085395 -0.11473667 -0.0650701 0.1896551 0.1515991 -0.00797558
-0.013324942 0.17696252 0.1725477 -0.09515559 -0.11281532 0.052133214 -0.13471252 0.066393785
0.024191426 -0.13196585 -0.1613254 -0.049533647 0.085063994 0.14724936 -0.11279518 0.12591542
-0.04222505 -0.07082641 0.1484468 0.057548705 -0.023626804 0.06284549 0.025007332 -0.059682038

bias f4 [32]
00000000: 9795 893c be33 8f3d 79bb d4bd 187e 3dbe
00000010: dffe 98bd 8700 1ebe aeb9 023e 5a18 ab3d
00000020: e72c 62bd 63e6 433d 6780 d03d fc9a 91bd
00000030: 4628 b3bd b2d1 333e c1dc 833b ddd2 2a3d
00000040: 2449 cebd ea88 313e 9c03 80bc f886 ce3b
00000050: ef3a 433e e6d2 1bbd 1f4b a13d 7082 603d
00000060: ca31 06be 5de3 7a3d cff7 8c3d 267a 933d
00000070: 287d 2b3e bee7 83bd 7bd4 643d 2a5f 893d
0.016794963 0.06992291 -0.1038732 -0.18505132 -0.07470488 -0.15429889 0.12766144 0.08354254
-0.055218603 0.047827136 0.10180741 -0.07109639 -0.08747916 0.17560461 0.0040241187 0.041705
-0.10072544 0.17337385 -0.015626721 0.0063027106 0.1906545 -0.038042925 0.07875656 0.054811895
-0.1310493 0.061251987 0.06883203 0.07201032 0.16746962 -0.06440686 0.0558667 0.06707604

weight f4 [1, 32, 3, 3]
00000000: 631c f2bc 1d00 0a3d 37d7 f23c f626 05bc
00000010: a4ae 5fbd 731d 9cbc a8cb 083c 0850 13bc
00000020: 8897 9f3c 2826 3dbd e466 dabb 3958 923c
00000030: c342 3fbd 41e0 4dbd 9492 2d3d b7c8 4cbd
00000040: 3a58 5f39 f48c 67bd 2ff9 ccbc 91e0 30bd
00000050: 525f 30bd 9ed3 adba 08de 22bd 1a2f 173d
00000060: 1da3 26bd d098 a7bb 10da dd3c 66f0 433d
00000070: a5bf 5bbb dc39 2e3d 73d2 9d3b b52c e2bc
00000080: b955 093d 9eea 3a3d 6657 08bc 67d9 4bbd
00000090: dba2 44bd a805 583c 0670 113d e774 013d
000000a0: 5dc8 39bd c24c 443c 233c 13bd 5b4e 2abd
000000b0: da04 6abd 2833 8b3c 1524 3b3c 025b a73b
000000c0: 8062 173d 5bd1 5dbc 7285 babb 4aae d63c
000000d0: 886d 573d 46aa c0bc aa65 ac3a 6593 243d
000000e0: 23bc 533d fd85 15bd 9b94 e6bc d54f d23b
000000f0: 9827 50bc 2931 093d 0c99 85bb c361 9b3b
00000100: ec49 4f3d 6e5f 1f3d bf90 0a3d ef97 b1bb
00000110: 62ea a9bb 6b98 f13c 733c b33c 4fbe 613c
00000120: 7782 453b adf6 a63c 0177 dcbc 5af9 3a3d
00000130: 4618 efbc 4f0c 10bd 099f 12bc 54d9 893c
00000140: 52b5 36bd 4d59 11bd 4251 923c 07da b4bc
00000150: a829 2f3d fa46 6bbd b980 203d 4163 213d
00000160: 9e69 e23b 3f4c 273d 9443 ed3c 5107 3f3d
00000170: 5f78 c6bc 6bad 16bd 2a65 f5bc 6bb0 203d
00000180: 332e 603d 9668 23bd 94f5 743b 1e5e 1fbc
00000190: fc4a 7abc 1b04 073d 1bd3 38bd 9578 dd3c
000001a0: f60d 3b3d 53ae 1c3d 0364 00bb d04e fd3c
000001b0: 8d22 40bd 186a 383d 323c c63c 4474 573d
000001c0: f2a0 f73b 88d0 68bd eed2 453b ea76 273d
000001d0: 67d5 90bc 3643 74b9 253f 633d eedd 52bd
000001e0: 628a 103b f38d 043d bbf6 413d b446 3ebd
000001f0: 2934 1cbd 6769 423d 9b54 3b3c 9f22 3a3d
00000200: 298d 44bd 1904 933c 7ba0 b63c 08dd b43c
00000210: 4d49 1ebd 082b 6b3d 7659 a8bc f445 07bd
00000220: 4e53 c2bc cdea 5cbd 228c 6f3c 53a2 2a3d
00000230: 7702 9dbc 126c 113d d42c 86bc a0cf 1a3d
00000240: 058b 813b 9098 60bd 7d75 0a3c ea9c 2ebd
00000250: 4bb1 65bd 1fa4 f83c 6d0a eabc bc43 363d
00000260: 6862 163d 7d71 41bd d16f 7b3c 3ddd 633d
00000270: a7a8 fe3c e2b7 4a3d 077c bf3c a813 70bd
00000280: 812a 423d 0334 01bb 5beb 33bd 0c97 543d
00000290: 0cc8 183d 081e 42bd 4ecc 893c 8ed1 1ebd
000002a0: df84 f83c bcc2 07bd 0d89 34bd 531d f1bb
000002b0: 9672 6cbd d722 0d3d 1237 dc3c 8e51 20bc
000002c0: dee0 6d3d b7a1 983c fc97 25bd bb9a 0e3d
000002d0: f313 7cbb 3e3d 41bd e0a5 64bd b009 46bd
000002e0: 6367 5f3d 1e26 7a3a 8130 d1b8 38cb 143d
000002f0: 3401 40bd c707 1abd 915a 41bd 5daf f63b
00000300: 1df0 493d 4f3f b43c 650b cc3b 7f90 ed38
00000310: 5670 40bd cae8 a13c fe14 5cbd 4e03 c7bc
00000320: 6a35 70bd c333 dbbc 4d67 973c 5dc3 0e3c
00000330: ec19 c0bc 0415 da3b f51f 3d3c 6b27 11bd
00000340: 47f3 aabb 292b 593c 45a2 42bc a650 5e3d
00000350: f45d 723b 4277 9e3c 7579 0f3d 1be3 77bb
00000360: 1b40 85b9 f3fb 0b3d 98cb 153c 4bb0 683d
00000370: 3d57 5a3d 07b7 183a 4372 083d 55dc 14bd
00000380: 37f5 6abd e0f2 363d 3398 60bc 093c 5a3d
00000390: bd48 3ebd d684 123d 1a87 373d 1322 93bc
000003a0: bdc3 0cbd 5f4a 413d c16f 943c db67 023d
000003b0: a204 af3b c05a 263b 10b5 c13b ae4a 19bd
000003c0: df46 253c 0dcc 5bbd 8afb 393d 2177 423d
000003d0: 4cb3 10bd b763 793c 14eb 5d3d e42a 2bbd
000003e0: 453d 603d 2748 183d 4f37 1a3c f555 1f3d
000003f0: 0eeb 033c 3280 bf3c 8e73 59bd 0b79 3abd
-0.029554551 0.033691514 0.029643638 -0.008126965 -0.05460991 -0.019057011 0.008349337 -0.008991249
0.019481435 -0.046178967 -0.0066650975 0.017864333 -0.04669453 -0.050262693 0.042376116 -0.049996104
0.00021299804 -0.056530908 -0.025021164 -0.043182913 -0.043059655 -0.0013261919 -0.039762527 0.036910154
-0.0406829 -0.005114652 0.02708152 0.047836684 -0.0033530977 0.042535648 0.0048163473 -0.027609209
0.033529017 0.045633905 -0.008321619 -0.049767878 -0.048006874 0.013184942 0.035507225 0.031605627
-0.045357097 0.011981191 -0.035946023 -0.04157863 -0.057133533 0.016992167 0.011422177 0.0051072845
0.03695917 -0.013538684 -0.0056921775 0.026206154 0.05259469 -0.023518693 0.0013152857 0.04017963
0.051693093 -0.036504734 -0.028147032 0.006418208 -0.012704752 0.03349415 -0.0040770825 0.0047418787
0.050607607 0.03890937 0.033829447 -0.005419723 -0.0051854113 0.029491624 0.02187941 0.013778283
0.0030137578 0.020381296 -0.026912214 0.045647956 -0.02918638 -0.03516799 -0.00894905 0.016827263
-0.044606514 -0.035485554 0.017861012 -0.02207662 0.042764336 -0.057440735 0.03918526 0.039401297
0.006909563 0.0408442 0.028962888 0.046637837 -0.02422732 -0.036786478 -0.029955465 0.039230745
0.05473156 -0.039894663 0.0037377821 -0.009727029 -0.015276667 0.0329629 -0.0451232 0.027035037
0.04566761 0.038252186 -0.0019590862 0.03092137 -0.04690795 0.045023054 0.024198625 0.052601114
0.007557028 -0.056839496 0.0030185538 0.04088489 -0.017679883 -0.00023294691 0.05548014 -0.05148118
0.0022055139 0.032361936 0.04735444 -0.046454147 -0.03813568 0.0474638 0.011433746 0.045443173
-0.047986183 0.01794629 0.02229332 0.022078052 -0.038644124 0.057414085 -0.02055047 -0.033025697
-0.023721363 -0.05393486 0.014620813 0.04165871 -0.019166214 0.035503455 -0.016378798 0.037795663
0.00395334 -0.054832995 0.008450863 -0.042630114 -0.056077283 0.030351697 -0.028569425 0.04449819
0.03671494 -0.04722737 0.015346483 0.05563091 0.03108628 0.04949177 0.02337457 -0.058612496
0.047403816 -0.001971484 -0.043925624 0.051901862 0.037300155 -0.04739192 0.016821053 -0.038774066
0.030336795 -0.033144698 -0.044076014 -0.007358232 -0.057726465 0.034457054 0.026881728 -0.009785069
0.05807578 0.0186318 -0.040428147 0.03481553 -0.003846404 -0.047177546 -0.055822253 -0.048349082
0.054541957 0.0009542423 -9.974931e-05 0.036326617 -0.046876147 -0.037605073 -0.04720551 0.007528229
0.049301255 0.022002844 0.0062269443 0.00011327955 -0.046982132 0.019764323 -0.053730957 -0.024293568
-0.05864469 -0.02675808 0.018481875 0.00871357 -0.02344986 0.0066553373 0.011543264 -0.035437983
-0.005216989 0.013254919 -0.011879508 0.05427613 0.003698227 0.019343976 0.03502794 -0.0037824574
-0.000254155 0.034175824 0.009142779 0.05680875 0.053305853 0.0005825613 0.033312093 -0.036342937
-0.05736276 0.044665217 -0.013708162 0.05327991 -0.046456087 0.035771213 0.044806577 -0.017960584
-0.034366358 0.047190066 0.018119695 0.031837326 0.0053411284 0.002538368 0.005911477 -0.037424736
0.010087698 -0.053661395 0.045405902 0.04747689 -0.03532724 0.015221528 0.054179266 -0.04178895
0.05474593 0.037178185 0.009412601 0.038900334 0.008051647 0.023376558 -0.053088717 -0.04552559

weight f4 [32]
00000000: 4603 803f 4603 803f 4603 803f 4603 803f
00000010: 4603 803f 50f9 7f3f 4603 803f 4603 803f
00000020: 4603 803f 4603 803f 4603 803f 50f9 7f3f
00000030: 50f9 7f3f 50f9 7f3f 4603 803f 50f9 7f3f
00000040: 50f9 7f3f 50f9 7f3f 4603 803f 50f9 7f3f
00000050: 50f9 7f3f 50f9 7f3f 50f9 7f3f 50f9 7f3f
00000060: 4603 803f 50f9 7f3f 50f9 7f3f 50f9 7f3f
00000070: 50f9 7f3f 50f9 7f3f 4603 803f 50f9 7f3f
1.0000999 1.0000999 1.0000999 1.0000999 1.0000999 0.99989796 1.0000999 1.0000999
1.0000999 1.0000999 1.0000999 0.99989796 0.99989796 0.99989796 1.0000999 0.99989796
0.99989796 0.99989796 1.0000999 0.99989796 0.99989796 0.99989796 0.99989796 0.99989796
1.0000999 0.99989796 0.99989796 0.99989796 0.99989796 0.99989796 1.0000999 0.99989796

bias f4 [32]
00000000: 61d5 d338 62d5 d338 63d5 d338 63d5 d3b8
00000010: 63d5 d3b8 62d5 d3b8 63d5 d338 62d5 d3b8
00000020: 62d5 d338 62d5 d338 62d5 d3b8 62d5 d3b8
00000030: 64d5 d338 61d5 d3b8 63d5 d338 62d5 d3b8
00000040: 62d5 d338 62d5 d3b8 62d5 d3b8 62d5 d3b8
00000050: 63d5 d3b8 62d5 d3b8 62d5 d338 62d5 d3b8
00000060: 61d5 d338 61d5 d3b8 62d5 d3b8 62d5 d3b8
00000070: 62d5 d3b8 62d5 d3b8 63d5 d338 62d5 d3b8
0.00010101009 0.0001010101 0.000101010104 -0.000101010104 -0.000101010104 -0.0001010101 0.000101010104 -0.0001010101
0.0001010101 0.0001010101 -0.0001010101 -0.0001010101 0.00010101011 -0.00010101009 0.000101010104 -0.0001010101
0.0001010101 -0.0001010101 -0.0001010101 -0.0001010101 -0.000101010104 -0.0001010101 0.0001010101 -0.0001010101
0.00010101009 -0.00010101009 -0.0001010101 -0.0001010101 -0.0001010101 -0.0001010101 0.000101010104 -0.0001010101

running_mean f4 [32]
00000000: ac5b 8a42 b9a5 adc2 8bc9 4d41 9ef6 b641
00000010: 60de d541 32a9 2dc2 ce9a 88c2 914d 1643
00000020: 86c3 90c2 f97b be42 9648 1bc2 990f 75c2
00000030: c7c2 8940 bbb3 8a40 9323 9342 7c96 eebe
00000040: 7791 d642 c25f 5ac1 5b38 0042 0b07 c9c1
00000050: 3179 7ec2 c7b0 89c2 5b05 27c2 0dfc 8dc2
00000060: b6bb 1341 0ace d3c0 f83d 4441 08e5 5641
00000070: d275 98c2 8c7a c4c0 4921 09c1 05de de40
69.17905 -86.82368 12.861705 22.870419 26.733582 -43.41523 -68.30235 150.303
-72.38188 95.242134 -38.820885 -61.265232 4.3050265 4.3344398 73.56948 -0.46599185
107.28411 -13.648378 32.055035 -25.128439 -63.61835 -68.84527 -41.75523 -70.99229
9.233328 -6.6189013 12.265129 13.430916 -76.23012 -6.1399593 -8.570626 6.964602

running_var f4 [32]
00000000: 70ab ba42 279a 2543 71ee f042 2429 a243
00000010: 43f1 5542 1326 e942 c33c a542 21bf 6643
00000020: da5f de43 445d ce42 b0df 7443 cf88 f642
00000030: 4bc8 6442 614b ee42 7c0d 2743 b266 2e43
00000040: 531c 9043 08d6 8b42 92bb 4d42 07ac 2343
00000050: f6f8 8f42 09f5 1243 3ba6 c942 7a0e d143
00000060: ea5a d342 da5d 7542 7027 bb42 e17b b143
00000070: df0c 3143 f4eb 7b43 8696 9742 c37a 3d43
93.33484 165.60216 120.465706 324.3214 53.485607 116.57436 82.618675 230.7466
444.74884 103.18216 244.87378 123.267204 57.1956 119.147224 167.05267 174.40115
288.22128 69.91803 51.433174 163.67198 71.98625 146.95717 100.82467 418.1131
105.67757 61.341652 93.57703 354.9678 177.05028 251.92169 75.79399 189.47954

weight f4 [20, 84]
00000000: 198a cbbd 9ba6 67bd 9c60 7fbd 4284 3a3d
00000010: 6701 903d 7105 e7ba fd55 203c 26bb 94bd
00000020: e4fd 43bd 6161 793d 865f d3bd 9ad2 b0bd
00000030: dfea fbbb 172d 823b 7376 8d3c 7a37 57bd
00000040: 111f 63bb 0280 4ebd 94bf 153d cbee a3bd
00000050: b356 673d 57fe 963d f4fe dbbd 00d1 69bc
00000060: b596 e73c 1b79 81bd aff5 fd3b b34b 953d
00000070: 890d a63c 5d25 d73d ad1d 2abd a039 b4bd
00000080: 3f8d 48bd 1ce4 c53d 547c c53d 09ae bfbd
00000090: 0d6e a9bd 2510 833d 60aa 77bc 581f 18bd
000000a0: c41c b6bb 0b44 b3bd b12f 8bbd db38 7abd
000000b0: f1d6 b53d 79cc 20bd a652 9bbd 3586 dfbc
000000c0: dd7e b73d a0be 9bbd c2d4 563c b71b 05bd
000000d0: bc1e bd3d 6d8b d33d 8cff f33c 2734 d73d
000000e0: d589 993d 3fc7 ca3c d869 78bd 2d4d 973d
000000f0: 9e10 cdbc 0f2d 243d e310 04bd 5236 743d
00000100: ae2e a4bd 785e c7bd 21a2 68bc a850 183d
00000110: 8290 94bd b266 cbba 535c bdbc 96cc 17bb
00000120: 0281 d13d 6f4d 90bd 7739 c33c ff38 2c3d
00000130: fbf6 bfbc 2159 c7bd 1a5a 99bc 55fd 2b3b
00000140: 47e6 cf3d 9ca2 8b3d 4179 0d3d 20f4 c83d
00000150: 2ea5 a53d c447 583d 974d 8ebd 545f eb3c
00000160: 89ff cd3d 55d3 3c3d 9cee 49bd 8d25 083d
00000170: 01f8 bcbd 62e0 61bd 9884 be3d 6f4a 87bd
00000180: 15cf e73c 0b15 973d 99f3 ae3d 01bb e13b
00000190: 7dc5 c53d 7a13 10bd 7ddb 983d 5ef0 18bd
000001a0: 53c7 d0bd 657e aabc e3e8 8bbd a15c 673c
000001b0: 8e81 2e3d b6aa 16bd 04b5 b0bc 6578 e63c
000001c0: 32c7 ce3a 9fd7 05bc 40b3 9cbd 9749 c3bc
000001d0: 3fb6 fcbb 3988 3cbd 2271 983c 4063 b03c
000001e0: 64e4 be3d ce6a 0fbc bb64 b4bd dc75 ef3c
000001f0: e984 403d 25e0 68bd 122a d63b 8bd5 7cbd
00000200: 4627 d33d 0908 b2bd ec36 14bd 903f 703c
00000210: 6666 a7bd 303f 1abd 6c11 d4bd 6bd8 8bbc
00000220: ce0c 8c3d bf0f 7bbd 792f a23c 2f15 c83c
00000230: 5b48 bb3d 9107 e73b 8c90 ea3c 7caa b2bd
00000240: 1752 233d a3e4 203d bbe9 a7bd d2ed c63d
00000250: 1f32 4abd d45e 553d ab24 bfbd 6e2f bebd
00000260: f951 d2bd 7426 503d 2344 6dbd 5c2e f43c
00000270: 4914 c2bd c42a 36bc de10 d4bd 0339 cd3d
00000280: 45ae 913d cabd cebd c227 2fbd de74 afbd
00000290: b74f 9fbd 8ee7 cd3c 2e7f 2f3d 7b72 4abd
000002a0: 16e9 dabd 56e3 703d 0dd9 683c c1c7 c93d
000002b0: 667e f83c e7f9 ae3d de68 debd 0b8a a2bc
000002c0: ea41 c63c 8eb9 673c bf26 9ebd b646 083d
000002d0: abf3 953d 7d18 83bd 5504 b1bd f9a5 8fbd
000002e0: 259e a5bd c546 903d 955d debd 79d1 b43d
000002f0: 55f3 ac3d a00d 853d aa96 8d3d f8c0 cebd
00000300: f0b2 833d fd1a cd3d 168d 91bb c791 21bc
00000310: 5e5e 8d3d 3419 503d ed91 cbbc 8649 6c3d
00000320: eff2 bfbc 451f 98bd 7888 de3d f815 b3bd
00000330: b3f0 223c c82f e23c 35a2 df3c cc96 ac3d
00000340: b21a 5bbd e56f bfbd dd9d d4bd 5054 c73d
00000350: 336c 9c3d 74af 95bd 58b3 9a3d 2724 d7bc
00000360: 9cbb a93c f584 acba e684 a03d ed5f 1f3c
00000370: f3ec b0bd be74 433d 0d78 993d 3e5f d83d
00000380: 1a30 363d d286 8b3d 6d4a 80bd acb6 38bc
00000390: abfb b2bd c5c0 8b3d 3c76 f6bc 2500 aa3b
000003a0: 4468 b3bb 6036 f4bc 79a6 8dbd dcfb c7bd
000003b0: c31c 8cbd afdb 0cbd bd44 513d 0ed1 353d
000003c0: 8770 d0bb 77bd 08ba c3e7 b93d 51c0 62bb
000003d0: 7a50 92bd 2843 88bc b7ad 393d 24f4 d03d
000003e0: d83a d4bd c6ff 10bd 3a1a 2dbd 7102 a4bd
000003f0: f1b7 923d 68ab eabc 6e4c a7bd dc4b d0bd
-0.099384494 -0.05655537 -0.062347993 0.045536287 0.070315175 -0.0017625523 0.009786126 -0.07262258
-0.04784955 0.060883883 -0.10320954 -0.08633919 -0.007687911 0.0039726603 0.017268395 -0.05254314
-0.0034655968 -0.050415047 0.036559656 -0.080045305 0.056479167 0.0737273 -0.10741988 -0.014271021
0.028270105 -0.06321927 0.007750235 0.07289829 0.020270126 0.10505173 -0.041532207 -0.088000536
-0.048962828 0.09662649 0.09642854 -0.093593664 -0.08272944 0.06399564 -0.015116304 -0.037139267
-0.0055576283 -0.087532125 -0.06796206 -0.061089378 0.088788874 -0.0392575 -0.07584123 -0.027285675
0.08959744 -0.07604718 0.013112249 -0.032497134 0.09234378 0.10329328 0.02978494 0.10507994
0.074969925 0.024753211 -0.060647815 0.07387767 -0.025032338 0.040082034 -0.032242667 0.059622116
-0.08016716 -0.09734815 -0.014198811 0.037186295 -0.07254125 -0.0015518276 -0.023115313 -0.0023162714
0.102296844 -0.07046019 0.023831112 0.042046543 -0.0234332 -0.09733797 -0.018719722 0.0026243527
0.10151344 0.06818125 0.034539465 0.09812188 0.08088146 0.052802816 -0.06948393 0.02873198
0.10058505 0.04609998 -0.04929982 0.033238936 -0.092269905 -0.05514563 0.09302634 -0.06605994
0.028296987 0.073770605 0.08542556 0.0068887477 0.096568085 -0.035174824 0.07463739 -0.037338607
-0.10194268 -0.020812223 -0.06831529 0.014121206 0.04260402 -0.036783896 -0.02157069 0.02813358
0.0015775918 -0.008169084 -0.07651377 -0.023838801 -0.007712155 -0.04602835 0.018608633 0.021531701
0.09320906 -0.008753492 -0.08808275 0.029231004 0.047001753 -0.056854386 0.006535777 -0.061727088
0.10310225 -0.08692939 -0.03618519 0.014663592 -0.08173828 -0.037657917 -0.103548855 -0.01707097
0.0683838 -0.061294314 0.019798027 0.024424164 0.0914466 0.0070504625 0.028633378 -0.087239236
0.03987321 0.039280545 -0.081988774 0.097133294 -0.049364205 0.05209239 -0.09333166 -0.0928639
-0.10269541 0.05081792 -0.05792631 0.029807262 -0.09476525 -0.011118595 -0.1035478 0.1002064
0.071133174 -0.10094793 -0.042762525 -0.085672125 -0.07778876 0.025134828 0.042845897 -0.049425583
-0.10688989 0.058810554 0.014211905 0.09852553 0.030333709 0.08543759 -0.108598456 -0.019841215
0.024201352 0.014143361 -0.07722234 0.03327056 0.073218666 -0.06401155 -0.086434044 -0.07014079
-0.08086804 0.07044748 -0.10857693 0.08829016 0.084448494 0.064967394 0.069135025 -0.100953996
0.06430614 0.10014913 -0.0044418676 -0.009861416 0.06902765 0.050805286 -0.024849856 0.057687305
-0.02343127 -0.07427839 0.10865873 -0.087444246 0.0099450825 0.027610675 0.027299026 0.084272
-0.053492256 -0.09347514 -0.103816725 0.09732878 0.07637825 -0.07308856 0.07553738 -0.026262356
0.020719342 -0.0013162183 0.07837848 0.00972746 -0.086389445 0.047718756 0.07493601 0.10565041
0.044479467 0.06812824 -0.062641956 -0.011274021 -0.08739408 0.06823877 -0.030085675 0.0051880055
-0.005475076 -0.029811084 -0.06916518 -0.09764835 -0.06841423 -0.034389194 0.051090945 0.044388823
-0.0063610706 -0.0005216221 0.09077408 -0.0034599493 -0.07144256 -0.016633585 0.045331683 0.10202816
-0.10362786 -0.035400175 -0.04226134 -0.08008278 0.0716399 -0.028646186 -0.08168875 -0.10170719

bias f4 [20]
00000000: 9357 bfbd 2207 55bd 05fc 4fbd 4f69 c1bd
00000010: 627d 9cbd d812 bf3d 1460 b43b c3da 6ebd
00000020: c995 3cbd 0984 0d3d c2bf d83d 5b2a 3bbd
00000030: ab65 cc3d 8df0 bf3d 9d55 cc3d 0f56 5fbd
00000040: 5da0 85bd 00e4 a5bd 1cb2 24bd 8359 773d
-0.09342875 -0.052008756 -0.050777454 -0.09443914 -0.076411024 0.09329766 0.0055046175 -0.058314096
-0.046041284 0.034549747 0.1058345 -0.04569469 0.09980329 0.09372053 0.09977267 -0.05452543
-0.065247275 -0.08100128 -0.04020892 0.0603881

weight f4 [6, 20]
00000000: f7f7 783d b518 073e 3710 883c e7fe 20be
00000010: 5e4d 09be f0b6 cdbd b192 603e d17c fcbd
00000020: 1579 a4bb 792c 643d 33fa 9ebd 6d29 493e
00000030: 0af9 963d 57a5 9fbd 263c 57be 0e4b 1c3d
00000040: f450 0abe 8fcd bc3d 4e70 16be d0d1 f73c
00000050: 0f81 fc3b 76da 9d3d 86f2 933c 80c7 37be
00000060: 2f52 8e3d e5ce ac3c ef2d 2a3e a7e1 7e3d
00000070: 5a77 0fbe 2ac2 2abe 205a 2d3e 33fa 613e
00000080: 5a34 32be 6fe7 793c 1fe6 fbbd e263 51be
00000090: 63bf 3cbd 55b4 07be 3e31 373e 771c 8dbd
000000a0: 3fe5 be3d f020 cdbd 090f 2ebe a142 37be
000000b0: bd29 00be 1edc 0f3d 1064 28be 34b3 34bd
000000c0: 3499 4e3e 094b 25be bd11 4b3e 2f0d 1f3e
000000d0: 614a 643e 68de 323e 0364 bd3d e77b 8abd
000000e0: b8c9 1a3e ddff 9fbc 8999 003e c1e1 073e
000000f0: c938 49be 7b49 5c3e e747 f7bd af74 41be
00000100: 8f07 8bbd efe2 853d 9496 31bc 75e3 623e
00000110: 92d4 adbd ca40 5ebe bf45 093d b4c6 113e
00000120: 56cd 973d 3c52 33be eaad 4e3e 445d f73d
00000130: 4aa0 32be 5ca9 98bd 5402 2abe b079 593e
00000140: d6f5 1c3d d164 12be e4dd 583e b4e5 15be
00000150: 9549 3cbe e420 373c a071 1dbe 3f7f 2b3e
00000160: fa7e 1abe c0ce 4abe 958d 5bbd 7643 9c3b
00000170: bfed 273e 10f0 b33d a651 d7bd f70a 0bbe
00000180: 8724 0ebe 5cce 133e 5e1c 42be 13ab 8a3d
00000190: ae7d 963c c943 24bd c15e ddbd eb10 a5bd
000001a0: fd89 af3d 2787 be3d 8388 e7bd a996 40bc
000001b0: ff8e 9bbd e89b 3a3e 32e2 b8bd 1c0c 3b3e
000001c0: 37bb 7dbd 24e7 e1bd d2fd 353e 611b febd
000001d0: 1efb 633e 40f4 623e 9609 3cbe 4940 82bd
0.060783353 0.13193019 0.016609294 -0.15722238 -0.1340842 -0.10044658 0.21930958 -0.12328494
-0.005019317 0.055706475 -0.077625655 0.19644709 0.07371719 -0.07795208 -0.21019039 0.038157515
-0.13507444 0.09218895 -0.14691278 0.030251414 0.0077058147 0.07707684 0.01805998 -0.17947197
0.06949269 0.021094749 0.16619085 0.062226918 -0.14010373 -0.1667563 0.16928911 0.220681
-0.17402783 0.015252932 -0.122997515 -0.20448259 -0.046080958 -0.13252385 0.17889878 -0.06890195
0.09321069 -0.10016048 -0.16997923 -0.1789651 -0.12515922 0.03512203 -0.16444421 -0.044116214
0.2017563 -0.16141905 0.19830985 0.15532373 0.22293998 0.17467654 0.09247591 -0.06761914
0.15116012 -0.019531185 0.12558569 0.13269712 -0.19650568 0.21512406 -0.12074261 -0.18892168
-0.06788551 0.06537425 -0.010839123 0.2215708 -0.0848781 -0.21704403 0.03351378 0.14235955
0.074122116 -0.17511839 0.2018353 0.12078336 -0.17443958 -0.07454178 -0.1660245 0.21237826
0.038320385 -0.14296271 0.21178395 -0.14638406 -0.18387444 0.011177275 -0.15375376 0.1674776
-0.150875 -0.19805431 -0.05360182 0.004768784 0.16399287 0.08786023 -0.1051362 -0.13578402
-0.13881122 0.14434189 -0.18956134 0.06770911 0.018370476 -0.040103707 -0.108090885 -0.080598675
0.08571241 0.09303122 -0.113053344 -0.01175467 -0.07595634 0.18223536 -0.09027518 0.18266338
-0.06194612 -0.11030415 0.17772606 -0.12407566 0.22263762 0.22163486 -0.18363032 -0.06359918

bias f4 [6]
00000000: 095b 40be 5000 593e c32e 8a3d ca63 99bd
00000010: e178 5e3d 70cb 60be
-0.18784727 0.21191525 0.067472 -0.074897364 0.054314498 -0.21952605

weight f4 [20]
00000000: 0000 803f 0000 803f 0000 803f 0000 803f
00000010: 0000 803f 0000 803f 0000 803f 0000 803f
00000020: 0000 803f 0000 803f 0000 803f 0000 803f
00000030: 0000 803f 0000 803f 0000 803f 0000 803f
00000040: 0000 803f 0000 803f 0000 803f 0000 803f
1.0 1.0 1.0 1.0 1.0 1.0 1.0 1.0
1.0 1.0 1.0 1.0 1.0 1.0 1.0 1.0
1.0 1.0 1.0 1.0

bias f4 [20]
00000000: 0000 0000 0000 0000 0000 0000 0000 0000
00000010: 0000 0000 0000 0000 0000 0000 0000 0000
00000020: 0000 0000 0000 0000 0000 0000 0000 0000
00000030: 0000 0000 0000 0000 0000 0000 0000 0000
00000040: 0000 0000 0000 0000 0000 0000 0000 0000
0.0 0.0 0.0 0.0 0.0 0.0 0.0 0.0
0.0 0.0 0.0 0.0 0.0 0.0 0.0 0.0
0.0 0.0 0.0 0.0

running_mean f4 [20]
00000000: 0000 0000 0000 0000 0000 0000 0000 0000
00000010: 0000 0000 0000 0000 0000 0000 0000 0000
00000020: 0000 0000 0000 0000 0000 0000 0000 0000
00000030: 0000 0000 0000 0000 0000 0000 0000 0000
00000040: 0000 0000 0000 0000 0000 0000 0000 0000
0.0 0.0 0.0 0.0 0.0 0.0 0.0 0.0
0.0 0.0 0.0 0.0 0.0 0.0 0.0 0.0
0.0 0.0 0.0 0.0

running_var f4 [20]
00000000: 0000 803f 0000 803f 0000 803f 0000 803f
00000010: 0000 803f 0000 803f 0000 803f 0000 803f
00000020: 0000 803f 0000 803f 0000 803f 0000 803f
00000030: 0000 803f 0000 803f 0000 803f 0000 803f
00000040: 0000 803f 0000 803f 0000 803f 0000 803f
1.0 1.0 1.0 1.0 1.0 1.0 1.0 1.0
1.0 1.0 1.0 1.0 1.0 1.0 1.0 1.0
1.0 1.0 1.0 1.0

weight f4 [6]
00000000: 0000 803f 0000 803f 0000 803f 0000 803f
00000010: 0000 803f 0000 803f
1.0 1.0 1.0 1.0 1.0 1.0

bias f4 [6]
00000000: 0000 0000 0000 0000 0000 0000 0000 0000
00000010: 0000 0000 0000 0000
0.0 0.0 0.0 0.0 0.0 0.0

running_mean f4 [6]
00000000: 0000 0000 0000 0000 0000 0000 0000 0000
00000010: 0000 0000 0000 0000
0.0 0.0 0.0 0.0 0.0 0.0

running_var f4 [6]
00000000: 0000 803f 0000 803f 0000 803f 0000 803f
00000010: 0000 803f 0000 803f
1.0 1.0 1.0 1.0 1.0 1.0
