cnnQLearning/DQN.pt (torch, 22809 bytes, 19 tensors)

weight f4 [32, 3, 3, 3]
0	0xbd7f40f0	-0.06231779
1	0xbd88e937	-0.06685107
2	0x3dab2ccd	0.083581544
3	0xbe3dbd11	-0.18529154
4	0x3e12cf51	0.14336897
5	0x3e23914f	0.159734
6	0xbe280028	-0.1640631
7	0x3d54c151	0.051942173
8	0x3e33e29c	0.17566913
9	0x3e3aad0a	0.18230072
10	0xbe28f437	-0.1649941
11	0xbc3ef94e	-0.011656119
12	0x3d8bebc8	0.06832081
13	0xbd9c0424	-0.07617977
14	0xbdac7d48	-0.08422333
15	0xbc7ff794	-0.015622992
16	0xbdeb7ac7	-0.11498027
17	0xbd117191	-0.035508696
18	0xbddceaa1	-0.107869394
19	0x3d004aeb	0.031321447
20	0xbccf8a5d	-0.025334531
21	0xbdc14e32	-0.09438743
22	0x3b30c0e0	0.0026970431
23	0xbd7a5c70	-0.06112331
24	0xbe00858a	-0.12550941
25	0x3e1f1fe5	0.1553951
26	0xbe04c62c	-0.12966222
27	0x3cc97419	0.024591492
28	0x3d9d159e	0.07670139
29	0xbc5fbec7	-0.013656325
30	0xbd0ebaeb	-0.034846228
31	0x3d944dd6	0.072414085
32	0xbdf2b2b5	-0.11850492
33	0xbde9972d	-0.114057876
34	0xbe07a68c	-0.13247126
35	0x3dcb1462	0.09915997
36	0xbdc3ff49	-0.09570176
37	0xbe15c75e	-0.14626834
38	0x3dd21972	0.102587596
39	0xbd0c24a2	-0.034214623
40	0xbe373f1e	-0.17895171
41	0x3b9e57eb	0.004832258
42	0x3c857884	0.016292818
43	0xbe3a481d	-0.18191572
44	0xbe17036a	-0.14747396
45	0x3da5ecca	0.081018046
46	0x3c7451d5	0.014912088
47	0xbdb8494a	-0.08998354
48	0x3defa019	0.11700458
49	0xbcb87be1	-0.022520008
50	0xbd0b302a	-0.03398148
51	0x3d5f297d	0.054482926
52	0x3c80df02	0.015731338
53	0xbc3a36af	-0.011365577
54	0xbcb5e1de	-0.022202428
55	0xbe3c5fc2	-0.18395904
56	0xbd40c838	-0.047065943
57	0x3d6e3ad9	0.05816159
58	0x3da725fd	0.081615426
59	0xbda7bad8	-0.081899345
60	0x3d7f5608	0.062337905
61	0xbdd15b4d	-0.10222492
62	0xbd2d3700	-0.04228878
63	0xbdc0ee24	-0.09420422
64	0x3d9bc74a	0.07606371
65	0xbd92dcac	-0.07170996
66	0x3d0d0c0f	0.034435328
67	0x3e308f8c	0.17242259
68	0x3e25b773	0.16183262
69	0xbc7617a5	-0.015020286
70	0x3de76148	0.11297852
71	0x3df5490b	0.119768225
72	0x3dcfc36e	0.10144697
73	0xbe432788	-0.19058049
74	0xbcd956b5	-0.026530603
75	0xbe27cb32	-0.16386107
76	0x3caead29	0.021322804
77	0x3dc0f80a	0.0942231
78	0x3c9fd1e8	0.01950927
79	0x3e140273	0.1445406
80	0xbdae2cdb	-0.08504649
81	0x3e0c7aa8	0.13718665
82	0x3d4fe84d	0.05075865
83	0xbe376f5e	-0.17913577
84	0x3c828cbc	0.015936248
85	0x3e40a035	0.18811114
86	0xbdcfea9d	-0.10152171
87	0x3e112c90	0.14177155
88	0x3debde60	0.11517024
89	0x3d1c1e1d	0.038114656
90	0xbe299327	-0.1656004
91	0x3df335cc	0.11875495
92	0xbe1151b8	-0.1419133
93	0x3dc08293	0.09399905
94	0x3db3ef60	0.087858915
95	0xbba2c7ea	-0.0049676793
96	0xbc0fb781	-0.008771778
97	0x3daadb56	0.08342616
98	0xbe11d65f	-0.14241932
99	0x3d9c9b8e	0.07646857
100	0x3e35e934	0.17764741
101	0x3d9c372e	0.07627712
102	0xbce55073	-0.027992463
103	0x3d849b93	0.06474986
104	0x3def2d4c	0.116785616
105	0xbdcdd72a	-0.10050805
106	0xbd4720f2	-0.048615403
107	0xbd84d1be	-0.06485318
108	0xbe0c149c	-0.13679737
109	0x3b47c3c7	0.0030481683
110	0x3df9b68f	0.121930234
111	0x3e089b59	0.1334051
112	0xbdd2b0f9	-0.10287661
113	0x3db607b4	0.08888188
114	0x3dba89bc	0.09108302
115	0x3e414dab	0.18877284
116	0xbd0bcc06	-0.03413012
117	0xbd2abbfd	-0.041683186
118	0x3b8dbbac	0.0043253507
119	0xbccbe205	-0.024888048
120	0x3e106734	0.14101869
121	0x3e2f3f69	0.17114033
122	0x3dcc4841	0.09974719
123	0xbd840ce3	-0.064477704
124	0x3c266fea	0.010158518
125	0x3d76b511	0.060231272
126	0x3dad9e6d	0.08477483
127	0xbdc52015	-0.0962526
128	0x3daaf962	0.08348347
129	0x3e313e34	0.17308885
130	0xbdc7b9a8	-0.09752208
131	0x3dbb7077	0.0915231
132	0x3dda04d7	0.106454544
133	0x3dc1bcf2	0.094598666
134	0xbdb7e5d1	-0.08979381
135	0xbc97301c	-0.018455558
136	0x3d5b7c3e	0.053585283
137	0x3d3163a1	0.043307904
138	0x3dff4978	0.12465185
139	0x3df09ae8	0.11748296
140	0xbd4d39d5	-0.05010398
141	0xbd9c91bb	-0.076449834
142	0x3dfb2f87	0.122649245
143	0xbcfcee54	-0.030875362
144	0x3ddbf109	0.10739333
145	0x3e339526	0.17537364
146	0xbdfb6575	-0.12275211
147	0xbd89878e	-0.06715308
148	0x3c95cfc0	0.01828754
149	0x3d4cd5be	0.050008528
150	0x3d4c259f	0.049840566
151	0xbe0bb60e	-0.13643667
152	0x3e29d07e	0.1658344
153	0x3d306c79	0.043072198
154	0xbe3a6d2b	-0.18205707
155	0x3e25a3a1	0.161757
156	0xbd6abf4d	-0.057311345
157	0xbcaa224a	-0.020768303
158	0xbe41e941	-0.18936636
159	0x3e2a7d3f	0.1664934
160	0xbd11b555	-0.035573322
161	0x3dce3072	0.10067834
162	0x3deda3f7	0.116035394
163	0x3dee96a7	0.116498284
164	0x3c11ecc0	0.008906543
165	0x3d5a0bc9	0.053233895
166	0xbd821d6b	-0.06353267
167	0xbd357455	-0.044300396
168	0x3e214480	0.15748787
169	0x3da9a611	0.08283628
170	0xbd4c2825	-0.049842972
171	0xbc648166	-0.013946867
172	0xbda6f4d7	-0.08152168
173	0xbddd295a	-0.10798903
174	0x3e330b34	0.17484742
175	0x3e2e7050	0.17035031
176	0x3c8f1f45	0.017470965
177	0x3e314fff	0.17315672
178	0xbe1f52d4	-0.1555894
179	0xbd951c6c	-0.07280812
180	0xbdbaa45f	-0.091133825
181	0x3cf498cd	0.029858017
182	0x3d5a6f45	0.05332877
183	0xbc998620	-0.018740714
184	0x3a6365a0	0.0008674506
185	0xbe167c7f	-0.14695929
186	0x3d9d339b	0.076758586
187	0x3cd33dc7	0.025786294
188	0xbe0a9f94	-0.13537437
189	0x3d4012a8	0.046892792
190	0x3e29b81b	0.16574137
191	0x3e159dac	0.14610928
192	0xbe010096	-0.1259788
193	0xbde92d06	-0.11385541
194	0x3e0f0db1	0.13970067
195	0x3decba14	0.11558929
196	0xbe06e3cb	-0.13172834
197	0x3ddbbcd1	0.10729373
198	0xbe297390	-0.1654799
199	0x3c0b183c	0.008489665
200	0x3c6448b6	0.013933351
201	0xbdad36ae	-0.08457695
202	0x3e1ea650	0.1549313
203	0x3e0b272a	0.13589159
204	0xbe12e1ea	-0.14343992
205	0xbe2678b4	-0.16256982
206	0x3caa8b9b	0.020818522
207	0xbd4408d8	-0.047859997
208	0x3d95aba9	0.07308132
209	0x3e3ccaa1	0.18436672
210	0xbe33f517	-0.17573963
211	0x3d85dbbe	0.06536053
212	0xbd846ad3	-0.064656876
213	0xbe2215fd	-0.158287
214	0x3d05f78f	0.032706793
215	0x3d8729fe	0.06599806
216	0xbdfea0b1	-0.12432993
217	0x3dc78f17	0.09744089
218	0xbe3c1c28	-0.18370116
219	0xbc8e7d84	-0.017393835
220	0xbdb39755	-0.08769099
221	0xbc68e00c	-0.014213573
222	0x3d4948ec	0.04914181
223	0xbd8a3fb5	-0.067504324
224	0x3cc5ef56	0.024161976
225	0x3de03e1d	0.10949347
226	0x3a99714d	0.001170674
227	0x3db8f23f	0.0903058
228	0xbd56364f	-0.052297886
229	0xbdd6588c	-0.10466108
230	0xbe3673d1	-0.17817618
231	0x3da9ad88	0.082850516
232	0x3da70ffd	0.081573464
233	0xbcc267ee	-0.023731198
234	0xbbeeec3a	-0.007291344
235	0xbe149791	-0.14510943
236	0xbd3b79c7	-0.045770433
237	0x3ccd7975	0.02508233
238	0xbe2fafc0	-0.17156887
239	0xbbddbfa6	-0.006767231
240	0x3e419a0b	0.18906419
241	0x3df7769d	0.120831706
242	0x3c13e67b	0.009027119
243	0xbe34d769	-0.17660297
244	0xbcc0db4e	-0.023542073
245	0xbd6a5397	-0.057208624
246	0xbda513c2	-0.08060409
247	0xbe1d648a	-0.15370384
248	0x3db1d42c	0.08683047
249	0xbcfef159	-0.031120943
250	0xbe1f9d69	-0.15587391
251	0x3dc8d01f	0.09805321
252	0x3c078d82	0.008273484
253	0x3e09bf8b	0.13451974
254	0x3e412d48	0.1886493
255	0x3bb41dc9	0.0054967147

bias f4 [32]
0	0xbc246caa	-0.010035673
1	0xbd29b586	-0.04143288
2	0xbe067a16	-0.1313251
3	0xbca2c238	-0.019868001
4	0x3e435f03	0.19079213
5	0xbdf4711b	-0.11935636
6	0x3e13197d	0.14365192
7	0xbc01f9ec	-0.007933121
8	0x3d465768	0.0484232
9	0x3e09250b	0.13393037
10	0xbd14e19b	-0.036347967
11	0xbdff19d4	-0.12456098
12	0x3e09fb50	0.13474774
13	0x3e28b666	0.1647583
14	0x3e413e4d	0.18871422
15	0xbdc78e36	-0.097439215
16	0x3daf7891	0.08567918
17	0x3e3436c0	0.1759901
18	0x3db6743a	0.08908887
19	0xbb400785	-0.0029301357
20	0x3cc48a69	0.02399178
21	0xbda4e700	-0.08051872
22	0x3e19c1f0	0.15015388
23	0xbdc7e49a	-0.09760399
24	0x3be73ff3	0.007057184
25	0xbda3c04e	-0.079956636
26	0xbe13733d	-0.14399429
27	0xbdb0eec7	-0.08639293
28	0xbd0bd858	-0.03414187
29	0xbbfa10d4	-0.0076314006
30	0x3e3aeb36	0.18253788
31	0xbe142139	-0.14465798

weight f4 [1, 32, 3, 3]
0	0x3d639ae3	0.055567633
1	0xbc877c40	-0.01653874
2	0xbcb5c7f3	-0.02219007
3	0x3d68162f	0.05666178
4	0xbc3ff70c	-0.011716615
5	0x3d4a729b	0.049425703
6	0x3c55cae1	0.013048858
7	0xbc98b7b5	-0.018642286
8	0x3d65714f	0.056016263
9	0x3d4f98b4	0.05068274
10	0x3ce5d9ba	0.028057922
11	0xbd4b7465	-0.04967155
12	0x3d6e4978	0.058175534
13	0x3b641815	0.0034804393
14	0x3c019db0	0.007911131
15	0xbc8701f1	-0.016480418
16	0x3d06e2d9	0.032931183
17	0x3d3b9194	0.04579313
18	0xbb7f2533	-0.0038932085
19	0xbbb2c6ff	-0.005455851
20	0xbd69db00	-0.05709362
21	0x3d0d7b9f	0.034541722
22	0xbc45dc4e	-0.0120764505
23	0x3b94dda9	0.0045430255
24	0x3cbadab1	0.022809358
25	0x3cc857d2	0.024455938
26	0x3d6c6f0a	0.057723083
27	0x3cce1697	0.025157256
28	0x3c62a7cb	0.01383395
29	0x3b9b0bc8	0.004731629
30	0x3d1e8093	0.038696837
31	0x3cf0d8fd	0.029400343
32	0x3d50201c	0.050811872
33	0xbc6cccd5	-0.014453133
34	0x3cb9c6dd	0.022677833
35	0x3d686e96	0.056746088
36	0x3ca38ce1	0.019964637
37	0x3c55e87c	0.013055917
38	0x3c91dafa	0.017804611
39	0xbd4fa78a	-0.050696887
40	0xbcfc97bc	-0.030834071
41	0xbd617426	-0.05504241
42	0xbd4059dc	-0.046960697
43	0x3a438322	0.00074582
44	0xbd1be1b2	-0.038057037
45	0x3d5af4c5	0.053456087
46	0x3c775711	0.015096442
47	0x3c73c95f	0.014879554
48	0x3983689b	0.00025064204
49	0x3ca24d24	0.019812174
50	0xbd277298	-0.04088077
51	0x3d6d4db2	0.057935424
52	0x3d1ecad3	0.038767647
53	0xbd5139da	-0.051080562
54	0xbcf36203	-0.029709822
55	0xbbe433ce	-0.0069641834
56	0xbcfb8653	-0.0307037
57	0xbc41d719	-0.011831068
58	0xbc468812	-0.012117403
59	0xbb4e7e5f	-0.0031508429
60	0xbc6bc3b2	-0.014389919
61	0x3cb950ab	0.022621473
62	0xbd13bdda	-0.03606973
63	0xbc18b503	-0.0093205
64	0xbd093f12	-0.033507414
65	0xbc06bb11	-0.008223311
66	0x3ca240be	0.019806262
67	0xbcb3d03c	-0.02194988
68	0xbc119110	-0.008884683
69	0xbd62eddb	-0.055402618
70	0x3d66103b	0.056167822
71	0xbd4b2173	-0.049592447
72	0x3b86c214	0.0041124914
73	0xbb1150cb	-0.00221734
74	0x3c3ed822	0.01164821
75	0xbcdf770e	-0.02727845
76	0xbcfbc10c	-0.0307317
77	0x3bf0c193	0.0073472946
78	0x3bd56e04	0.006513359
79	0x3cf21c6d	0.02955457
80	0x3d5d0387	0.053958442
81	0x3d49568d	0.049154807
82	0x3c0a9325	0.008457934
83	0x3d060f27	0.032729294
84	0xbcec0d55	-0.028814951
85	0xbcd275e8	-0.025690988
86	0xbc8a4b0c	-0.016881488
87	0xbcd3d24a	-0.02585711
88	0xbd196405	-0.0374489
89	0x3d0a9f67	0.033843424
90	0x3d68f990	0.056878626
91	0xbd29335a	-0.04130874
92	0x3d6acde0	0.057325244
93	0xbd5d621c	-0.054048643
94	0x3c297964	0.010343883
95	0x3d238513	0.03992183
96	0x3d3c5f6e	0.045989446
97	0xbadbd71c	-0.0016772482
98	0x3ceb7843	0.028743869
99	0x3bba09e1	0.005677447
100	0xbd3d6cba	-0.046246268
101	0x3c918209	0.0177622
102	0x3c023160	0.007946342
103	0xbd68b094	-0.056809023
104	0x3d29c9f5	0.041452367
105	0x3d252a6d	0.040323664
106	0x3d310076	0.04321333
107	0xbcccae29	-0.02498539
108	0x3cf3563b	0.029704204
109	0xbbebaa9a	-0.007191968
110	0xbc456bce	-0.012049628
111	0x3af982e6	0.0019036203
112	0xbcdf0a68	-0.027226642
113	0xbc413771	-0.011793003
114	0xbd689d0d	-0.0567904
115	0x3d0aa767	0.033851054
116	0xbc834db8	-0.01602827
117	0x3d42bcff	0.047543522
118	0x3c9e14c1	0.019297006
119	0xbd3293e9	-0.04359809
120	0x3ce8a165	0.028397271
121	0xbc6d17fb	-0.014471049
122	0xbd195961	-0.037438754
123	0xbbef0b2b	-0.0072950325
124	0xbcd3d9a5	-0.025860617
125	0x3ba1be88	0.004936043
126	0x3d247f39	0.04016039
127	0xbd206a46	-0.03916385
128	0x3d438989	0.047738586
129	0xbc428359	-0.011872136
130	0xbce42dad	-0.027853811
131	0x3ced7c61	0.028989973
132	0xbb57334e	-0.0032836976
133	0xbd5b993e	-0.05361294
134	0x3c7eee30	0.015559718
135	0x3c8e923a	0.01740371
136	0xbb5e87de	-0.0033955495
137	0xbd542803	-0.05179597
138	0xbd0f8385	-0.035037536
139	0xbcd0b815	-0.025478402
140	0x3d3a7d22	0.045529492
141	0xbd554049	-0.05206326
142	0x3d1273a5	0.03575482
143	0x3d265629	0.040609512
144	0xbd3b523a	-0.045732714
145	0x3d4df236	0.05027982
146	0x3d1913fc	0.037372574
147	0x3ccc6227	0.024949146
148	0xbd400476	-0.046879254
149	0xbcd0dc1e	-0.025495585
150	0xbcdd03b8	-0.026979312
151	0x3c6c4b42	0.01442224
152	0xbc7b3ac9	-0.01533384
153	0x3d71a818	0.058998197
154	0x3d60cbfd	0.05488204
155	0xbd1189d6	-0.03553184
156	0x3d007e05	0.03137018
157	0xbd669331	-0.056292716
158	0xbd173d4c	-0.03692369
159	0x3d559990	0.0521484
160	0x3c8dd4d7	0.017313404
161	0xbd63d90a	-0.055626906
162	0x3d6563ef	0.056003507
163	0x3d0f44ee	0.034977846
164	0xbd259c70	-0.040432394
165	0xbc13c0a8	-0.009018101
166	0xbd3944db	-0.04523168
167	0x3d4e7646	0.050405763
168	0xbd182cb3	-0.037152003
169	0x3b2ed6c0	0.0026678294
170	0x3d0325ef	0.0320186
171	0xbd67636b	-0.056491297
172	0xbd5e7245	-0.054308195
173	0xbd3548ff	-0.044259068
174	0xbc00348d	-0.007825029
175	0x3b19ea42	0.0023485576
176	0xbcc581b8	-0.024109706
177	0xbca9218e	-0.020645883
178	0xbc83c5d0	-0.016085535
179	0x3d129374	0.035785154
180	0xbc065eec	-0.008201342
181	0x3cb90aa5	0.022588084
182	0x3d297502	0.041371353
183	0xbc95320e	-0.018212344
184	0x3a403745	0.00073324546
185	0x3d2db1f4	0.042406037
186	0x3d400de1	0.046888236
187	0xbd183177	-0.03715655
188	0xbbce6980	-0.0062991977
189	0xbcb1ec65	-0.021719167
190	0x3d23f947	0.04003265
191	0xbd4cbedb	-0.0499867
192	0xbc4c5ec7	-0.012473769
193	0xbcb7316f	-0.022362439
194	0x3ce2a289	0.027665393
195	0xbd133279	-0.035936806
196	0xbd555b9f	-0.05208933
197	0xbd03a6cc	-0.03214149
198	0x3c040420	0.008057624
199	0xbcb2caad	-0.021825159
200	0x3cdca4e5	0.026934097
201	0xbd42b45f	-0.047535297
202	0x3d39478c	0.045234248
203	0xbc35d39b	-0.011097814
204	0x3d4005ad	0.046880413
205	0x3d289d8b	0.04116587
206	0xbc57e27c	-0.013176557
207	0xbd49da6f	-0.04928058
208	0x3c96d727	0.01841314
209	0xbca07156	-0.019585293
210	0x3d5b4887	0.053535964
211	0x3d5e9327	0.054339554
212	0xbb6c3d04	-0.003604711
213	0x3d29cf5f	0.04145753
214	0xbc3f0316	-0.011658451
215	0x3d5ad6cd	0.053427506
216	0xbc9fb5a0	-0.019495785
217	0x3bc9b8e1	0.0061560725
218	0x3d4f99d8	0.050683826
219	0x3b997083	0.004682602
220	0x3d07e666	0.03317871
221	0xbcac5008	-0.021034256
222	0xbc976dc0	-0.01848495
223	0xbd001b89	-0.03127626
224	0xbc92b40b	-0.017908117
225	0xbd5448da	-0.05182729
226	0x3d2ee1b1	0.042695705
227	0xbc7a53b1	-0.015278743
228	0x3cc56cd8	0.024099752
229	0x3c5cf23f	0.01348549
230	0xbb0ac50b	-0.0021174576
231	0x3c32a725	0.010904108
232	0x3d51f9c6	0.051263593
233	0xbba12578	-0.0049177967
234	0x3cd2b117	0.025719209
235	0x3d4a85f7	0.049444165
236	0xbc3bd850	-0.011465147
237	0x3d09f96b	0.03368513
238	0x3d3f23e4	0.046665087
239	0x3d42cc0b	0.04755787
240	0x3b16cc7a	0.002301006
241	0xbcb674dc	-0.02227252
242	0x3d460171	0.04834122
243	0xbd076cae	-0.03306263
244	0x3d41e3c3	0.04733635
245	0xb9ddac4e	-0.00042280782
246	0x3cec869d	0.028872782
247	0xbcaf5415	-0.021402398
248	0x3ced9951	0.029003771
249	0xbd425513	-0.047444414
250	0xbd243d56	-0.040097557
251	0xbd4224b2	-0.047398277
252	0xbce5dbf6	-0.028058987
253	0x3d2b8e80	0.041883945
254	0x3d0a0525	0.033696312
255	0x3d52c9a2	0.051461823

weight f4 [32]
0	0x3f800346	1.0000999
1	0x3f800346	1.0000999
2	0x3f7ff950	0.99989796
3	0x3f7ff950	0.99989796
4	0x3f7ff950	0.99989796
5	0x3f7ff950	0.99989796
6	0x3f800346	1.0000999
7	0x3f7ff950	0.99989796
8	0x3f7ff950	0.99989796
9	0x3f800346	1.0000999
10	0x3f800346	1.0000999
11	0x3f7ff950	0.99989796
12	0x3f800346	1.0000999
13	0x3f800346	1.0000999
14	0x3f800346	1.0000999
15	0x3f7ff950	0.99989796
16	0x3f7ff950	0.99989796
17	0x3f800346	1.0000999
18	0x3f800346	1.0000999
19	0x3f7ff950	0.99989796
20	0x3f7ff950	0.99989796
21	0x3f800346	1.0000999
22	0x3f7ff950	0.99989796
23	0x3f800346	1.0000999
24	0x3f800346	1.0000999
25	0x3f7ff950	0.99989796
26	0x3f800346	1.0000999
27	0x3f7ff950	0.99989796
28	0x3f800346	1.0000999
29	0x3f800346	1.0000999
30	0x3f7ff950	0.99989796
31	0x3f800346	1.0000999

bias f4 [32]
0	0x38d3d562	0.0001010101
1	0xb8d3d562	-0.0001010101
2	0xb8d3d562	-0.0001010101
3	0xb8d3d562	-0.0001010101
4	0xb8d3d562	-0.0001010101
5	0xb8d3d562	-0.0001010101
6	0xb8d3d562	-0.0001010101
7	0x38d3d562	0.0001010101
8	0xb8d3d562	-0.0001010101
9	0x38d3d562	0.0001010101
10	0xb8d3d562	-0.0001010101
11	0x38d3d562	0.0001010101
12	0x38d3d562	0.0001010101
13	0x38d3d562	0.0001010101
14	0x38d3d562	0.0001010101
15	0x38d3d562	0.0001010101
16	0xb8d3d562	-0.0001010101
17	0xb8d3d562	-0.0001010101
18	0x38d3d562	0.0001010101
19	0xb8d3d562	-0.0001010101
20	0x38d3d562	0.0001010101
21	0x38d3d562	0.0001010101
22	0xb8d3d562	-0.0001010101
23	0x38d3d562	0.0001010101
24	0xb8d3d562	-0.0001010101
25	0xb8d3d562	-0.0001010101
26	0x38d3d562	0.0001010101
27	0xb8d3d562	-0.0001010101
28	0xb8d3d562	-0.0001010101
29	0x38d3d562	0.0001010101
30	0xb8d3d562	-0.0001010101
31	0xb8d3d562	-0.0001010101

running_mean f4 [32]
0	0xbe56b7a7	-0.20968495
1	0xbebea35c	-0.37234008
2	0xbd40c9bd	-0.047067393
3	0x3e64abe4	0.22331196
4	0x3f26ce1c	0.6515825
5	0x3df12024	0.117737085
6	0x3e8fbd36	0.28074044
7	0x3cef4f22	0.029212538
8	0xbdd01c97	-0.10161703
9	0x3e44b7c6	0.19210729
10	0x3e3d5f16	0.18493304
11	0xbe241d72	-0.16026857
12	0x3d6705c3	0.05640198
13	0x3dac7cb2	0.08422221
14	0xbc951681	-0.018199207
15	0xbd6dd99f	-0.058068868
16	0xbd45a10b	-0.048249286
17	0x3ea8e5fe	0.3298797
18	0x3ea54008	0.32275414
19	0x3d9fa204	0.07794574
20	0xbe9f3493	-0.31094798
21	0xbee286a2	-0.44243342
22	0x3e5a4972	0.2131708
23	0x3e0bbf8e	0.13647291
24	0xbef4680e	-0.47735637
25	0x3eae4b16	0.3404166
26	0x3c4d7aa3	0.012541446
27	0xbe2d53e3	-0.16926531
28	0xbe6282e2	-0.2212024
29	0x3ec59bd2	0.38595444
30	0x3dc34262	0.09534146
31	0xbe1bbe6e	-0.15209362

running_var f4 [32]
0	0x3b128d96	0.0022362224
1	0x3b303ca7	0.002689162
2	0x3b09303d	0.0020933293
3	0x3b54d5ee	0.0032476145
4	0x3b02dc91	0.0019967894
5	0x3a83e90b	0.0010063959
6	0x3ad4bca4	0.0016230536
7	0x3b2ef7cf	0.0026697998
8	0x3b1b9f0a	0.0023745918
9	0x3ae2dd1d	0.0017308329
10	0x3aa3e34c	0.0012503653
11	0x3ab8a8f0	0.0014088433
12	0x3b6ef199	0.0036459921
13	0x3af7fb2c	0.001891946
14	0x3b45ef19	0.0030202328
15	0x3aef20ff	0.0018244087
16	0x3b15e91e	0.0022874544
17	0x3abd0428	0.0014420794
18	0x3af93a70	0.0019014608
19	0x3a396100	0.0007071644
20	0x3afe2e5b	0.0019392477
21	0x3b39f8ff	0.0028377173
22	0x3b242f42	0.0025052582
23	0x3a9335b6	0.0011231217
24	0x3b2b8740	0.0026173145
25	0x3bb446fa	0.005501625
26	0x3ad443c5	0.0016194513
27	0x3ba1a358	0.004932802
28	0x3b171230	0.0023051612
29	0x3bafbded	0.005363217
30	0x3b69b4b2	0.0035660681
31	0x3af906b6	0.0018999192

weight f4 [20, 84]
0	0xbd3c8a0b	-0.046030086
1	0xbcaf63a5	-0.021409819
2	0xbc9225db	-0.017840317
3	0xbd26c6dc	-0.04071699
4	0x3d180ef1	0.037123624
5	0xbd2d876c	-0.042365476
6	0x3d884f21	0.06655718
7	0x3d6faca7	0.058514263
8	0x3db623e7	0.088935666
9	0xbd98d41e	-0.07462333
10	0x3d868b72	0.06569566
11	0x3d609bbc	0.05483602
12	0x3daceace	0.08443223
13	0xbcdb2ab7	-0.026753766
14	0x3d90c76b	0.07069286
15	0x3db76716	0.08955209
16	0xbdceeeb9	-0.101041265
17	0xbd13d93a	-0.036095835
18	0x3c8afe5e	0.016966995
19	0x3da7099f	0.08156132
20	0x3d825120	0.063631296
21	0xbd0c766b	-0.03429262
22	0x3dd4ff43	0.1040025
23	0x3da856c8	0.08219677
24	0x3d8d52ec	0.06900582
25	0xbdcee731	-0.1010269
26	0x3db5e615	0.08881775
27	0xbbdbcbe1	-0.006707654
28	0xbd11305f	-0.03544652
29	0xbce21603	-0.027598387
30	0x3db62df5	0.08895484
31	0xbd63da36	-0.055628024
32	0xbb304e34	-0.0026902081
33	0x3dd92e61	0.10604549
34	0xbd13c854	-0.03607972
35	0xbd82b21e	-0.063816294
36	0x3b800c52	0.0039077187
37	0x3d1f4840	0.038887262
38	0xbabbc2ca	-0.001432502
39	0x3cd5c12e	0.026093092
40	0x3d7ff009	0.062484775
41	0xbd1c9ab4	-0.038233474
42	0x3d244863	0.040108096
43	0xbc6c1bc8	-0.01441092
44	0xbd865774	-0.06559649
45	0xbc66a5b9	-0.014077597
46	0xbda57ab3	-0.08080044
47	0xbdd49aa9	-0.103810616
48	0xbd856ce2	-0.065149084
49	0xbc0223e7	-0.00794313
50	0x3c3ba954	0.011453945
51	0xbdd60e82	-0.10451986
52	0xbd87ed9b	-0.066371165
53	0x3d759787	0.05995896
54	0x3ac08a9c	0.0014689746
55	0xbbf81305	-0.0075706267
56	0x3d96b011	0.07357801
57	0xbd2bf6bb	-0.041983347
58	0x3dbe9914	0.09306541
59	0xbc8c0d93	-0.017096316
60	0x3db4a3bd	0.08820293
61	0x3db308a6	0.08741884
62	0x3d7bfeca	0.061522283
63	0xbdaac4dd	-0.0833833
64	0x3dcb4fe4	0.09927347
65	0x3cbc6b87	0.023000492
66	0xbb800037	-0.0039062756
67	0x3c6bb088	0.01438535
68	0x3a05c0c8	0.0005102274
69	0xbdcdc1af	-0.10046708
70	0xbdca9e69	-0.098934956
71	0xbdd2c1d8	-0.10290879
72	0xbdd93989	-0.10606677
73	0xbdaa5209	-0.08316428
74	0x3d7ef4d5	0.06224521
75	0x3d5ebd67	0.054379847
76	0xbdac5339	-0.08414311
77	0x3d773927	0.06035724
78	0x3b0faa0b	0.0021921422
79	0x3d436582	0.047704227
80	0x3dbfc36c	0.09363446
81	0xbc554bea	-0.013018588
82	0x3dc083de	0.09400152
83	0x3db2ff07	0.08740049
84	0xbdce53b4	-0.10074559
85	0x3d9b7cbd	0.07592151
86	0xbd723aaf	-0.059137996
87	0xbdcc2a68	-0.09969026
88	0xbd9f01e1	-0.0776403
89	0x3dd92eaf	0.10604607
90	0x3d2904d7	0.04126438
91	0xbd519eee	-0.051176958
92	0xbdb74566	-0.089487836
93	0xbdd0ee35	-0.102016844
94	0xbdb192f8	-0.0867061
95	0xbd4e3b56	-0.050349556
96	0x3d982a5f	0.07429957
97	0x3da1fba6	0.07909326
98	0x3d37ed3e	0.044903986
99	0xbd6615c4	-0.0561731
100	0x3dd05801	0.101730354
101	0xbd1cfe96	-0.03832873
102	0x3d719522	0.058980115
103	0x3da94bfc	0.08266446
104	0xbc7d057f	-0.015443205
105	0x3dc9a926	0.09846716
106	0xbd8f2582	-0.06989576
107	0xbddf46a8	-0.109021485
108	0xbd58a297	-0.052889433
109	0xbcbafaf8	-0.02282475
110	0x3d13f5a4	0.036122933
111	0x3ddeda70	0.108815074
112	0x3d403a31	0.046930496
113	0xb99420f6	-0.00028253318
114	0xbccc6be6	-0.024953794
115	0x3aaa3fb5	0.0012988957
116	0x3d74356a	0.059621252
117	0x3d743c0e	0.059627585
118	0x3da90212	0.08252348
119	0xbdde2b5e	-0.108481154
120	0x3dc20d96	0.094752476
121	0xbda899ef	-0.082324855
122	0x3dc79698	0.0974552
123	0xbdbe0b62	-0.09279515
124	0xbd8bc279	-0.06824202
125	0x3c980762	0.018558208
126	0xbcb789bc	-0.022404544
127	0xbdaf695d	-0.08565018
128	0x3d0d3725	0.034476418
129	0xbdc71240	-0.09720278
130	0x3db32807	0.08747869
131	0x3db84bed	0.08998857
132	0xbdd40c1c	-0.10353872
133	0xbd4415ef	-0.04787248
134	0x3d459e69	0.048246775
135	0x3da4b86e	0.0804299
136	0x3c0f33ae	0.008740349
137	0xbd3abcbe	-0.045590155
138	0x3d7e5bdd	0.062099326
139	0xbda93ac1	-0.082631595
140	0x3d861b14	0.065481335
141	0xbdd983d7	-0.106208496
142	0x3cfcb403	0.030847555
143	0x3d0fd044	0.035110727
144	0x3c90e5a2	0.017687622
145	0x3d62d257	0.055376377
146	0x3b7e188f	0.0038771962
147	0xbd38bf9a	-0.0451046
148	0xbdddd176	-0.10830967
149	0xbdced582	-0.10099317
150	0x3d912d1b	0.07088681
151	0x3d2df09e	0.0424658
152	0x3da6431a	0.08118267
153	0x3ccebffe	0.025238033
154	0xbc9d03ce	-0.019166853
155	0x3cf48f0c	0.029853366
156	0x3d115d10	0.035489142
157	0xbca95235	-0.020669082
158	0xbd1444e0	-0.036198497
159	0xbce09bc1	-0.02741802
160	0xbc7d5357	-0.015461764
161	0x3d9be955	0.07612864
162	0xbd68469d	-0.056707967
163	0x3dbcd8a0	0.092210054
164	0xbddf701f	-0.10910057
165	0x3c1511ae	0.009098453
166	0xbd8a9c4f	-0.06768095
167	0x3b07b677	0.0020708123
168	0xbd5e37ab	-0.054252308
169	0x3d991ed9	0.07476587
170	0x3d3c82bd	0.04602312
171	0x3c99b49c	0.01876288
172	0xbceb91dd	-0.028756076
173	0xbd976f41	-0.07394267
174	0x3d64c9c0	0.055856466
175	0x3c2fde92	0.010734217
176	0xbdbf8fe6	-0.09353618
177	0x3d9a7114	0.07541099
178	0xbdddd037	-0.108307295
179	0x3c662b86	0.014048463
180	0xbdb7c5a8	-0.08973247
181	0x3dd30735	0.10304109
182	0x3d15b805	0.036552448
183	0x3d45297e	0.048135273
184	0xbd42fb90	-0.04760319
185	0x3dac4bfc	0.0841293
186	0xbd9406d6	-0.07227866
187	0xbbeb53c6	-0.0071816174
188	0xbd642eec	-0.05570881
189	0xbd95404c	-0.07287654
190	0xbdbf4a95	-0.09340397
191	0x3cf0d84c	0.029400013
192	0xbd1df650	-0.03856498
193	0x3dd0ea77	0.102009706
194	0x3d96b0f3	0.07357969
195	0x3d9cdcc9	0.07659299
196	0x3cb51142	0.022102956
197	0xbd26671a	-0.04062567
198	0xbd20e8bc	-0.039284453
199	0x3c0ce17d	0.0085986825
200	0xbca1b5e9	-0.019740062
201	0xbd6da4d3	-0.058018517
202	0xbc764608	-0.015031345
203	0xbd978db4	-0.074000746
204	0xbdb28192	-0.0871612
205	0xbd7fc5a5	-0.062444348
206	0x3cf42f97	0.029807849
207	0xbdc59acb	-0.09648665
208	0x3dafd4e5	0.08585528
209	0xbd7eb32e	-0.062182598
210	0xbd5eae0c	-0.054365203
211	0xbdabaec4	-0.08382943
212	0xbdbaac70	-0.09114921
213	0xbc3ef413	-0.0116548715
214	0xbd90921c	-0.07059118
215	0x3dd5745d	0.10422585
216	0xbdb55fc4	-0.088561565
217	0xbd04c45f	-0.032413837
218	0xbd738fa3	-0.059463155
219	0x3ddda044	0.10821584
220	0x3c23b9fd	0.0099930735
221	0x3d461b22	0.04836572
222	0x3c40b1d8	0.011761151
223	0x3d7d0872	0.061775632
224	0x3daff7db	0.085921966
225	0xbdc34489	-0.095345564
226	0xbd6e8972	-0.058236547
227	0xbd90fada	-0.07079096
228	0xbc789c9a	-0.0151740555
229	0x3d935cd4	0.0719544
230	0x394e9d3a	0.00019704262
231	0xbdc465c4	-0.09589723
232	0x3d1719d0	0.03688985
233	0xbdbf74d0	-0.09348452
234	0xbd0ef889	-0.03490499
235	0x3c317d3c	0.010833081
236	0x3c6d76b5	0.014493634
237	0xbd704e9c	-0.058668718
238	0xbcc64f2c	-0.024207674
239	0xbccf0fc3	-0.02527607
240	0x3dbed85c	0.09318611
241	0xbc7ef417	-0.015561125
242	0xbdb95f88	-0.09051424
243	0xbd3959d4	-0.045251682
244	0x3d101d14	0.03518398
245	0xbd82d8ad	-0.06388984
246	0xbcff8bd5	-0.031194607
247	0xbd062aa8	-0.032755524
248	0x3d9f2b3c	0.07771918
249	0xbcdc5f15	-0.026900807
250	0x3d88dc92	0.066826954
251	0x3dc5caa8	0.09657794
252	0xbd117c0a	-0.035518683
253	0xbd8b2b9b	-0.067954265
254	0x3d07aadd	0.033121932
255	0x3dbe68c4	0.09297326

bias f4 [20]
0	0xbdd226f9	-0.1026134
1	0xbd9d46b6	-0.07679503
2	0xbdc71896	-0.09721486
3	0x3d9a4a8d	0.07533751
4	0x3d99b1fe	0.075046524
5	0xbd66394f	-0.056206997
6	0x3dcb5d1b	0.09929868
7	0x3c5019d2	0.012701469
8	0x3d96c0ec	0.07361016
9	0x3d7a29e2	0.0610751
10	0x3dabd8f6	0.083909914
11	0xbcdfcef5	-0.027320364
12	0xbd9ed5ef	-0.07755648
13	0x3cbea66f	0.023272721
14	0xbd9fc287	-0.07800775
15	0xbd00ffdf	-0.031494018
16	0xbb062e57	-0.0020474398
17	0x3d5ba32f	0.05362242
18	0x3dab560d	0.08366022
19	0x3d6c5346	0.057696603

weight f4 [6, 20]
0	0x3cf57440	0.029962659
1	0xbcd0120a	-0.025399227
2	0x3cafc5cc	0.021456622
3	0x3d992456	0.07477634
4	0x3e33d6ae	0.17562363
5	0xbd618535	-0.055058677
6	0x3d90e8ba	0.07075639
7	0xbe3d9a8e	-0.18515989
8	0xbde445c3	-0.111461185
9	0xbe3fa941	-0.18716909
10	0x3e0a15b3	0.1348484
11	0xbc7c567f	-0.015401482
12	0xbdbac072	-0.09118737
13	0xbd9ceaa4	-0.07661942
14	0x3e526dbe	0.20549676
15	0xbd5850ce	-0.052811436
16	0xbdf3c837	-0.11903422
17	0xbe486fa8	-0.19573843
18	0xbcaa13ad	-0.020761335
19	0xbe1c49dc	-0.1526255
20	0x3df47480	0.11936283
21	0xbe5b731c	-0.2143063
22	0xbe51e3f6	-0.20497116
23	0x3d57ba6a	0.052668013
24	0x3ca86605	0.02055646
25	0x3cbff06b	0.02343007
26	0xbdfe7de6	-0.12426357
27	0xbd958a1a	-0.073017314
28	0x3e4dccb2	0.20097616
29	0x3dab6f79	0.08370871
30	0xbddb555e	-0.10709642
31	0x3d14ac56	0.036297165
32	0x3b65f5b1	0.003508907
33	0xbd075143	-0.03303648
34	0x3dc25707	0.094892554
35	0xbd6c3ae0	-0.057673335
36	0x3df7fb6c	0.12108502
37	0xbcffc1af	-0.031220285
38	0xbd48258b	-0.04886393
39	0x3e24d381	0.16096307
40	0xbe0d1809	-0.137787
41	0xbe52aea3	-0.20574431
42	0x3df44d24	0.11928776
43	0xbe188da1	-0.14897777
44	0xbd9a5df2	-0.0753745
45	0x3e648ee3	0.22320132
46	0xbe093b0f	-0.13401435
47	0x3e45aa63	0.19303279
48	0xbdb763a0	-0.08954549
49	0x3de40d5d	0.11135361
50	0xbd8a9aff	-0.067678444
51	0x3e2250eb	0.1585118
52	0x3db22e64	0.087002546
53	0x3ccad35b	0.024758985
54	0x3e3412bc	0.17585272
55	0xbd2cf331	-0.042224113
56	0xbe36d9be	-0.178565
57	0xbdcc3351	-0.09970725
58	0xbe34f1f4	-0.17670423
59	0xbdfe52fb	-0.12418171
60	0x3e0786e5	0.13235052
61	0xbdad6806	-0.084671065
62	0xbdfca6c2	-0.12336494
63	0xbe1a4640	-0.15065861
64	0xbd840ebb	-0.06448122
65	0xbd0c540b	-0.034259837
66	0x3d2f4e54	0.04279931
67	0xbdf391f3	-0.11893072
68	0x3db6b6d0	0.089215875
69	0xbdd37f05	-0.103269614
70	0xbe5a1fcc	-0.21301192
71	0xbe612a54	-0.21988803
72	0xbe003ade	-0.12522456
73	0x3e2e23fa	0.17005911
74	0x3db6cac0	0.0892539
75	0xbd933308	-0.07187468
76	0xbe520a7d	-0.20511813
77	0xbe3a09ca	-0.18167797
78	0x3d5c39a1	0.053765897
79	0xbe051637	-0.12996756
80	0x3e11c880	0.14236641
81	0x3e50a712	0.20376232
82	0x3e0d91f1	0.13825203
83	0x3da5bb81	0.08092404
84	0xbe191f4c	-0.14953345
85	0x3e2d39e0	0.16916609
86	0xbe39ba50	-0.18137479
87	0x3db54150	0.08850348
88	0x3e159cdc	0.14610618
89	0x3d93c51a	0.072153285
90	0xbe2b5149	-0.16730227
91	0xbde80ff6	-0.11331169
92	0xbe296b83	-0.16544919
93	0xbd198ad2	-0.037485905
94	0xbe055da6	-0.13024005
95	0xbe12ac30	-0.14323497
96	0xbe48355c	-0.19551605
97	0x3e30f35e	0.17280337
98	0x3c514bd2	0.012774425
99	0xbd199716	-0.037497602
100	0xbe3c2aa2	-0.18375638
101	0x3e17fb26	0.148419
102	0xbe160695	-0.14650948
103	0x3e04c0d5	0.12964185
104	0xbe5cd889	-0.21566977
105	0xbdc0b9bd	-0.09410427
106	0x3e11ddc1	0.14244749
107	0x3daffa10	0.085926175
108	0xbd2e54dd	-0.0425614
109	0xbdaf666c	-0.08564457
110	0x3e3d54d7	0.18489395
111	0x3bd96132	0.006633901
112	0x3e517dc6	0.20458135
113	0xbdd6555d	-0.104655005
114	0xbdf9c8de	-0.121965155
115	0xbe452f81	-0.19256403
116	0x3e001ce7	0.12511025
117	0x3e1d90eb	0.15387313
118	0xbd4a5428	-0.049396664
119	0xbda45f1b	-0.080259524

bias f4 [6]
0	0xbddb78d3	-0.10716405
1	0x3d1f29b5	0.038858134
2	0xbdef7a3e	-0.11693238
3	0x3e5f294d	0.21793099
4	0x3c8d3487	0.017236961
5	0x3e2eef1f	0.17083405

weight f4 [20]
0	0x3f800000	1.0
1	0x3f800000	1.0
2	0x3f800000	1.0
3	0x3f800000	1.0
4	0x3f800000	1.0
5	0x3f800000	1.0
6	0x3f800000	1.0
7	0x3f800000	1.0
8	0x3f800000	1.0
9	0x3f800000	1.0
10	0x3f800000	1.0
11	0x3f800000	1.0
12	0x3f800000	1.0
13	0x3f800000	1.0
14	0x3f800000	1.0
15	0x3f800000	1.0
16	0x3f800000	1.0
17	0x3f800000	1.0
18	0x3f800000	1.0
19	0x3f800000	1.0

bias f4 [20]
0	0x00000000	0.0
1	0x00000000	0.0
2	0x00000000	0.0
3	0x00000000	0.0
4	0x00000000	0.0
5	0x00000000	0.0
6	0x00000000	0.0
7	0x00000000	0.0
8	0x00000000	0.0
9	0x00000000	0.0
10	0x00000000	0.0
11	0x00000000	0.0
12	0x00000000	0.0
13	0x00000000	0.0
14	0x00000000	0.0
15	0x00000000	0.0
16	0x00000000	0.0
17	0x00000000	0.0
18	0x00000000	0.0
19	0x00000000	0.0

running_mean f4 [20]
0	0x00000000	0.0
1	0x00000000	0.0
2	0x00000000	0.0
3	0x00000000	0.0
4	0x00000000	0.0
5	0x00000000	0.0
6	0x00000000	0.0
7	0x00000000	0.0
8	0x00000000	0.0
9	0x00000000	0.0
10	0x00000000	0.0
11	0x00000000	0.0
12	0x00000000	0.0
13	0x00000000	0.0
14	0x00000000	0.0
15	0x00000000	0.0
16	0x00000000	0.0
17	0x00000000	0.0
18	0x00000000	0.0
19	0x00000000	0.0

running_var f4 [20]
0	0x3f800000	1.0
1	0x3f800000	1.0
2	0x3f800000	1.0
3	0x3f800000	1.0
4	0x3f800000	1.0
5	0x3f800000	1.0
6	0x3f800000	1.0
7	0x3f800000	1.0
8	0x3f800000	1.0
9	0x3f800000	1.0
10	0x3f800000	1.0
11	0x3f800000	1.0
12	0x3f800000	1.0
13	0x3f800000	1.0
14	0x3f800000	1.0
15	0x3f800000	1.0
16	0x3f800000	1.0
17	0x3f800000	1.0
18	0x3f800000	1.0
19	0x3f800000	1.0

weight f4 [6]
0	0x3f800000	1.0
1	0x3f800000	1.0
2	0x3f800000	1.0
3	0x3f800000	1.0
4	0x3f800000	1.0
5	0x3f800000	1.0

bias f4 [6]
0	0x00000000	0.0
1	0x00000000	0.0
2	0x00000000	0.0
3	0x00000000	0.0
4	0x00000000	0.0
5	0x00000000	0.0

running_mean f4 [6]
0	0x00000000	0.0
1	0x00000000	0.0
2	0x00000000	0.0
3	0x00000000	0.0
4	0x00000000	0.0
5	0x00000000	0.0

running_var f4 [6]
0	0x3f800000	1.0
1	0x3f800000	1.0
2	0x3f800000	1.0
3	0x3f800000	1.0
4	0x3f800000	1.0
5	0x3f800000	1.0
