cnnQLearning/DQN.pt (torch, 22809 bytes, 19 tensors)

weight f4 [32, 3, 3, 3]
00000000: 0896 27bd f3fe fbbd 58dc 043e 2e77 06be
00000010: 2716 17be 9d23 1a3e 8bbc c9bd f878 e3bd
00000020: 0018 2e3e 57ae 28be cba6 10bb 9312 973d
00000030: cda2 033e 1b23 bb3d 8383 89bd 0dd4 423e
00000040: ba4d ae3c 7450 e6bc 5444 f93d a2a4 893b
00000050: 7114 08be 5a9a c4bd 9fbd 383e 2582 41be
00000060: e578 013e 5617 183e 3ee2 d03d d1e6 e23d
00000070: f65e 413e 1b9e 6bbd a34e 1aba 7629 253d
00000080: 1551 86bd b6bb 1b3e b92e 6b3d a6f3 173e
00000090: 9b49 77bd 3fae 13be 08e1 89bd 24c5 21be
000000a0: fcfb 893c cfd6 c93d 895e 81bd e1c6 023c
000000b0: 5243 28be 9fc5 b4bc aad1 143e 1966 443e
000000c0: 4790 e8bd e27e 19be 80f5 3a3e 05a4 ccbd
000000d0: 3441 9abd ba47 a6bd 1044 5c3d 1c2e 893c
000000e0: 1287 af3c 70e8 45bd 11b0 90bc 3f2f 3dbe
000000f0: c857 c7bd dcfc 69bb 1fc1 203e 3296 01bd
00000100: 6f86 433e 77c0 f5bd 6866 c7bb ceb5 f53c
00000110: 0113 15be 7c9d 0f3e 4046 43be 9979 b43c
00000120: 7edb 3abe e0fb 303e f6c1 7f3d 964a b2bd
00000130: c8bf 37be 5fa9 fcbd 2d4b a4bd f9d9 27be
00000140: cd5c f4bc 4fff e93d c656 3fbe 61f6 0b3e
00000150: 489d 143e 9f35 c5bd 6e93 a53d abdb 15be
00000160: a58b 07ba 134c 073d 65b3 30be f9de 54bd
00000170: 1b89 153d 92b4 17be eadb 3ebe 830c 983d
00000180: b0af 2cbe b707 fb3d a5e9 03ba 1e36 0fbe
00000190: ac88 673d 6254 85bc 0797 803d 8148 a9bd
000001a0: 90e8 a7bd 9a92 d93d 77f5 133d 7bc7 443e
000001b0: d08e c33c 393e 903d 664e 1fbe 38ae 093e
000001c0: 6ceb 0dbe a4f2 08be 74e0 9fbd 5761 c23d
000001d0: 408b 24be c664 b5bd a552 833c fe8f d43d
000001e0: aaa7 abbd 6e36 2cbe 4767 0e3d ef82 82bd
000001f0: edeb 093e 7fc8 80bd 069a e9bb 8bdd 18be
00000200: df63 2dbe e6d6 edbd d3e5 95bd 2be1 08be
00000210: 7e74 173e 32dc 7fbd f993 ac3d f1aa a13d
00000220: 071e 44bb 7988 423e 310c 123c 7563 6cbd
00000230: ec43 863c d726 af3d 50ff f6bd b2e2 963d
00000240: 593e 953d 51cf 023e f704 47bd b313 1dbe
00000250: 9332 e5bd daf8 8dbd 9239 fd3d 3471 22bd
00000260: ba4b 2f3e 74a3 183e cdae 023e a1e2 42ba
00000270: 130d 4d3d 5c07 bb3d bed5 cd3d 7a6b 093e
00000280: 6ce8 f63d 19dd 1c3d 16b5 08be cfe1 783d
00000290: b47d 1c3e 7546 1abe 5f1c 423d 1a4c eb3c
000002a0: c8f8 00be 7586 b93d 92ce 3c3e 9b13 e93c
000002b0: f10b 333d 68e5 7a3d 21fb 0dbe 866f 0abd
000002c0: e625 253e 97b6 3ebe 184f 3a3e 3cd3 33be
000002d0: 1658 00be 1424 313e e379 25be 0736 773d
000002e0: 2d29 81bb 9b7a d13a 8f89 11be e564 a33d
000002f0: b460 c83d c862 9f3d fe2d adbd 8be7 3b3d
00000300: a52f 6abc 6962 3f3c 5dfb e73d ed78 2a3e
00000310: 9f09 cfbc 6e4d 65bd 3ace 40bd 814e a43d
00000320: 081e b7bd e307 9ebc da1b 853c 7ac3 933d
00000330: 6032 8cbd 0790 ad3c 65b1 df3d 164c f13c
00000340: 9ada 033d 98b2 09bd 2a90 a23c 4e8b c0bd
00000350: 74ef 8bbd 3031 0dbe ea7d 26be 4988 b63c
00000360: 1f69 0f3d 5ade 25be c4b3 e3bd 1012 44bd
00000370: 7755 153e e238 af3c d89c 213e 70be e03d
00000380: cc70 af3d dab5 193e ef01 30bd 1b54 503d
00000390: f109 093e 6cfd d4bd d2ea 32be 416d 0ebe
000003a0: b03f e1bd f365 b03d 5477 dd3c b286 3fbe
000003b0: 9193 ab3d 54de a73d 66da d2bd aa6f 36be
000003c0: 140f e1bc 4db7 423c c7a7 febd f1db 303e
000003d0: 7e78 35be 366a 08be 6cee 073c 9c28 1a3e
000003e0: 466a 28be 2e70 b53c 3fa1 07be 2c0d 62bc
000003f0: 3210 1ebe 7d2b 043c 7ae9 1e3e 8fc4 253e
-0.040914565 -0.12304487 0.1297468 -0.13131401 -0.14754544 0.15052648 -0.09850415 -0.11107057
0.17001343 -0.16472755 -0.0022072073 0.073765896 0.12855072 0.09137555 -0.06714537 0.19026203
0.021277297 -0.028114535 0.12171236 0.004200534 -0.13289048 -0.09599753 0.18041085 -0.18897302
0.12643774 0.14852652 0.10199402 0.11079181 0.18883881 -0.057523828 -0.00058863516 0.040322743
-0.06558434 0.15208325 0.057417605 0.14839038 -0.06037293 -0.14421938 -0.067323744 -0.1579786
0.016843788 0.098554246 -0.06316859 0.007981987 -0.1643193 -0.02206689 0.14533105 0.19179572
-0.11355644 -0.14989808 0.18257713 -0.09992222 -0.07531968 -0.081191495 0.053775847 0.01674562
0.021426711 -0.048317373 -0.01766208 -0.18475054 -0.0973354 -0.0035703694 0.1569867 -0.031637378
0.19094251 -0.119996004 -0.006085206 0.029993918 -0.1455803 0.1402492 -0.19069767 0.022030639
-0.18247792 0.17283583 0.062440835 -0.087056324 -0.17944252 -0.123369925 -0.08022151 -0.16391744
-0.029829407 0.114256494 -0.18685445 0.13668205 0.14513123 -0.09629368 0.080847606 -0.14634578
-0.000517065 0.033031534 -0.17255934 -0.051970456 0.036507707 -0.14814976 -0.18638578 0.074242614
-0.16863894 0.12257331 -0.0005032069 -0.13985488 0.056526825 -0.016275588 0.06278806 -0.08265782
-0.08198655 0.10623665 0.036122765 0.19216721 0.02387181 0.07043118 -0.1555725 0.13445365
-0.13859338 -0.1337381 -0.07806483 0.09491222 -0.16068745 -0.08857112 0.016030619 0.10379027
-0.08381589 -0.16817638 0.03476646 -0.0637263 0.13468905 -0.062882416 -0.0071289567 -0.14928262
-0.16932629 -0.11613254 -0.07319226 -0.13367145 0.14790532 -0.062465854 0.08426661 0.078939326
-0.0029925124 0.18997373 0.0089140395 -0.057712037 0.01638981 0.0855233 -0.12060416 0.073674574
0.072872825 0.12774397 -0.04858872 -0.15339546 -0.11191287 -0.0693223 0.12364496 -0.03965874
0.17118731 0.14906102 0.12761994 -0.0007434283 0.050061297 0.09132263 0.10050534 0.13419905
0.1205605 0.038296793 -0.13350329 0.060762223 0.15282327 -0.1506594 0.047390338 0.028722811
-0.12594903 0.09058849 0.18438175 0.028451731 0.04371256 0.061253935 -0.1386533 -0.033797763
0.16127738 -0.1862434 0.18194234 -0.17561048 -0.12533602 0.17298919 -0.16159777 0.06035426
-0.003941676 0.0015981974 -0.1421263 0.079782285 0.0978407 0.07782513 -0.08456038 0.045875113
-0.014293586 0.011681178 0.113272406 0.16647692 -0.025273142 -0.055982046 -0.047071673 0.08022786
-0.08941275 -0.01929087 0.016248632 0.072150186 -0.06845546 0.021186842 0.10922507 0.029455226
0.032190897 -0.033617586 0.019844133 -0.0940157 -0.068327814 -0.13788295 -0.1625897 0.022281783
0.03501236 -0.16198102 -0.11118272 -0.04786879 0.14583384 0.021389429 0.15782487 0.10973823
0.08566436 0.15010777 -0.042970594 0.05086146 0.13382699 -0.10399899 -0.1747239 -0.13908865
-0.109984756 0.08613195 0.02703444 -0.18703726 0.083777554 0.081967026 -0.102955624 -0.17816034
-0.02747301 0.011884523 -0.12434345 0.17271401 -0.17721745 -0.13321766 0.00829659 0.15054554
-0.1644679 0.022148218 -0.13245104 -0.013797086 -0.15435866 0.008067009 0.15518752 0.16188262

bias f4 [32]
00000000: a3d3 05be 349d 303d 1827 2bbd 1b30 e1bc
00000010: a28d 8bbc 8806 503d 20a6 b83d 7fe3 6b3d
00000020: e995 2f3e 8f44 a93d c752 2d3e fc30 c03d
00000030: c7c2 b9bc 69ac b03d 73f3 11bd b4e0 25be
00000040: 2d31 89bc 127f b43d c8f4 283e 27f6 453d
00000050: 22a0 013d 8ede c8bd 1f47 7c3d 6288 8fbd
00000060: c82b 323e 3461 233e 88ea e23d cf7e 10be
00000070: 59e5 37be d849 343e 76bf 0bbd 7c98 3f3d
-0.13069014 0.04311867 -0.04178533 -0.027488759 -0.01703531 0.05078748 0.09016061 0.057590004
0.1714703 0.0826503 0.16926108 0.09384343 -0.022675885 0.08626635 -0.035632562 -0.16198999
-0.016747082 0.08813299 0.16499627 0.048330452 0.031646855 -0.09808074 0.061591264 -0.07008435
0.17399514 0.15955049 0.110798895 -0.14110874 -0.17958583 0.17606294 -0.03411814 0.04677628

weight f4 [1, 32, 3, 3]
00000000: 9cda 213c 83b9 2d3c 34ce b63c f4ac 65bd
00000010: ef73 15bd a52d b5bc 1a70 9439 893a 4ebc
00000020: 97d0 083d 1ed1 85bc 1808 52bd 2f7a cb3c
00000030: 7068 2a3d 86bd 54bd 9a8d 26bd c5e1 35bd
00000040: 0e64 953c d67d 383d b107 f03c c375 66bd
00000050: c259 a5bb bd81 e73c 71d9 6e3c 2909 c2ba
00000060: 8b07 2ebd 5762 243d 9bc8 2ebc f3ce edbc
00000070: 9416 c6bc 9704 b0bc 8114 063d 6da1 69bd
00000080: 4ea2 e3bb d648 033d aacd c8bc 6811 523d
00000090: 01f4 923c 77bc 4ebb e040 b93c 45a8 083d
000000a0: f0c2 9fbc f98c 53bd 4050 69bd 15d1 c93b
000000b0: b546 4ebd 94c6 6c3b 9b96 93bb 0220 5c3c
000000c0: 3e83 383d ef39 943c c12b 433d 3806 27bc
000000d0: fb3b 15bd 8912 593d 17f7 b9b9 c0cf a6bb
000000e0: f5b2 69bd 12dc 58bd 005b 143d 94f7 d0bc
000000f0: 9443 793b 1b11 5bbd a8e7 0c3c c7b9 0d3c
00000100: 7ec7 f0bc f5b6 10bd 6bd6 97bb f4e4 45bd
00000110: f56b ecbc 03c4 bf3c 2feb 10bd fc17 113d
00000120: b1b4 323d fc78 c2bc 6649 1b3d b57e 4bbc
00000130: 65ea 04bd 2ce9 28bd f02c f9bc 9914 0c3d
00000140: b2b6 10bd b8d9 43bd b0e7 52bd e176 e13c
00000150: 9e29 ab3c 1a43 5fbd 89e7 b1bc 59b3 cabc
00000160: fb3e 4dbd 2e79 65bd c8e8 d73a c650 563d
00000170: 8db4 ecbc 34f6 29bd cc4e fb3c c909 b93c
00000180: 9a64 26bd 59eb 6cbd a479 79bc 8705 6a3d
00000190: 449e 2bbc bbd2 51bd 2c20 503d 0111 9bbc
000001a0: c279 983c 0b88 6ebd d28c 5a3d 9488 15bd
000001b0: b919 913b 48e2 fe3c 950e 15bd 666a 5cbd
000001c0: e7fb 18bd 9a42 2fbc 18f1 fb3c 5948 f8bc
000001d0: b4ab 3c3c 56ec b03b cd6f 653d e004 313d
000001e0: 72ba 57bd d727 233d 16e0 133d 73c0 a6bc
000001f0: 0208 5a3d 0523 f6bc 0530 08bc 20f1 8b3a
00000200: 63bd 17ba e39e 04bd a979 54bc 7531 50bd
00000210: d698 573d 271e 2b3d 5c4a c93c 8bb3 a7bc
00000220: d742 e8bc 649c 443c 76b8 a23c 6332 1e3d
00000230: 54a0 fb3c 2edd 0cbd 752c 423d e16e 6dbd
00000240: 105c b43c 48fc 39bd a3d4 1f3d d55a 3038
00000250: 041e 433c 8692 1d3d 21ac d0bc 7381 56bc
00000260: f1b6 97bc 5b44 0e3d 0144 d73c 20ea 4dbc
00000270: ed15 edbc b674 50bd b3a8 5e3c 6c99 9aba
00000280: baf2 e43a 1e4f 3cbc 675c 2abd 32e7 07bd
00000290: 098a eb3c dd07 063d 3a25 aabc 372f b83b
000002a0: 7cb6 48bd 0f11 8d3c eb0a 15bd 03fb dabc
000002b0: 85fb 3bbd c9da 023c ac2a 2a3d 3c58 6a3d
000002c0: 4236 a43c ab0a 3dbd ddf3 023c 1adb 15bd
000002d0: 1beb f7bc 5dc9 52bd eb8f bcbc 45f1 ffbc
000002e0: 1e3b 82bc c8cf 6b3d a7b7 513d df66 633d
000002f0: 5658 55bd 4b94 2e3c cc83 51bd afef 95bc
00000300: 0789 283d 841b 16bd 00de 643d 2df3 64bd
00000310: ad64 47bd 828d 88bc b0cd c13b 1d4b 1a3c
00000320: 7b55 f0bb a8b4 0e3d c003 183d ffd2 f83c
00000330: a217 a2bc f57c 7bbc 7535 d63b 76c8 1f3d
00000340: 0b3a 493d 312a 453d cc92 c53c c251 88bc
00000350: 7ab0 953c 1b1e 063d a93c 07bc 964a 66bd
00000360: 22ce bf3c 0cf5 f83c e313 f8bc b124 35bd
00000370: abd4 2abd 9ec3 373c 47a6 273a 8ee7 5abd
00000380: b6bb e53c c4ae dbbb 7607 bebc 8d9c cebb
00000390: 1c06 383d 2995 b43c b111 30bd 6393 17ba
000003a0: aaf5 b7bc d9e4 293d fb11 573c fdb9 053d
000003b0: c037 853c b347 093d 0e30 343c b510 413d
000003c0: c08b 83ba c5bd edbb 5ef9 6e3d dc07 5ebc
000003d0: 4aad 6ebc 64e9 5bbd 12fb 5fbd efbe 6cbc
000003e0: f5f6 cdbc beb8 38bd 2088 4aba 7d28 5dbd
000003f0: e98e 20bb 3a84 4c3d c34e 1fbc 43e9 f43b
0.009878781 0.0106033115 0.022315122 -0.056073144 -0.036487516 -0.022116492 0.00028312282 -0.012587198
0.03340205 -0.016335066 -0.05127725 0.024838535 0.041603506 -0.051938556 -0.040662386 -0.044404764
0.018236186 0.04504188 0.029300543 -0.05626465 -0.0050461004 0.028260106 0.014578209 -0.0014803755
-0.042487662 0.040132847 -0.010667945 -0.029029345 -0.024180688 -0.021486564 0.032734398 -0.057038713
-0.0069468385 0.032051884 -0.02451213 0.05128613 0.017938616 -0.003154544 0.022613943 0.0333636
-0.019502133 -0.051648114 -0.056961298 0.0061589577 -0.0503604 0.0036129104 -0.0045040376 0.013435366
0.045047037 0.018094031 0.04764915 -0.010194354 -0.036434155 0.052996192 -0.00035470046 -0.0050906837
-0.057055432 -0.05294425 0.036219597 -0.02550868 0.0038034664 -0.05348311 0.008600153 0.00865025
-0.029392 -0.03533073 -0.004633715 -0.04831405 -0.028860072 0.023408895 -0.03538054 0.035423264
0.043629352 -0.02373933 0.037911795 -0.012420346 -0.0324501 -0.041237995 -0.030416936 0.03419933
-0.03533048 -0.047815055 -0.051490486 0.027522506 0.020893868 -0.054507352 -0.02171685 -0.024743723
-0.05010889 -0.05602377 0.0016472572 0.052323125 -0.028894687 -0.041494563 0.030677222 0.022587674
-0.040623285 -0.057841633 -0.015226755 0.057134178 -0.010474745 -0.05122636 0.05081193 -0.018929007
0.018612746 -0.05823521 0.053356953 -0.036507204 0.004428115 0.031113759 -0.03639086 -0.053812407
-0.037349608 -0.010697031 0.03075461 -0.030307936 0.011515547 0.005399267 0.056014825 0.04321754
-0.052668042 0.039832916 0.036102377 -0.020355439 0.053230293 -0.030045995 -0.00831223 0.0010676719
-0.00057884137 -0.03237809 -0.012968459 -0.050828416 0.05263599 0.041776802 0.02457159 -0.020471355
-0.028352184 0.012000177 0.019863348 0.03862227 0.030716099 -0.03439062 0.04740568 -0.05796707
0.022016555 -0.04540661 0.039021146 4.2046264e-05 0.011909012 0.038469814 -0.025472702 -0.013092387
-0.01851985 0.034733158 0.026277544 -0.012568027 -0.02894112 -0.050892554 0.013590026 -0.0011794991
0.0017467358 -0.011493472 -0.041592028 -0.03317947 0.028752344 0.032722343 -0.020769704 0.005620863
-0.049002156 0.017220048 -0.036387365 -0.02673102 -0.045894165 0.007986733 0.0415446 0.057213053
0.020045403 -0.046152752 0.007992712 -0.036585905 -0.030263474 -0.051461566 -0.023017844 -0.031242976
-0.01589733 0.057571203 0.051200535 0.055518027 -0.052086197 0.010655473 -0.051151082 -0.018302767
0.041146304 -0.036647335 0.05587578 -0.055895973 -0.048679996 -0.016669039 0.0059144124 0.009417322
-0.007334409 0.034840256 0.03711295 0.030374048 -0.01978666 -0.015349616 0.0065371343 0.039009534
0.04912762 0.04813594 0.02411785 -0.016640548 0.018272627 0.032743555 -0.008254209 -0.056223474
0.023413721 0.030390285 -0.03028292 -0.044224445 -0.041706722 0.011216072 0.00063953217 -0.053443484
0.02804361 -0.0067041833 -0.023196917 -0.0063052834 0.0449277 0.022043781 -0.04298562 -0.0005782155
-0.022456009 0.04147801 0.0131268455 0.032648075 0.016261935 0.033515643 0.010997785 0.047135074
-0.0010036156 -0.0072552883 0.058343284 -0.0135516785 -0.0145676825 -0.053689376 -0.0546828 -0.014449819
-0.025142172 -0.04509806 -0.00077259727 -0.05399369 -0.0024499244 0.04993079 -0.009723368 0.007474096

weight f4 [32]
00000000: 4603 803f 4603 803f 50f9 7f3f 4603 803f
00000010: 4603 803f 4603 803f 4603 803f 4603 803f
00000020: 4603 803f 4603 803f 50f9 7f3f 4603 803f
00000030: 50f9 7f3f 50f9 7f3f 4603 803f 4603 803f
00000040: 50f9 7f3f 4603 803f 4603 803f 50f9 7f3f
00000050: 4603 803f 50f9 7f3f 50f9 7f3f 50f9 7f3f
00000060: 4603 803f 50f9 7f3f 50f9 7f3f 50f9 7f3f
00000070: 4603 803f 4603 803f 50f9 7f3f 4603 803f
1.0000999 1.0000999 0.99989796 1.0000999 1.0000999 1.0000999 1.0000999 1.0000999
1.0000999 1.0000999 0.99989796 1.0000999 0.99989796 0.99989796 1.0000999 1.0000999
0.99989796 1.0000999 1.0000999 0.99989796 1.0000999 0.99989796 0.99989796 0.99989796
1.0000999 0.99989796 0.99989796 0.99989796 1.0000999 1.0000999 0.99989796 1.0000999

bias f4 [32]
00000000: 62d5 d3b8 62d5 d338 62d5 d3b8 63d5 d3b8
00000010: 62d5 d338 62d5 d338 61d5 d3b8 63d5 d338
00000020: 62d5 d338 63d5 d338 61d5 d3b8 63d5 d338
00000030: 63d5 d3b8 61d5 d3b8 62d5 d338 62d5 d338
00000040: 62d5 d338 62d5 d338 61d5 d338 62d5 d338
00000050: 62d5 d338 62d5 d338 62d5 d3b8 62d5 d3b8
00000060: 62d5 d338 62d5 d3b8 62d5 d3b8 62d5 d3b8
00000070: 63d5 d3b8 62d5 d338 62d5 d3b8 62d5 d338
-0.0001010101 0.0001010101 -0.0001010101 -0.000101010104 0.0001010101 0.0001010101 -0.00010101009 0.000101010104
0.0001010101 0.000101010104 -0.00010101009 0.000101010104 -0.000101010104 -0.00010101009 0.0001010101 0.0001010101
0.0001010101 0.0001010101 0.00010101009 0.0001010101 0.0001010101 0.0001010101 -0.0001010101 -0.0001010101
0.0001010101 -0.0001010101 -0.0001010101 -0.0001010101 -0.000101010104 0.0001010101 -0.0001010101 0.0001010101

running_mean f4 [32]
00000000: e015 0342 aea5 30c0 a8ca a8c2 9851 19c2
00000010: 5f29 d5c2 22fc ec42 ad8f fb40 df47 23c0
00000020: 3fa5 00c2 2e18 c2c2 9dae 7542 fc78 f042
00000030: 2541 4243 8eb5 7842 10f9 07c2 7e72 44c1
00000040: 7f63 0241 2edb 2742 9084 d041 bdef 68c2
00000050: e23b 76c2 4398 a7c1 3043 4042 5dcb 32c2
00000060: 3f9d 33c2 6653 3d41 829c 03c2 600c 8c42
00000070: 723d 1b42 8869 b242 e921 83c2 d217 f8c2
32.771362 -2.7601123 -84.39581 -38.32968 -106.5808 118.49245 7.8612885 -2.5512617
-32.161373 -97.047226 61.42052 120.2363 194.25447 62.1773 -33.993225 -12.277952
8.149291 41.964043 26.064728 -58.23412 -61.55848 -20.949347 48.065613 -44.698597
-44.90356 11.832861 -32.90284 70.02417 38.810005 89.206116 -65.56623 -124.046524

running_var f4 [32]
00000000: 4fd9 da42 a449 7943 838d ac43 f65f 0543
00000010: 0520 a943 42c5 e743 7c84 c842 cfd6 1343
00000020: e5b4 1b43 87b7 2843 f0c1 2743 ed4c 9843
00000030: 0b72 3c43 8b08 de43 d966 f642 c255 f442
00000040: 6192 6043 105f 8143 1626 9042 75af c542
00000050: 60bd 9d43 70d7 c342 d237 5343 47c2 d042
00000060: 1df4 b542 a1ec e643 e901 1343 69a1 0943
00000070: cbe8 e442 1e29 b942 84a7 8e43 569b 4743
109.42443 249.28766 345.10556 133.37485 338.25015 463.54108 100.25876 147.8391
155.70662 168.7169 167.75757 304.60098 188.44548 444.06674 123.200874 122.167496
224.5718 258.74268 72.07439 98.84269 315.4795 97.92078 211.21805 104.37945
90.97678 461.84866 147.00746 137.63051 114.45467 92.58031 285.30872 199.60678

weight f4 [20, 84]
00000000: 4de3 6fbc d2d9 31bd d04b 4ebd 7293 06bd
00000010: 0390 293d 3e09 5d3d c9ab 413d 8bcd f0bc
00000020: 8e29 97bd 07f4 da3b 3df5 a8bd 95a0 5a3c
00000030: b509 2dbc 629b a23d 2b35 34bd 2bed 923b
00000040: c52e 75bd 38f9 de3d 9723 d3bd a8c2 d0bd
00000050: 6229 c8bd ef96 133d e78c 533d 6dca c0bc
00000060: e722 4fbb f445 003d 6c01 e2bc 3cc0 bbbd
00000070: 8537 1dbd 1713 973d 6c02 453d a6c9 23bd
00000080: 04d0 28bd 11d9 f83c ad18 7cbd 7264 e73c
00000090: 60cc 4cbc 42e4 9b3d 9a4d bc3d 8cb4 04bb
000000a0: a60e 8e3d a46f 3ebd da69 eeba d229 8abb
000000b0: 270a 4c3d 5ee4 663d 836a 5e3d 96a6 b53c
000000c0: d68b 3cbd 62b9 2f3d 44ac 9a3d 3f76 e9bc
000000d0: ec1e a0bd 7fb7 b2bc 4546 d33d a0a9 bcbd
000000e0: 413e b6bd 38aa 31bd 5564 6fbd 07c3 553d
000000f0: 2df7 303d f30f 1bbd 48b4 95bd e13d a63d
00000100: 9936 763d f95d b03d e3e8 673c 07cd 83bd
00000110: 4319 d1bd ed63 11bd b654 45bd fcaa 8e3d
00000120: 1a8f aabd 50a6 c83d 479f c43d 4357 803d
00000130: fb37 b0bc 6832 5a3d cfde cb3d 3340 d03c
00000140: 8f91 b4bd 4b83 183d 90cb 94bc 527f da3d
00000150: bc85 75bd dc78 13bd 2eb1 063d b371 16bd
00000160: 9609 4bbc ee19 c43d 2a6a 92bd 6dd1 58bd
00000170: 4ffa d93d 60ec 74bd d855 40bd df18 d2bc
00000180: e06e f53b deac 6f3d 0c85 04bd d587 6bbd
00000190: 6474 8e3d a42b 743b 768e 733d 47eb a0bd
000001a0: d480 2a3d 9a76 253c bbdd 903d 9e97 30bc
000001b0: c974 56bd 0d99 d93d c420 603d eaf9 bb3c
000001c0: 377f 85bd 95a3 a73b 826f 073d 9c11 c23a
000001d0: 3e21 c93d 41a3 ce3d d5fb 5bbd 8684 0ebd
000001e0: 8258 b23d 2813 e03c 62e9 9ebd 3f70 8cbd
000001f0: 0a2b ddbd 0b7b a3bc 91d8 963d 98e8 9c3d
00000200: 7562 d43d f125 893b 4f43 a5bd c991 7abc
00000210: 11c9 48bd 1a39 073d fb92 dfbd 1b5e 87bd
00000220: d2b7 7dbc b878 ccbb 713d 96bd 8b01 cbbc
00000230: 56ec 6fbd 8416 87bd b0a1 203d b996 b5bc
00000240: b17b 853d 4f02 9dbc 1586 d63d 2f73 6a3d
00000250: 1926 bdbd 24fd 613d a55f b23d a2ab 6c3d
00000260: 275f 923d 1a24 a43d 0696 053d d852 543d
00000270: 9e7c 743d cdbf bc3d f414 643d 0e02 9bbd
00000280: 5df1 b53d 1225 98bd 51c8 68bd 60f1 edb8
00000290: bef9 dcbd 4061 99bd d9d2 d03c 05c2 0f3d
000002a0: 8899 943d 927f d83b 1f65 283c e48d 933d
000002b0: 028f 27bc 541e a4bd 410e e4bc 3708 18bd
000002c0: b187 05bd 6b33 ca3d e649 813d f764 debc
000002d0: a2b8 9dbd 6079 b3bc f626 d8bd b6b5 11bd
000002e0: f1bb 9ebd dde1 a43d 8f62 d93d f6cd b6bd
000002f0: 7949 9f3d d865 0f3d a78b dd3b 56b0 4cbd
00000300: 77c7 b83d 4185 3abc 1b03 f5bb b31d d73c
00000310: 5130 90bc 392e d3bd ce22 bbbd 1292 82bc
00000320: 9a28 783c 2ecc 63bc 050b b4bd 304b 933d
00000330: 2c8e 593c 2dd9 743d d79c 8f3d ae9b d83d
00000340: 6c97 aebd 04d2 4abd 029c ba3d 6e9b 303c
00000350: 6d8d 09bd dc23 12bd 7923 cfbd a030 943c
00000360: 9a93 bd3d 95ad ddbd 0697 d53d 8b64 5a3d
00000370: 942f b9bd 3771 adbc 8385 90bd 48b6 aebd
00000380: acac 7ebd 0c43 df3d 3d20 3d3d 5cc2 06bd
00000390: 99f3 9ebd 595a c83d 4f9c aa3d ccd5 493d
000003a0: e837 873d 7a17 8bbd 4a1f 11bb f4de b6bd
000003b0: bd6c bc3d 7545 9ebd 28bb 9dbc abb1 9abd
000003c0: c353 0bbd b9d0 36bd 6657 9a3d defd c8bd
000003d0: fe60 cbbd 63df 45bd 3c62 31bd 3120 8e3c
000003e0: c16a c5bd 77da a4bd 64ed 9a3d dfc8 513d
000003f0: 1638 733d 8137 023d 7ae7 753d 994a 483d
-0.014641595 -0.04342062 -0.05036527 -0.03285546 0.041397106 0.053963892 0.047282968 -0.029394886
-0.07380973 0.0066819224 -0.082499005 0.01334395 -0.010561396 0.07939793 -0.043996017 0.004483839
-0.059859056 0.108873785 -0.103095226 -0.10193378 -0.09773518 0.036032613 0.051648047 -0.023534024
-0.0031606497 0.031316712 -0.027588569 -0.09167525 -0.038383026 0.07376688 0.048098013 -0.03998723
-0.041214004 0.030376943 -0.06154697 0.028246138 -0.012499899 0.07611896 0.09194489 -0.0020249216
0.06936388 -0.046493188 -0.0018189505 -0.004216411 0.04981437 0.05637013 0.054300796 0.02217416
-0.046031795 0.042901404 0.07552388 -0.028498767 -0.07818398 -0.021816013 0.10316137 -0.09212041
-0.08898593 -0.043375224 -0.058445293 0.052187946 0.043204475 -0.037857007 -0.073097765 0.08117271
0.060110662 0.08611674 0.014154646 -0.0643559 -0.102098964 -0.035495687 -0.04817649 0.069662064
-0.08328076 0.097973466 0.09600692 0.06266644 -0.021511069 0.053270727 0.09954607 0.025421238
-0.088168256 0.037234586 -0.018163472 0.10668816 -0.059941992 -0.036003932 0.032883815 -0.036729526
-0.012392422 0.09575258 -0.071491554 -0.0529341 0.10643446 -0.059795737 -0.046956867 -0.025646625
0.007490024 0.05851447 -0.032353446 -0.057502586 0.069557935 0.0037257457 0.059462033 -0.078573756
0.041626766 0.010099078 0.07073542 -0.010778336 -0.05235747 0.10624895 0.054718748 0.022946317
-0.06518405 0.005115936 0.033065327 0.0014806273 0.098207936 0.10089732 -0.053706963 -0.034794353
0.08708288 0.027352884 -0.07759358 -0.06857347 -0.10799225 -0.019956132 0.073655255 0.07661551
0.10370342 0.004185431 -0.08069479 -0.015293547 -0.049019877 0.03301344 -0.10916706 -0.06609746
-0.015485721 -0.0062399767 -0.07335938 -0.02478101 -0.058574997 -0.065960914 0.039216697 -0.022166597
0.06517733 -0.01916614 0.10474793 0.057238754 -0.09235782 0.055173054 0.08709649 0.05778087
0.07147055 0.08014698 0.032613777 0.05183682 0.059689157 0.092162706 0.055684045 -0.07568751
0.08883927 -0.074289456 -0.05683166 -0.00011346 -0.10789822 -0.07489252 0.025491165 0.03509714
0.07255846 0.0066070044 0.010278015 0.07204798 -0.010226967 -0.08013597 -0.027838828 -0.03711721
-0.03260011 0.098730884 0.06312923 -0.027147753 -0.077012315 -0.021908462 -0.10554306 -0.035573684
-0.07750691 0.080508925 0.10614502 -0.08926003 0.07777686 0.035009235 0.0067610326 -0.049972855
0.0902242 -0.011384309 -0.007477177 0.026259279 -0.017601164 -0.10311551 -0.09137498 -0.015938792
0.015146399 -0.013903661 -0.08791164 0.07192075 0.013278525 0.059777427 0.07012337 0.105765685
-0.08524975 -0.049516693 0.091117874 0.010779245 -0.03358214 -0.03567873 -0.10114188 0.018089592
0.092566684 -0.10824124 0.10429196 0.05331854 -0.09042278 -0.02117215 -0.07056715 -0.08530861
-0.06217639 0.1090146 0.046173323 -0.0329002 -0.07761306 0.097828574 0.08330595 0.04927616
0.0660246 -0.06791587 -0.0022143894 -0.08929244 0.09200428 -0.077280916 -0.019254282 -0.07553419
-0.03401543 -0.044632647 0.07536201 -0.09814046 -0.09930609 -0.04830874 -0.043306574 0.017349334
-0.09639502 -0.08049481 0.0756481 0.051216956 0.05937966 0.031791214 0.060035206 0.048899267

bias f4 [20]
00000000: 0ce6 d83c 1f78 4d3c 2112 c53d 9f29 1ebd
00000010: 55a4 ad3d cc77 a6bd bc85 c8bd 8689 253d
00000020: d99b 99bd 0c85 b6bc 1d5f 7d3d f761 bc3c
00000030: bfa0 3abb 6a2b 50bd 8103 13bc 8e9d c43b
00000040: d60e aa3d e3e3 71bd 9123 83bd 7fd4 3ebd
0.026476882 0.012540846 0.096225984 -0.03861391 0.084786095 -0.08128318 -0.09791133 0.040414356
-0.07500429 -0.022280239 0.061858285 0.022995932 -0.002847716 -0.050822653 -0.008973003 0.0060002273
0.08303611 -0.05905522 -0.06403268 -0.04658937

weight f4 [6, 20]
00000000: 258c 613e 306b f5bb e6d5 42be 8f9a ca3d
00000010: 4a7a 12be a6a0 36be 7665 1bbd d531 253d
00000020: f689 143e 5867 103e 6936 04be 55d3 08be
00000030: 7434 04be 666f 51bd 0466 94bd 917e 5c3e
00000040: 83f8 40be 87fa 473e e96f 253e fa3a 28be
00000050: 54ea 72bd a5b3 253c 62d4 51be 2adf dabd
00000060: 4f08 5b3e 9f4d 7d3d e05a ba3d 664e 503e
00000070: f27f d738 75de a83d e448 b33d 6755 62be
00000080: 1ffc 87bd 63db a7bd b287 1ebe cbc4 3fbd
00000090: f814 1c3e 471d 8cbd 6821 f03d d50b 1f3d
000000a0: 688c 2e3e b240 19bd 2ef0 173e c0a6 133e
000000b0: de55 1b3d 96d5 fabd 40f8 af3d 20e3 753c
000000c0: 4796 883d fd83 a3bd ee8d 1dbd bd55 a7bd
000000d0: 512a 473e c62d 2bbe 2126 54be 4bc8 613e
000000e0: d42f 333e fbf0 433e 7588 463e e0a6 6abd
000000f0: 5f00 0b3e f2d9 d3b9 4cf9 3a3d a293 19be
00000100: 169d 38be 710a 093e a3cb c8bc 87ad 463e
00000110: 5493 b33b 3c57 af3d faf4 d53d 9af7 8f3d
00000120: 1db3 46be 9839 6dbd 739a edbd b2d8 dabd
00000130: 89fa 5cbd f4f3 33bc 1899 6d3d b02e 133e
00000140: 44c3 3abe 2a96 12be 3c8a b83d 98e4 51be
00000150: 0657 133d 3d60 eabd 3fe2 8d3c 2114 613e
00000160: 1651 3dbe d622 64be 8031 b03d f136 8abd
00000170: dd1e c6bd 4b76 be3d 1844 f4bd 862f 92bd
00000180: 2977 093e a6cd 133e f5b5 61bd f24b 173e
00000190: a2f8 b03d bdd3 74bd 217e 1b3e 129b 01be
000001a0: eb9f 143e 683d b93d 6dfd 1c3e 3b36 da3d
000001b0: ba12 63be 3e5c 99bd 08a4 263d 4a63 3bbe
000001c0: c2f0 40be dda1 0fbe dac4 bcbd 8318 3cbd
000001d0: 44f0 363c 8b2f 493e e32c 373e 1ce4 333e
0.22026117 -0.0074895844 -0.19026908 0.09892761 -0.14304462 -0.1783472 -0.037938558 0.040330727
0.14505753 0.14101923 -0.12911381 -0.13361867 -0.12910634 -0.05113163 -0.072460204 0.21532656
-0.188448 0.19529162 0.16155972 -0.16428748 -0.059305504 0.010113631 -0.20491174 -0.106870964
0.21389888 0.061841603 0.09099364 0.20342407 0.000102758306 0.08245555 0.08754137 -0.22102891
-0.06639885 -0.081961416 -0.15481451 -0.046818536 0.15242374 -0.06841522 0.11725122 0.038829643
0.17045748 -0.037415214 0.14837715 0.14419079 0.037923686 -0.122477695 0.08592272 0.015007764
0.06669288 -0.07984159 -0.038465433 -0.0817065 0.19449736 -0.1671668 -0.2071767 0.22049062
0.17498714 0.19134896 0.19387992 -0.05728805 0.1357436 -0.00040407438 0.045647904 -0.14997724
-0.18028674 0.1338289 -0.024511164 0.19402133 0.0054802094 0.085615605 0.10447116 0.07029648
-0.19404264 -0.057916254 -0.116017245 -0.106858626 -0.053949866 -0.010983456 0.05800733 0.14373279
-0.1823855 -0.14315096 0.09010741 -0.20497358 0.035971664 -0.11444137 0.017319797 0.21980335
-0.18487963 -0.22278914 0.086031914 -0.067487605 -0.096738555 0.09299906 -0.1192705 -0.071379706
0.13424362 0.14433917 -0.05510517 0.14775065 0.08641173 -0.05977224 0.15184833 -0.12656811
0.14514129 0.090449154 0.1533105 0.10654875 -0.22175112 -0.07488297 0.040683776 -0.18299595
-0.18841842 -0.1402659 -0.09217234 -0.045921814 0.011165682 0.19647042 0.17888217 0.17567486

bias f4 [6]
00000000: 24c1 32be 20bc 2e3e 5103 dc3d 0025 75bc
00000010: 89f9 a3bd 09d9 1cbe
-0.1745649 0.17063951 0.1074282 -0.014962435 -0.080065794 -0.15317167

weight f4 [20]
00000000: 0000 803f 0000 803f 0000 803f 0000 803f
00000010: 0000 803f 0000 803f 0000 803f 0000 803f
00000020: 0000 803f 0000 803f 0000 803f 0000 803f
00000030: 0000 803f 0000 803f 0000 803f 0000 803f
00000040: 0000 803f 0000 803f 0000 803f 0000 803f
1.0 1.0 1.0 1.0 1.0 1.0 1.0 1.0
1.0 1.0 1.0 1.0 1.0 1.0 1.0 1.0
1.0 1.0 1.0 1.0

bias f4 [20]
00000000: 0000 0000 0000 0000 0000 0000 0000 0000
00000010: 0000 0000 0000 0000 0000 0000 0000 0000
00000020: 0000 0000 0000 0000 0000 0000 0000 0000
00000030: 0000 0000 0000 0000 0000 0000 0000 0000
00000040: 0000 0000 0000 0000 0000 0000 0000 0000
0.0 0.0 0.0 0.0 0.0 0.0 0.0 0.0
0.0 0.0 0.0 0.0 0.0 0.0 0.0 0.0
0.0 0.0 0.0 0.0

running_mean f4 [20]
00000000: 0000 0000 0000 0000 0000 0000 0000 0000
00000010: 0000 0000 0000 0000 0000 0000 0000 0000
00000020: 0000 0000 0000 0000 0000 0000 0000 0000
00000030: 0000 0000 0000 0000 0000 0000 0000 0000
00000040: 0000 0000 0000 0000 0000 0000 0000 0000
0.0 0.0 0.0 0.0 0.0 0.0 0.0 0.0
0.0 0.0 0.0 0.0 0.0 0.0 0.0 0.0
0.0 0.0 0.0 0.0

running_var f4 [20]
00000000: 0000 803f 0000 803f 0000 803f 0000 803f
00000010: 0000 803f 0000 803f 0000 803f 0000 803f
00000020: 0000 803f 0000 803f 0000 803f 0000 803f
00000030: 0000 803f 0000 803f 0000 803f 0000 803f
00000040: 0000 803f 0000 803f 0000 803f 0000 803f
1.0 1.0 1.0 1.0 1.0 1.0 1.0 1.0
1.0 1.0 1.0 1.0 1.0 1.0 1.0 1.0
1.0 1.0 1.0 1.0

weight f4 [6]
00000000: 0000 803f 0000 803f 0000 803f 0000 803f
00000010: 0000 803f 0000 803f
1.0 1.0 1.0 1.0 1.0 1.0

bias f4 [6]
00000000: 0000 0000 0000 0000 0000 0000 0000 0000
00000010: 0000 0000 0000 0000
0.0 0.0 0.0 0.0 0.0 0.0

running_mean f4 [6]
00000000: 0000 0000 0000 0000 0000 0000 0000 0000
00000010: 0000 0000 0000 0000
0.0 0.0 0.0 0.0 0.0 0.0

running_var f4 [6]
00000000: 0000 803f 0000 803f 0000 803f 0000 803f
00000010: 0000 803f 0000 803f
1.0 1.0 1.0 1.0 1.0 1.0
