cnnQLearning/DQN.pt (torch, 22809 bytes, 19 tensors)

weight f4 [32, 3, 3, 3]
00000000: 1bd0 153c 66b1 a63d b3dd 82bd 0b84 abbb
00000010: 9a1f 9a3d 465f 1d3e 7852 d1bd 9908 a43d
00000020: 1652 5e3c c256 40be 1be5 143d f49a 0e3d
00000030: 60e1 173e 1c59 4abd e651 213e de33 afbd
00000040: 0e60 86bd b267 36be c1d2 1f3e b491 103e
00000050: 519e 6abd b8d6 b63d d1f7 10be cad0 0e3e
00000060: 3f93 3f3e 698b 3bbe 8368 043e a23e 4a3d
00000070: d2ed afbd 5ffd 743d d8a0 f23d 25b7 0d3e
00000080: 1912 feba 6101 b63c d2e9 26be b7b5 33be
00000090: c3ad 213e 55b4 e9bd 8e4e 2b3d 4ef6 10bd
000000a0: a89c 29be 0ac9 30be fb31 d83d c2f0 04bd
000000b0: aba0 173d e47a 3d3e 5a63 fbbd 10d5 2e3e
000000c0: 0e98 5d3d 6558 243e 6cfa 1cbe 24f4 05bd
000000d0: 2ea0 053d 8317 43bd d715 18bd 64a5 81bd
000000e0: ecab 40bd 3835 403e e50b 82bd aba1 bd3d
000000f0: ad80 503d f97b d33d 88b3 693d f940 d0bd
00000100: 1a7b 0fbe 20a5 3ebe 8baa ae3d 3f21 393e
00000110: fe19 9ebd 9d66 2e3e 8d8e 053c 86a8 d33d
00000120: 730f 9dbc 78f7 b13d fc00 39be a656 fbbd
00000130: 0374 37be 1d36 b13a bb47 bfbd c6f5 1a3d
00000140: 7c97 1bbe fb61 39be 140b c13d f21e 21be
00000150: 6252 993d e09d 5ebd 4d44 e9bd ed62 263e
00000160: 2c71 8dbd 057c dd3d 46f4 9ebd bf5b 6bbd
00000170: 73c0 ff3d 8fc3 543d 5f89 3f3d c744 403e
00000180: e7ea fcbd a790 14bd 265c 74bc c9bb 313e
00000190: 29d4 32be 528b 25bd 81c9 6ebd ac6e 9abd
000001a0: 5667 3bbe d000 c83c bdca b73d 988e bfbc
000001b0: a835 843d 9f05 113e 729d 21be 1b7c 6fbd
000001c0: 3333 263e e4c8 043d df4a 4e3d 2c85 67bd
000001d0: 5c54 ed3d e365 09be 3e5f 433c 1ba3 41be
000001e0: db0f fcbd 90e8 043d 7a9e 183d 36d9 66bd
000001f0: 3b3f 3e3e fcea b03d 1b47 b53d 37fd 19be
00000200: 2aa6 b7bd 9dc1 0f3d 0461 363e d2c5 3e3d
00000210: 347a 073e 1081 00be 9ffb fe3d 77d7 3e3e
00000220: 896a a73d 22ea e73d cadb 373e 8785 46bb
00000230: 95bd 3bbe ab44 13be a312 8b3d 3b5e ff3d
00000240: 9bd8 eb3d 2724 8f3d e6ae 0a3d 5452 a5bd
00000250: 9682 0ebe 7e41 08be 845a 783c 6f11 0f3d
00000260: b384 25be 0edd 2cbe 469b 1f3d 04f4 833d
00000270: ac7d 373d ea83 153e aa6c 263c 800b 13be
00000280: 7468 b53d 2246 d2bd 499e 3ebe 0305 8e3d
00000290: e91c 233e 8225 9e3d 8b74 d4bd ac4d 7cbd
000002a0: 7364 1e3e fd19 0a3e 7ba3 113e ae04 d4bd
000002b0: 8642 dd3c f590 a33d 5656 dc3c 8312 963c
000002c0: 3dae 2fbe 167e 25bd 6b97 30be 734a 443e
000002d0: ec13 093e 049c 863d 1371 1c3d e94c 2fbe
000002e0: fec4 16be eef1 36be b216 9dbd e844 b4bd
000002f0: 292d ab3d 1074 0bbe 0583 993d 35eb 3c3e
00000300: 0819 44bd 08ff aa3d 2a78 933d 02ca f93c
00000310: 1103 13be 0b8b 323d 6aa0 9c3d 8a6e 8e3d
00000320: 2a03 2abe 5d75 413e 1a01 c63d 248b 7fbd
00000330: 8a15 3abe a844 f23d 16f8 03be 3f6e cc3d
00000340: aa02 2c3d bda5 403e 91d3 16bc c7d7 513b
00000350: 8cd2 fdbc 2b10 a5bc 82f0 40bd 717a a03d
00000360: c927 3d3c 8fea d2bd 2df8 30be 309c 1bbe
00000370: 4b39 6fbc 3c55 19b9 336d f8bd 6f46 b0bd
00000380: 5c66 b73d f260 063d a167 1c3e 497b 39be
00000390: f56a d1bd d62e 143e 80f7 353e 8c22 a5bd
000003a0: d8eb 23be 61ae f2bd 5057 c83d a10a 2bbb
000003b0: 7165 433e 1024 3abe 2a80 2abe 377f 343e
000003c0: 1d58 a93d 65c5 b33d 3df0 c33c 4762 99bd
000003d0: 9bee 10be d0fb 5dbd f935 6c3d 18f4 c2bd
000003e0: 12c5 5c3d 3819 3f3e ffb1 01be 4ec4 a8bd
000003f0: eba5 c03d a03e 4b3a c5d0 7bbc 0ac4 88bc
0.0091438545 0.08139305 -0.06389942 -0.0052342466 0.07525559 0.15368375 -0.10220808 0.080094524
0.0135693755 -0.18783095 0.036351305 0.034815744 0.14832067 -0.049401388 0.15753898 -0.08554815
-0.0656129 -0.17812994 0.1560774 0.14118081 -0.05727989 0.08927673 -0.14157034 0.13946834
0.18708514 -0.183149 0.12930493 0.049376138 -0.085902825 0.059811946 0.11847085 0.13839395
-0.0019384056 0.022217454 -0.16300133 -0.17549787 0.15788941 -0.11411349 0.041822962 -0.035391144
-0.16563666 -0.1726419 0.10556408 -0.032456167 0.03701846 0.1850391 -0.12274809 0.17073464
0.05410009 0.16049345 -0.15329903 -0.032703534 0.032623462 -0.047629844 -0.037130203 -0.06330374
-0.047038957 0.18770301 -0.06349925 0.09259351 0.050903965 0.1032638 0.05705598 -0.101686426
-0.14011803 -0.18617678 0.08528622 0.18079089 -0.07719801 0.17031331 0.008151663 0.10334878
-0.019172406 0.08689779 -0.18066782 -0.12272386 -0.17915349 0.0013520155 -0.093398534 0.037832044
-0.15194505 -0.18103783 0.09425941 -0.15734461 0.074864164 -0.05434978 -0.113899805 0.16248675
-0.069063514 0.108146705 -0.07761435 -0.057460543 0.12487879 0.05194431 0.046761867 0.18776236
-0.123494916 -0.036270764 -0.014914548 0.1735679 -0.17463745 -0.04041607 -0.058297638 -0.0754064
-0.18301138 0.02441445 0.08974216 -0.023383424 0.064555466 0.141623 -0.15782717 -0.058467966
0.16230468 0.032418147 0.05036437 -0.056523487 0.11588356 -0.13417773 0.011924563 -0.18909876
-0.12307712 0.03244835 0.03726051 -0.056359492 0.18578808 0.0863857 0.08851453 -0.15038
-0.0896724 0.035096753 0.17810446 0.046575375 0.1323021 -0.12549233 0.12450337 0.18636881
0.08174617 0.11323954 0.17954937 -0.003029199 -0.18334039 -0.14381664 0.06790664 0.12469145
0.115159236 0.069893174 0.033858202 -0.080723435 -0.13917002 -0.13306233 0.015158299 0.034928735
-0.16163902 -0.168812 0.03896644 0.06443027 0.044797584 0.14601102 0.0101577435 -0.14359856
0.088578135 -0.10267283 -0.18615068 0.0693455 0.15928997 0.07721998 -0.10373791 -0.06159751
0.15468006 0.13486476 0.14222519 -0.10352455 0.02700926 0.07986633 0.026896637 0.018319374
-0.1715631 -0.040403448 -0.17245261 0.19169025 0.13386506 0.06572726 0.038193773 -0.17119183
-0.14723584 -0.17865726 -0.076703444 -0.08802205 0.08358223 -0.13618493 0.07495693 0.184491
-0.047875434 0.083494246 0.07200654 0.030491833 -0.14356638 0.043589633 0.07647784 0.069546774
-0.1660277 0.18892427 0.09668179 -0.062388554 -0.18172279 0.118295014 -0.12887606 0.09981965
0.04199473 0.18813224 -0.009205715 0.0032019482 -0.030984186 -0.020149311 -0.047104366 0.07835854
0.01154513 -0.10298645 -0.17282172 -0.151963 -0.014601062 -0.0001462297 -0.12130203 -0.08607184
0.089550704 0.032807298 0.15273906 -0.18113436 -0.102254786 0.14470991 0.17770195 -0.0806323
-0.16007936 -0.118496664 0.097822785 -0.0026098865 0.19081666 -0.18177819 -0.16650453 0.17626654
0.082687594 0.087778844 0.023918265 -0.07489448 -0.14153521 -0.054195225 0.05766866 -0.095192134
0.05389888 0.18661964 -0.12665556 -0.08240567 0.09406646 0.00077531673 -0.015369599 -0.016695041

bias f4 [32]
00000000: f7fa d53c 5d41 1a3d d1da 3abe 2a5e 2fbe
00000010: f8b2 87bd f877 6a3d 244b f5bd 1a41 f5bb
00000020: 866b 923d 560e 123e f6c1 d1bd 7e95 673d
00000030: 6d73 2ebe 2789 0b3e 5c34 f43d 575d 37be
00000040: 4a28 22be 4f5b 3b3c fd50 1e3e 60f3 e93d
00000050: 536b b6bd dc09 5bbd c890 e4bd 7115 443e
00000060: c012 1f3c 7acd 073e 4a34 30bd 3ec2 2f3e
00000070: f9ea 6b3d 0b92 3fbe e942 bfbb 09a9 86bc
0.026120646 0.03765999 -0.18247534 -0.17125764 -0.066259325 0.057243317 -0.119772226 -0.0074845674
0.07149415 0.14263281 -0.10242073 0.05653905 -0.17036219 0.13626538 0.11924049 -0.179067
-0.15835682 0.011435344 0.15460582 0.11423373 -0.08907189 -0.0534762 -0.11160427 0.19148804
0.00970906 0.13261977 -0.043018617 0.17163941 0.057597134 -0.18708055 -0.0058368337 -0.016438024

weight f4 [1, 32, 3, 3]
00000000: c505 2c3d d3ee 333c 1579 babc 1d33 683d
00000010: e516 883b 9ec3 023c f31a 50bd 1df1 b93c
00000020: 6f98 433d 2840 563c 6253 afbc b489 88bc
00000030: 1827 083c 3cbe aebc 90d1 2cbd 22cf 6b3c
00000040: 4f6e 2a3c 5690 02bc f175 423d 5912 4cbd
00000050: 5fca cdbc 4e3b c8bc 069e 62bd 9431 e4bc
00000060: 5745 b1bc ebee 35bc c37e de3b 788b 1fb7
00000070: fd92 9fbc 1b7b 263d f46d 16bc 05c4 1f3d
00000080: b29b ca3c 9d51 003d b389 863c e2c6 0abc
00000090: 77d9 5bbc 18a0 c23c 0fd5 163d 2efd 753c
000000a0: 03b4 073d a82b c63c 3ae3 dabc cd8f fbbb
000000b0: d764 c0bc 68da ffbc 7e90 173d 33c8 3abd
000000c0: 5776 033d fe2f 6dbd 08cc 58bc a456 693d
000000d0: 2827 2abd 3ac5 5d3c 2851 3a3d e720 1c3d
000000e0: 4a03 01bd 7304 93bc d655 58bd 327d 04bc
000000f0: 377a 8e3c 7256 763c 8ec6 a03c 48ce c6bb
00000100: f084 25bc 2518 f73c 0268 cbbc ba45 70bd
00000110: 5d5a b83c 4c9a 59bd 8853 183a 9b1b 3fbd
00000120: 2d86 64bb 4bb2 51bd c080 5fbc b40a a4bc
00000130: 773e 453d 79b5 343d c268 1abd 9562 a43c
00000140: 7204 a7bc 3f6f 16bd cc11 0abd ffc5 0fbc
00000150: 69b9 943c 6d15 babc 8a0f adbc 4e14 0d3c
00000160: 4722 16bd 750f 333c 830e 1cbd 8e77 913c
00000170: df95 cdbc 1003 ae3c f21d 323d cb85 94bc
00000180: d3a0 223d 5ab7 26bd 414a 2c3d 61c5 34bd
00000190: 861b 09bd b8ae c73c 9c00 563c 7817 583d
000001a0: c0a6 59bd e3a5 4a3c 37b3 aebc 9c7a 6d3d
000001b0: 95e5 c93b 5468 46bd a1ef 0abc 4e1c 2c3d
000001c0: 77a7 903c d050 f83c 90cb 6c3d 62de 583d
000001d0: 2df3 41bd b8bc 223d 231a b5bc ff33 303d
000001e0: 8147 61bd 4335 0cbb 53d8 573c 4c39 66bd
000001f0: abd5 1cbd cbf4 5e3d 3d04 b53c 2dbb 273d
00000200: d9a7 2a3d bbc8 30bd 52ef 3fbd fa36 a7bc
00000210: 4664 70bd c856 0ebd a7a3 fabc f26e da3c
00000220: 5e2d 8a3c 998d 0abd 52f3 3bbd 5198 c1bc
00000230: bca4 9ebb 0a56 193d 24aa 4f3d 8880 43bd
00000240: d345 05bd a1e6 593c 8619 ecba 11e2 4dbd
00000250: f5c2 413d a0e2 a2bc c402 67bd 0b88 b9bc
00000260: b769 223d 2957 b73c 8f77 903c 71c6 6c3c
00000270: 2d95 45bd b614 4e3d 6752 08bd e13c 1abb
00000280: 0344 6a3d 0090 4f3d d823 073d 5e35 60bd
00000290: 0f54 14bd 0876 7e3c b766 3b3b 6d0f 5fbd
000002a0: f1b1 7fbc 482a c2bc 295a 8a3b 8567 4abd
000002b0: da8d 21bc 1ea8 8dbc 0224 e33c e87d 773c
000002c0: bab7 40bd 1d2b ffbc 0e79 953c 0fb0 653c
000002d0: 696d 443d 85ff 18bd d5d0 f9bc 0a25 263b
000002e0: be9d 353d cd87 053d 0e3d 963c 3856 24bd
000002f0: dcde e23c 05ed dbbc 25e3 cc3b 9c2d 33bd
00000300: 63b6 093d 185c 1c3d d5b0 f1bb 7947 da3c
00000310: b345 073d 1eff 063d 5676 4d3d 1fc6 4a3d
00000320: 947b 1c3d fe17 543d 2a46 c1bc 4a1d 08bc
00000330: cedb 81ba f4bc 863c 9185 18bd c044 e1bc
00000340: 4930 70bd a515 5b3b ee32 a3bc db7d 95bb
00000350: 485b 6abd 5a21 08bd 4ef5 23bd f0b7 e1bc
00000360: 51aa 5bbd f158 403d 28c5 513d 0a79 5d3c
00000370: 6ae8 8ebc 157e 59bc aab3 833b 476b 913c
00000380: f778 493b 276c 603d 55f3 d13b ee85 4ebb
00000390: d55e d63b 05f8 d9bc 9731 ab3b 495f bbbb
000003a0: aac1 cbbc 965b e73c 28ce adbc 058d 15bd
000003b0: 3d85 55bd 53bc b0bc 4ea6 c3bc 6e68 a3bc
000003c0: f7cc 513b b1e9 b1bb ab70 023b 9fd4 15bd
000003d0: 546e 70bd 37ae 32bc dcde 38bd 1575 313c
000003e0: a0d4 99bc 925d e93b 415b 713c 35d9 49bd
000003f0: e5dc 28bd f5dd 68bd 8c58 fd3c 2b97 5cbd
0.04199769 0.010982233 -0.022762815 0.05668937 0.00415312 0.007981209 -0.05080695 0.02269798
0.047752794 0.0130768195 -0.021402065 -0.016667224 0.008310102 -0.021330945 -0.042192042 0.014392646
0.010402276 -0.007968983 0.04747576 -0.049822185 -0.025120912 -0.024442341 -0.055326484 -0.027855672
-0.02163951 -0.011104326 0.0067900135 -9.509611e-06 -0.01947927 0.040644746 -0.009181488 0.0390053
0.024732444 0.031327832 0.016423082 -0.008470269 -0.013418547 0.02375798 0.036824282 0.015013976
0.033130657 0.024190739 -0.026719678 -0.0076770545 -0.023485584 -0.031232074 0.037003033 -0.04560108
0.03209528 -0.057907097 -0.013232239 0.056967393 -0.04154125 0.013535792 0.045487553 0.038117316
-0.031497277 -0.017946457 -0.052816235 -0.0080864895 0.017392261 0.015035259 0.019625928 -0.006067071
-0.010102496 0.03016288 -0.024829868 -0.058660246 0.022504026 -0.053125665 0.0005810787 -0.046657186
-0.0034870014 -0.051195424 -0.013641536 -0.020024635 0.048155274 0.04411838 -0.03769756 0.020066539
-0.020387862 -0.036727186 -0.03370838 -0.008775233 0.018154817 -0.022715295 -0.021125574 0.008610798
-0.036653783 0.010928978 -0.038099777 0.017757203 -0.025095878 0.021241695 0.04348559 -0.018130204
0.039704155 -0.0407022 0.042063 -0.044133548 -0.033473514 0.024375305 0.013061669 0.052756757
-0.05313754 0.012368652 -0.02132569 0.057978258 0.0061614015 -0.04843934 -0.008479984 0.04201918
0.017657978 0.030311972 0.05781132 0.052946456 -0.04735105 0.039730757 -0.02210719 0.043018337
-0.054999832 -0.002139405 0.013174134 -0.056206986 -0.038289707 0.05443267 0.022096748 0.04094999
0.04166398 -0.04316018 -0.046859093 -0.020411957 -0.05868938 -0.03475073 -0.030595614 0.026664231
0.016867336 -0.033826444 -0.045886345 -0.0236322 -0.004841415 0.03743557 0.050699368 -0.04773
-0.032537293 0.013299615 -0.0018012978 -0.05026442 0.047305066 -0.019883454 -0.056399122 -0.022647878
0.0396516 0.022380428 0.017635135 0.014451609 -0.04823797 0.05031272 -0.03328171 -0.0023534822
0.057193767 0.05067444 0.032993168 -0.054738395 -0.036212977 0.0155310705 0.0028595158 -0.05445807
-0.015606389 -0.023701802 0.0042221737 -0.04941513 -0.00986048 -0.017292079 0.02772713 0.015105702
-0.047050215 -0.031148488 0.0182462 0.014019026 0.047955904 -0.037353057 -0.030495087 0.0025351667
0.044339888 0.032600213 0.01833966 -0.040121287 0.027694158 -0.026846418 0.0062526637 -0.04374467
0.033621203 0.038173765 -0.0073758163 0.026645409 0.033025455 0.032958142 0.050161682 0.04950535
0.03820379 0.051780693 -0.023593027 -0.008307764 -0.0009907426 0.016447522 -0.037236754 -0.027498603
-0.0586398 0.003342965 -0.019921746 -0.0045621223 -0.05721596 -0.03323493 -0.040028863 -0.027553529
-0.053629223 0.04695982 0.051213413 0.0135176275 -0.017444808 -0.013274689 0.0040192204 0.01775135
0.0030742267 0.054790642 0.0064071813 -0.0031512934 0.0065420666 -0.026607523 0.0052244174 -0.005718146
-0.02487262 0.028241914 -0.021216467 -0.03651144 -0.05212902 -0.021574175 -0.023883011 -0.019947257
0.0032013038 -0.0054294695 0.001990358 -0.036579724 -0.058698967 -0.010905794 -0.04513441 0.010831137
-0.018778145 0.00712175 0.014731229 -0.04927941 -0.041226286 -0.0568523 0.030926012 -0.053855103

weight f4 [32]
00000000: 4603 803f 4603 803f 4603 803f 50f9 7f3f
00000010: 50f9 7f3f 50f9 7f3f 50f9 7f3f 4603 803f
00000020: 50f9 7f3f 4603 803f 50f9 7f3f 4603 803f
00000030: 50f9 7f3f 4603 803f 4603 803f 4603 803f
00000040: 4603 803f 50f9 7f3f 4603 803f 50f9 7f3f
00000050: 50f9 7f3f 50f9 7f3f 50f9 7f3f 4603 803f
00000060: 50f9 7f3f 50f9 7f3f 4603 803f 4603 803f
00000070: 50f9 7f3f 50f9 7f3f 50f9 7f3f 4603 803f
1.0000999 1.0000999 1.0000999 0.99989796 0.99989796 0.99989796 0.99989796 1.0000999
0.99989796 1.0000999 0.99989796 1.0000999 0.99989796 1.0000999 1.0000999 1.0000999
1.0000999 0.99989796 1.0000999 0.99989796 0.99989796 0.99989796 0.99989796 1.0000999
0.99989796 0.99989796 1.0000999 1.0000999 0.99989796 0.99989796 0.99989796 1.0000999

bias f4 [32]
00000000: 62d5 d338 62d5 d338 62d5 d338 62d5 d3b8
00000010: 62d5 d338 62d5 d338 62d5 d338 62d5 d3b8
00000020: 62d5 d3b8 62d5 d3b8 62d5 d338 62d5 d338
00000030: 62d5 d3b8 62d5 d3b8 62d5 d338 62d5 d3b8
00000040: 62d5 d3b8 62d5 d3b8 62d5 d338 62d5 d3b8
00000050: 62d5 d338 62d5 d3b8 62d5 d3b8 62d5 d338
00000060: 62d5 d3b8 62d5 d3b8 62d5 d338 62d5 d338
00000070: 62d5 d3b8 62d5 d338 62d5 d3b8 62d5 d338
0.0001010101 0.0001010101 0.0001010101 -0.0001010101 0.0001010101 0.0001010101 0.0001010101 -0.0001010101
-0.0001010101 -0.0001010101 0.0001010101 0.0001010101 -0.0001010101 -0.0001010101 0.0001010101 -0.0001010101
-0.0001010101 -0.0001010101 0.0001010101 -0.0001010101 0.0001010101 -0.0001010101 -0.0001010101 0.0001010101
-0.0001010101 -0.0001010101 0.0001010101 0.0001010101 -0.0001010101 0.0001010101 -0.0001010101 0.0001010101

running_mean f4 [32]
00000000: 8951 603e 80f4 f43c 8fab 8dbe 6718 91be
00000010: 91c4 aa3d 86e2 ea3d 14e4 17be af08 3f3e
00000020: ec77 e8bd f0d5 84bc 8c98 63bb f763 9ebd
00000030: a8db 00bf 0dd3 63be 4a0b 93be e474 f5be
00000040: 6601 35be 38a1 003e ecb9 40be 04e5 d43e
00000050: ecc0 49bd b4ef 5fbe 07c1 f1bd ff71 a0bd
00000060: 7630 56be dc95 85be b67f 693d 33b9 fc3d
00000070: 5721 523e 67a8 8ebf 66b8 3dbb 2074 89be
0.21906103 0.029901743 -0.2766995 -0.2833893 0.08338273 0.11468987 -0.14833099 0.18655656
-0.11350998 -0.016215295 -0.0034728376 -0.077339105 -0.5033517 -0.22248478 -0.2871955 -0.47940743
-0.17676315 0.125615 -0.18820924 0.41580975 -0.04925625 -0.21868783 -0.11804395 -0.07834243
-0.20916924 -0.26090896 0.05700656 0.123400114 0.2052053 -1.1145142 -0.0028949021 -0.2684641

running_var f4 [32]
00000000: 5b20 513b db26 1b3b ce60 8c3b 2e98 793b
00000010: f52c 1f3b 2cba 0a3b 1396 033b ec20 183b
00000020: 04bc 3a3b d915 0e3b c563 a93a 0895 dd3a
00000030: c424 a53a eab4 be3a ba57 2f3b 5fc9 6b3b
00000040: 51d9 693a a9e6 433b f36d 4d3b f8a9 853b
00000050: e37b 663a 5119 9f3b 8900 8c3a c3f4 cf3a
00000060: f25f f03a 1df4 123b dca7 113b c1f5 773b
00000070: 8fc2 f63a fde5 d23b 3b57 e43b 9224 393b
0.0031910155 0.0023674283 0.004284001 0.003808509 0.002428827 0.0021168096 0.0020078465 0.0023212982
0.0028493414 0.0021680503 0.001292341 0.0016905377 0.0012599458 0.0014549766 0.002675517 0.003597818
0.00089206273 0.0029892123 0.0031346052 0.0040790997 0.0008792264 0.004855313 0.0010681312 0.0015865791
0.0018339141 0.0022423335 0.0022225296 0.003783569 0.0018826294 0.006436108 0.0069684065 0.0028250557

weight f4 [20, 84]
00000000: 3c05 09bd 26a6 70bd e848 2b3b 4c19 f2b9
00000010: cb25 acbd ab92 8f3d 048a 003c 50b9 913d
00000020: 8b6e b43c 9fe5 203d 883c 4c3d d0b8 02bd
00000030: 3597 17bd e506 8f3d cba9 af3c 8f6a d6bd
00000040: 714c 8bbd 2d9a b8bc 4739 f0ba 1566 afbd
00000050: 93cf 8e3c b1bb bebd 555e 1b3d ead5 a6bc
00000060: ee96 a0bd 33f6 6e3d b81f cbbb c425 11bd
00000070: f51d 563d 492e 4ebd 6f35 88bd 2c44 8dbc
00000080: 2f85 573c 86b7 b6bd ab24 a2bd 35b3 5ebd
00000090: ee42 ccbd e9e9 57bd 9e67 4a3d d363 8f3d
000000a0: 17a2 573c 2350 b43d 03a8 8d3d 5456 263d
000000b0: e1de 193d 3296 a6bc c499 febb 7bfd a13d
000000c0: 72ff b9bd 07f4 2ebd 2a4e d23d c89b 833d
000000d0: b746 c73d 82bf 4ebd cfca 843d 062b 8e3d
000000e0: 4eee 7c3d 2fca 663d fbeb 393d 2847 5e3d
000000f0: 8af1 85bd 97fe 38bc 5a3e bbbd 8ed1 993d
00000100: 959e ac3d 4f69 cc3d c0f3 28bd 50ce dcbd
00000110: 3c24 893d 7050 593d 9f72 de3c 03cc dabd
00000120: 55cb d23d 1572 97bd ed00 d53b f9e8 bd3c
00000130: 48d0 85bd f8df dd3c 1361 6e3d 8592 d3bd
00000140: 3b5f 343d fdd3 30bd eef9 90bd 1d4e af3d
00000150: b8d6 ecbc 2d16 84bd 7aa7 d7bd 7478 3aba
00000160: 5a96 753d 65fb 5ebd 93e5 49bc 5be3 1f3d
00000170: c4e2 1b3d b118 903d 0b73 a9bd 426d 6dbd
00000180: 1dbc 81bd db4f b83d 5dbe bbbd 8c51 d3bd
00000190: eb0d 1f3d 6525 26bc 198a 22bd 5611 d93c
000001a0: 951f 9c3d cb14 963d 0a3c 913c 2a3d 363d
000001b0: 0507 24bc 9bc9 acbd 4429 873d c119 d03d
000001c0: e0ed 543d efe3 943d 5435 b3bd 7712 21bd
000001d0: 6a59 56bd 9cc6 523d 81af a53c a828 73bc
000001e0: f144 5ebb 45d3 9dbd c144 cebd 5497 1d3d
000001f0: 6b84 413c 21d3 b2bd a84c 92bd 9ca6 3abd
00000200: 7181 81bd 7796 8abb 136c 1e3d c419 b2bb
00000210: fa32 5ebd 9c69 be3d b23e 323d 261f cd3c
00000220: 4305 483c 23d3 b93d 823e d9bb 2a73 343d
00000230: 7fb1 4cbd eff2 7e3b 4b9d af3d 1410 b43b
00000240: 8c69 dd3d d441 aebc bd67 bcbd 7f4f 25bd
00000250: 8644 54bd f45d 3839 6843 133d 8cc7 6dbd
00000260: 5662 9ebd e225 43bd 310e 3ebd 09a9 7f3d
00000270: 533b 5d3d fcfc 95bd 977a 893b 64be b9bd
00000280: 67d0 953d 6635 d53c b1ba debc 5ee6 8a3d
00000290: 31ba 7c3d b1d8 9c3d 8da7 00bd 9d07 b4bd
000002a0: 8e48 15bd b214 d5bc 6555 d6bd 8824 bb3c
000002b0: 9c51 593d b780 4fbd 526f 2f3d 9660 d6bd
000002c0: 009d f3bb 82d9 36bd 572a 74bd 432d 443c
000002d0: 72cc abbd 996c 413d 7a63 51bc 1e7f 363d
000002e0: f7d7 d53d 0715 7a3c b532 a33d 8498 bcbd
000002f0: 0f50 b43d ff8e b9bd bb0c 28bd 6827 9f3d
00000300: 060a 323d 72ff 813d 393f a13c 02e8 db3d
00000310: d2d8 90bd b49c c9bd 9690 aabd 0ee0 d63c
00000320: beb6 2ebd 0f18 20bd 1900 903d 519b 5fbb
00000330: 2d88 dc3c a6f5 6f3d 73e2 beba d0b6 b1bd
00000340: 034e cabb bbb7 2c3d ef10 87bd f287 c7bd
00000350: 732c 44bc 483a bd3d 9940 4a3d d427 8fbd
00000360: f90d af3d d980 c4bd 46d4 18bd a6db 8e3d
00000370: a529 7a3d 15f8 083d 4e84 bd3d 1654 963b
00000380: 961a bcbd 3a11 d4bc 48a1 8e3d 4d02 963d
00000390: df13 a2bd a772 2c3d 8c08 73bd 36bf 85bd
000003a0: c87e 143d 056c af3d ef1d c6bd 386b 74bd
000003b0: 161f 933d 54de 14bd f387 3fbb af06 7d3c
000003c0: 0833 8d3d 14fd ca3d 7299 763d 9e4a 98bd
000003d0: bc12 bcbc 24cf b8bd 71b5 67bc a341 84bd
000003e0: 22f8 b5bd df59 dbbd b7ba 873b 3cd2 143d
000003f0: 0c15 d6bd 102f b03c c5c1 a23d 51c2 773d
-0.033452258 -0.0587522 0.0026135985 -0.00046176685 -0.08405646 0.070103966 0.0078454055 0.07115424
0.022025367 0.039281484 0.049862415 -0.031914532 -0.037009437 0.06983737 0.021443268 -0.10469543
-0.068016894 -0.022534454 -0.0018327617 -0.085643925 0.017432963 -0.09313143 0.03793176 -0.020365674
-0.078412876 0.058340263 -0.0061988495 -0.035436407 0.052274663 -0.05033711 -0.06650817 -0.017244421
0.013154312 -0.08921723 -0.0791715 -0.054370124 -0.09973703 -0.05271331 0.049415223 0.07001462
0.013161204 0.08804347 0.06916811 0.040609673 0.03756607 -0.02033529 -0.007769795 0.07909676
-0.090819255 -0.04271319 0.10268815 0.06426197 0.09730285 -0.050475605 0.06483995 0.069418
0.061750703 0.05634516 0.045391064 0.05426708 -0.065402105 -0.011291168 -0.09142752 0.075106725
0.084286846 0.099810235 -0.041248083 -0.107815385 0.06696364 0.053055227 0.027154265 -0.106834434
0.10292689 -0.07394806 0.0065003545 0.02318238 -0.06533867 0.027084336 0.058198046 -0.10330681
0.04403613 -0.043170918 -0.0707892 0.08559821 -0.02891098 -0.06449542 -0.105299905 -0.0007113286
0.05995784 -0.054438967 -0.012322801 0.039035182 0.038058057 0.070359595 -0.08273896 -0.057965524
-0.06334708 0.08999606 -0.09167168 -0.10318288 0.038831633 -0.0101407515 -0.03968248 0.026497524
0.07623211 0.07328185 0.017728824 0.044491924 -0.010011439 -0.08436891 0.06599668 0.10161162
0.051984668 0.072700374 -0.08750406 -0.03932425 -0.052331366 0.05145894 0.020225288 -0.014841236
-0.0033915604 -0.07706312 -0.100717075 0.038474396 0.011811356 -0.08731676 -0.07143527 -0.045569047
-0.06323517 -0.0042293626 0.038677286 -0.0054352004 -0.054247834 0.09297487 0.043516822 0.025039267
0.012208286 0.09073474 -0.006629766 0.04405514 -0.04997396 0.0038902124 0.08574923 0.0054950807
0.10811147 -0.021271624 -0.09199474 -0.040359017 -0.05182316 0.00017582608 0.035952955 -0.05805163
-0.077336 -0.04764355 -0.046400253 0.062417064 0.054011654 -0.073236436 0.004195522 -0.09069517
0.0731514 0.026026439 -0.02718863 0.0678222 0.061701003 0.07658518 -0.03140979 -0.087905146
-0.036446147 -0.026010845 -0.104655065 0.022844568 0.053056344 -0.05065986 0.042830773 -0.10467641
-0.0074344873 -0.044641025 -0.05961069 0.011973682 -0.08388604 0.047222707 -0.012780065 0.044554822
0.10441583 0.015263802 0.07968656 -0.092087775 0.088043325 -0.090604775 -0.041027766 0.07771188
0.04346659 0.063475505 0.019683467 0.10737611 -0.07072605 -0.09844342 -0.08328359 0.026229884
-0.042654745 -0.039085444 0.070312686 -0.0034119675 0.026920402 0.058583878 -0.0014563337 -0.08677447
-0.0061738505 0.042167407 -0.06595027 -0.097427264 -0.011973488 0.09239632 0.04937801 -0.069900185
0.08547587 -0.09594888 -0.037311815 0.06975488 0.06107487 0.033439714 0.09253751 0.0045876605
-0.09184758 -0.02588712 0.06964356 0.073246576 -0.07913946 0.04210153 -0.059334323 -0.06530611
0.03625372 0.08565525 -0.09673678 -0.059672564 0.071836635 -0.03634484 -0.002922532 0.015443488
0.06894499 0.09911552 0.06020493 -0.07436107 -0.022958152 -0.09023884 -0.01414238 -0.06457832
-0.08885218 -0.10710501 0.004142131 0.036333308 -0.10453233 0.021506816 0.07947115 0.06048805

bias f4 [20]
00000000: 3678 dbbd a6c2 ab3d 4038 593d 16c6 913d
00000010: 947d debd dc44 78bd 33d2 533d 0a3c 9bbd
00000020: 0bc7 583d 4011 dfbd 800d 88bd e712 813c
00000030: 86ce 5a3c 8173 abbd 0e10 433d 5c7c 45bd
00000040: b9b4 9e3d 5895 6dbc b5a5 05bd cc3e 50bd
-0.10716288 0.083867356 0.05303216 0.0711786 -0.10863796 -0.060612544 0.051714133 -0.07579811
0.052924197 -0.10891962 -0.066432 0.015756084 0.013354903 -0.0837164 0.047622733 -0.0482143
0.07749314 -0.014500938 -0.032628734 -0.050841138

weight f4 [6, 20]
00000000: 6180 293e 609f 1a3e 7f1d c73d 5115 e03b
00000010: 4c8f ea3d 5a96 ce3c 22e3 4abe 02fe 4cbc
00000020: 53f5 8ebd 186c b33d d153 42be cf9f 0cbe
00000030: 33ae 3e3c 3265 cdbc bb3d 04be 2342 08be
00000040: 86c4 56be 6b00 5fbe c61a f6bd 3432 1c3e
00000050: 77e3 21be c92b 9f3d d4c3 08be 995f 23be
00000060: 0cee 373d b65b 373e 7146 61bb 1a6e 4d3e
00000070: 83bc 85bd f2d5 d1bb b45b 4b3e dd6e 0e3e
00000080: cbcc 8cbd f9ad 88bd 0909 e93d 140b 6dbd
00000090: 982c 563e 64da ba3d 6c56 2cbe f8f9 183e
000000a0: c874 77bd a461 3a3d 17a0 243e 125e 9c3d
000000b0: 7be0 c03d a067 133e 9f76 f93d e5e4 5abd
000000c0: d11d 013e 9b43 62be a3e8 013e a83c 153e
000000d0: 9520 2dbc 756f d0bd 20b5 723c 46e6 193e
000000e0: 554f a33d a31e a1bd 6aa8 393e 5197 e03d
000000f0: e7f2 043e b667 963c 1e71 133e f15b 0ebe
00000100: c381 40be 04b4 b7bd 601e 4c3e a2df 0f3e
00000110: 7a52 cb3c 0fdb 7fbd e639 583e 9c05 393e
00000120: 881a 12be 8212 d63c 0864 173e c596 bdbd
00000130: 2404 363c 39f5 643e b79e 3cbd 81e7 483e
00000140: 142c 14be 844c b93c 9f53 813d 1390 23be
00000150: 19dc 43be 9573 08be c8da f43d 7057 103e
00000160: d668 313e 4846 f3bc a9c5 50be 8dc1 9e3d
00000170: d3cc 05be fffa 423e fce8 15be 1472 3a3e
00000180: 2149 49be f7be abbd ced5 363e f36e 3f3d
00000190: e1ab 60be d203 963d c0b5 6e3d 2ae5 013e
000001a0: d89b 213e 9a59 27be 86ac 3d3e 1eeb d43d
000001b0: 2dec 0a3e 3d34 6bbd 14ee 823d 44ea ddbd
000001c0: 343b 62be d71d 11bd 2d28 08bc 671e b8bc
000001d0: 8d54 eabd 213e 1f3e 4641 febd bbd8 4dbd
0.16552879 0.15099859 0.09722423 0.0068384786 0.11453113 0.025218178 -0.19813207 -0.012511732
-0.06980386 0.087608516 -0.18977286 -0.13732837 0.011638212 -0.025072668 -0.12914173 -0.13306479
-0.20973405 -0.21777503 -0.120168254 0.15253526 -0.15809427 0.07772023 -0.13355953 -0.15954436
0.044904754 0.17906079 -0.0034374262 0.20061532 -0.065300964 -0.006403678 0.198592 0.13909478
-0.06874999 -0.06673808 0.113786764 -0.057871893 0.20915449 0.09123686 -0.16829842 0.14939106
-0.060414106 0.045503274 0.16076694 0.0763513 0.09417816 0.14394999 0.12180828 -0.053440947
0.1260903 -0.22096102 0.126864 0.1457392 -0.01056685 -0.10177509 0.014813691 0.15029249
0.07974116 -0.078671716 0.18130651 0.10966361 0.12983285 0.01836 0.1439862 -0.1390226
-0.187995 -0.08969882 0.19933462 0.14050153 0.024819601 -0.06246477 0.21115837 0.18068546
-0.14267933 0.026131872 0.14784253 -0.09257273 0.011109386 0.2235917 -0.0460498 0.19619562
-0.1446994 0.022619493 0.063147776 -0.15972929 -0.1912693 -0.13325341 0.11955792 0.14095855
0.17325148 -0.029696599 -0.20387901 0.07751761 -0.13066415 0.1904106 -0.14639658 0.1820758
-0.19656803 -0.08386033 0.17854998 0.04673667 -0.21940567 0.073249474 0.0582788 0.12685075
0.15782106 -0.16342774 0.18522844 0.103964075 0.13566656 -0.057422865 0.06393066 -0.10835698
-0.22092897 -0.035428848 -0.00831036 -0.022475434 -0.11441908 0.15551044 -0.12414794 -0.05025552

bias f4 [6]
00000000: 447e b93d cdb8 063e f48c b3bc 1e3a 47be
00000010: 627a 32be 9d6f 4fbe
0.090572864 0.13156433 -0.021917798 -0.19455764 -0.17429498 -0.20257421

weight f4 [20]
00000000: 0000 803f 0000 803f 0000 803f 0000 803f
00000010: 0000 803f 0000 803f 0000 803f 0000 803f
00000020: 0000 803f 0000 803f 0000 803f 0000 803f
00000030: 0000 803f 0000 803f 0000 803f 0000 803f
00000040: 0000 803f 0000 803f 0000 803f 0000 803f
1.0 1.0 1.0 1.0 1.0 1.0 1.0 1.0
1.0 1.0 1.0 1.0 1.0 1.0 1.0 1.0
1.0 1.0 1.0 1.0

bias f4 [20]
00000000: 0000 0000 0000 0000 0000 0000 0000 0000
00000010: 0000 0000 0000 0000 0000 0000 0000 0000
00000020: 0000 0000 0000 0000 0000 0000 0000 0000
00000030: 0000 0000 0000 0000 0000 0000 0000 0000
00000040: 0000 0000 0000 0000 0000 0000 0000 0000
0.0 0.0 0.0 0.0 0.0 0.0 0.0 0.0
0.0 0.0 0.0 0.0 0.0 0.0 0.0 0.0
0.0 0.0 0.0 0.0

running_mean f4 [20]
00000000: 0000 0000 0000 0000 0000 0000 0000 0000
00000010: 0000 0000 0000 0000 0000 0000 0000 0000
00000020: 0000 0000 0000 0000 0000 0000 0000 0000
00000030: 0000 0000 0000 0000 0000 0000 0000 0000
00000040: 0000 0000 0000 0000 0000 0000 0000 0000
0.0 0.0 0.0 0.0 0.0 0.0 0.0 0.0
0.0 0.0 0.0 0.0 0.0 0.0 0.0 0.0
0.0 0.0 0.0 0.0

running_var f4 [20]
00000000: 0000 803f 0000 803f 0000 803f 0000 803f
00000010: 0000 803f 0000 803f 0000 803f 0000 803f
00000020: 0000 803f 0000 803f 0000 803f 0000 803f
00000030: 0000 803f 0000 803f 0000 803f 0000 803f
00000040: 0000 803f 0000 803f 0000 803f 0000 803f
1.0 1.0 1.0 1.0 1.0 1.0 1.0 1.0
1.0 1.0 1.0 1.0 1.0 1.0 1.0 1.0
1.0 1.0 1.0 1.0

weight f4 [6]
00000000: 0000 803f 0000 803f 0000 803f 0000 803f
00000010: 0000 803f 0000 803f
1.0 1.0 1.0 1.0 1.0 1.0

bias f4 [6]
00000000: 0000 0000 0000 0000 0000 0000 0000 0000
00000010: 0000 0000 0000 0000
0.0 0.0 0.0 0.0 0.0 0.0

running_mean f4 [6]
00000000: 0000 0000 0000 0000 0000 0000 0000 0000
00000010: 0000 0000 0000 0000
0.0 0.0 0.0 0.0 0.0 0.0

running_var f4 [6]
00000000: 0000 803f 0000 803f 0000 803f 0000 803f
00000010: 0000 803f 0000 803f
1.0 1.0 1.0 1.0 1.0 1.0
