gptTrainers/gptModel0.pt (torch, 172434 bytes, 20 tensors)

weight f4 [16, 3, 5, 5]
00000000: f820 aebe 198b 14bf 7de6 9fbe 5229 843d
00000010: 5ceb 41bf a800 2ebf 5ddf 49bf 28c5 26bf
00000020: aa30 a8bd 5e96 7bbf 179b b9be 8279 2cbf
00000030: 4491 99be 1be7 e3bd 8fa6 93bf 7979 52be
00000040: 6bbf 4dbe a4dd 8fbe f17a 05bd 3085 49bf
00000050: 9b6d 11be 7e7c 2d3e a430 213e fac3 c63e
00000060: 3020 4a3e 1703 513e 5268 1a3f 7f96 233f
00000070: ad25 853f c57b 3f3f f62d 5e3e 0150 ed3e
00000080: d8af d73e 8489 253f 84d4 233f 467d e9bd
00000090: 8944 ed3e 6a7d d53e a1a1 943e 1ece fc3d
000000a0: a395 8e3e e7bf 263f c250 e23e 9a5c c03e
000000b0: 2042 da3d 0601 43be 2ec0 ee3d 96ce aabd
000000c0: 4184 803e dece c43d 456b dd3d 00a2 a7be
000000d0: 6e5e 233d 90e7 ae3e e21c 9c3d b3bf 613e
000000e0: c5ed 1bbf 2b09 e6be 097a 433e 78aa 46bd
000000f0: 6be3 bb3e ad44 48be ffa1 1a3e eccf d63e
00000100: 6d3c 21be 3bed 2f3f ffc1 2f3e 5156 453e
00000110: cedf 0d3e 0037 3ebe aaf1 043f 60e2 f63e
00000120: a610 1d3f d578 a43e a827 943d b03b 953c
00000130: 3127 ca3e 9cfb 903f b4b5 85bc 425d 54bd
00000140: af35 963e ea19 4d3d 1798 163f 94b7 b93d
00000150: 219c 82be 22eb babe d44e 243e 7035 ee3e
00000160: 4d4a ee3e 4ddd 1d3e d023 a9be 89c8 583e
00000170: 7824 5c3f a8d8 5b3f 0b99 0d3f 8875 44be
00000180: 3037 263e 989b 023f 24a2 7f3d 3973 07be
00000190: 84c6 24be 325c 41bf 9eeb 22bf 2d7a 46bf
000001a0: d116 f63d f942 d1be a7dc 5abf fce9 3bbf
000001b0: d03e cdbe e220 aa3c 406f a7bf 9fd5 78bf
000001c0: 58f8 19bf 0d7d 2bbf e055 bbbe ef3a afbf
000001d0: 8da3 edbe 37a2 82be fe33 b2be db08 5ebd
000001e0: 01c6 efbe 21a5 30bf 4d2e 00bf 1371 4ebf
000001f0: 6cf4 143e 5660 50bd dc66 f9be 7292 3abe
00000200: b372 0ebf 2b51 52be aa40 19be 8dc8 49bd
00000210: 745d febd ceeb c0be bac2 19be 85dc 663e
00000220: c7da 183d 4f43 333d c807 35bd 9334 2abc
00000230: 0a7a 913e c4cf 64be 174f e33d 4f14 65be
00000240: ce03 d63d ebc9 c83e 3a1a c9be e9d6 59be
00000250: 2b9e d9be 9298 aa3d 6721 c0be bb03 a0be
00000260: 75e4 b3be 250a 21be 619a 9e3d 3022 09bf
00000270: b902 c9bc 72c3 62bf 8af6 6abf 4fdc dd3d
00000280: 6ede bfbe 9fc8 cfbe 837d ebbd 1910 cebe
00000290: 57e4 253f a191 38bf dd0b 0ebf c1c8 cabd
000002a0: 0f5d 48bf 717b 2bbc bfca debe 2bd1 d8bd
000002b0: afe7 c93d 96e7 91be 930b a9bd 37e6 393f
000002c0: be7f 563f 3558 913f f556 953f b7b8 da3e
000002d0: f12c 4c3f 0d3b 0e3f eed1 4a3f e6b4 da3e
000002e0: e732 9d3e f233 aabd 47c5 ca3e 2136 9b3e
000002f0: 4d22 803e 7823 f7be b206 c6be b729 9f3d
00000300: 455f 3d3d 023f 293e 1a4e 09bf 1df9 2a3e
00000310: 4faa 333f a1aa 3a3f 6e4f a23e c255 0a3e
00000320: ed86 e53e adb1 e1be eae4 cdbe 2ee4 303d
00000330: 7ab9 743e 82d3 1f3f fe46 75be be2b 8dbe
00000340: ccbf c73c 8184 de3e ed6b df3e e970 443d
00000350: 19fd 933d df4a 823e e1b4 053f b4ed 283f
00000360: e897 113e 2435 1e3e ad21 edbd fb06 2cbe
00000370: a419 533f 2c1a ea3e a2f4 e13e 266e 8d3e
00000380: a8c3 873e 464a 29be 3bc0 bdbe 9aca 39be
00000390: cc82 d5be 7dd7 50bf b355 1dbf d71a 02bf
000003a0: 7e74 89bd 5d78 c5bd 6bc3 99be ca7d 0bbf
000003b0: 64cd fcbd 21ff 17bc d408 7c3d e31d 43bf
000003c0: 5268 bbbd 702c 4a3d 486b 1a3d e6db eb3d
000003d0: 2f81 f1be d1da 4d3e 1813 283f 4852 393f
000003e0: a35c ac3e 28ea b03e cb91 473f 6e45 8a3f
000003f0: a5e2 b03f 4073 e43f 58da 713f 4c91 303f
-0.34009528 -0.58024746 -0.31230536 0.06453194 -0.75749755 -0.6796975 -0.7885645 -0.65144587
-0.08212407 -0.9827632 -0.36251137 -0.67372906 -0.2999364 -0.11128064 -1.1535205 -0.2055415
-0.20092551 -0.28098786 -0.03258795 -0.78718853 -0.14201967 0.16942021 0.15741211 0.38821393
0.19738841 0.20411335 0.6031543 0.63901514 1.0402123 0.7479823 0.2169722 0.463501
0.42126346 0.6466296 0.6399615 -0.11400847 0.4634135 0.41697246 0.29029563 0.12344001
0.2784854 0.6513657 0.44202238 0.3757065 0.106571436 -0.19043359 0.11657749 -0.083401844
0.25100902 0.09609769 0.10811476 -0.32740784 0.039884977 0.34161043 0.076226965 0.22045784
-0.6090968 -0.4492887 0.19089521 -0.048502415 0.36696944 -0.19557448 0.15100859 0.41955507
-0.15745707 0.6872136 0.17163847 0.19271208 0.13854906 -0.18575668 0.5193125 0.48219585
0.6135353 0.32123438 0.07234126 0.018216938 0.39483026 1.1326785 -0.016321994 -0.05184675
0.29337832 0.05007354 0.5882582 0.09068218 -0.25509742 -0.36507517 0.16045696 0.46525145
0.46541062 0.15416451 -0.33035135 0.21170248 0.85993147 0.85877466 0.5531165 -0.1918546
0.1623199 0.5101867 0.06241049 -0.13227548 -0.16091353 -0.75531304 -0.63640773 -0.77530175
0.12016071 -0.4087141 -0.8549294 -0.73403907 -0.40086985 0.020767633 -1.3080826 -0.9720096
-0.6014457 -0.6698769 -0.36588955 -1.368986 -0.46413842 -0.25514385 -0.34805292 -0.054207664
-0.46830752 -0.69001967 -0.5007065 -0.8064129 0.14546365 -0.050873123 -0.48711288 -0.18219927
-0.5564377 -0.20538776 -0.14966074 -0.049263526 -0.124201685 -0.37679905 -0.15015689 0.22545059
0.037318017 0.043765362 -0.044196874 -0.010388511 0.2841342 -0.22344881 0.110990696 -0.22371028
0.104499444 0.3921655 -0.39277822 -0.21273388 -0.42503485 0.08329882 -0.37525484 -0.31252846
-0.35135236 -0.15726526 0.07744289 -0.5356779 -0.024537431 -0.88579476 -0.9178244 0.10833036
-0.37474388 -0.4058275 -0.11498549 -0.40246657 0.64801544 -0.7209721 -0.5548685 -0.09901572
-0.78266996 -0.010466442 -0.43514058 -0.105867706 0.09858643 -0.28497 -0.08254161 0.72616905
0.8378867 1.1355044 1.1667162 0.4271905 0.79756075 0.55558854 0.7922658 0.4271614
0.30702898 -0.08310689 0.39603636 0.30314735 0.2502617 -0.48269248 -0.38676983 0.07771628
0.046233434 0.16527942 -0.536348 0.16696592 0.70181745 0.7291661 0.31701225 0.13509277
0.44829503 -0.44080868 -0.4021371 0.04318636 0.23898879 0.6243211 -0.23952863 -0.27572435
0.024383448 0.43460467 0.43637028 0.047959242 0.07226009 0.25447747 0.52229124 0.65987706
0.14218104 0.15449959 -0.11578689 -0.16799538 0.82461 0.45723093 0.44131953 0.276231
0.2651646 -0.1653224 -0.37060723 -0.18143693 -0.41701353 -0.8157881 -0.6145889 -0.50822204
-0.06711672 -0.09642098 -0.30031905 -0.54488814 -0.12343863 -0.009277136 0.061531857 -0.7621748
-0.09150757 0.049358785 0.037699968 0.11516552 -0.47168872 0.20103003 0.65654135 0.72391176
0.33664426 0.34553647 0.7795684 1.0802438 1.3819166 1.7847672 0.9447379 0.68971705

bias f4 [16]
00000000: 7b30 473c 3453 9ebc 4e05 edbd b96b e7bd
00000010: 5587 053d 5f98 32bd 31b2 f1bc 372d 2fbd
00000020: 3a0c e2bd d578 48bd 8471 b3bd 0e44 c1bd
00000030: 220b 3b3c 999c 9cbd d6cd 33bd 09c6 603d
0.012157555 -0.019326784 -0.115732774 -0.11299843 0.032599766 -0.043602344 -0.029503914 -0.04276773
-0.11037488 -0.04894336 -0.08761886 -0.094368085 0.0114162285 -0.07647056 -0.043897472 0.05487636

weight f4 [16]
00000000: 9ca6 bc3f 26d6 ff3f 8519 873f aa0a 5a3f
00000010: 6fb2 8e3f 9ce5 df3f 491e 003f 2cd7 383f
00000020: 954c 5b3f a962 a33f 3a48 ac3f 9f98 853f
00000030: cc71 b63f 36da 453f fdf7 b33f ad42 0e40
1.4738345 1.9987228 1.0554663 0.8517252 1.1148204 1.7491946 0.5004621 0.72203326
0.8566373 1.2764484 1.3459542 1.0437201 1.4253478 0.7728609 1.4060055 2.2228196

bias f4 [16]
00000000: 7254 be3e 871a 3c3e 96ef 503e 465b 0dbd
00000010: 0ad2 1f3d d3fe b9be 4d74 dcbe e659 80bd
00000020: e154 0ebf 60a8 31bf ddc6 953f c186 cebe
00000030: f784 b23e d9cb 22bf 9e89 a03e 969b c43e
0.37173802 0.18369494 0.20403895 -0.034510873 0.03901867 -0.36327228 -0.4305748 -0.06267147
-0.55598265 -0.69397545 1.1701313 -0.40337184 0.3486707 -0.63592297 0.31354994 0.38399953

running_mean f4 [16]
00000000: f85d d743 a61d 9ac4 443f 3f44 2fb8 0a45
00000010: 1f28 bf44 f36b fa42 2ebc b9c4 f929 75c2
00000020: 8183 e843 8128 3ec4 f22a 4644 8c17 03c4
00000030: 2257 4844 7336 c2c4 0611 2ac4 e71c 89c4
430.73413 -1232.9265 764.9885 2219.5115 1529.2538 125.21084 -1485.8806 -61.29099
465.02737 -760.6329 792.671 -524.3679 801.36145 -1553.7015 -680.266 -1096.9032

running_var f4 [16]
00000000: 8da6 1b47 4c93 2647 e9b1 e546 c897 8447
00000010: 02b1 5d47 00bb 5446 af76 2e47 0bdf a247
00000020: e62a a047 d776 c147 99df 3047 f30e b447
00000030: 3ebd 1947 88fa 4747 60ff 8d47 af01 6447
39846.55 42643.297 29400.955 67887.56 56753.008 13614.75 44662.684 83390.086
82005.8 99053.68 45279.598 92189.9 39357.242 51194.53 72702.75 58369.684

weight f4 [32, 16, 5, 5]
00000000: 8ee0 683f 8cb1 d5bc 1494 fe3b 4417 70be
00000010: 150c 9f3e 8dd0 e33e 03be dbbd 54f5 8ebe
00000020: 78c4 8f3e 38ea 24bd 36eb acbe dccd 3bbf
00000030: 8973 afbe 8686 893f 8532 17bf 1533 29bf
00000040: 8927 063f 66af a7be 74c0 1f3f f31d 02bf
00000050: a55b 073f 7412 a23f 4ac8 293f 758c 143f
00000060: e2e3 cf3d 83b1 cabe 5741 cfbe 5688 353d
00000070: b8bd 3cbe 015a 05bc c25f 2bbe 76d5 31be
00000080: 8120 dc3c a45f 9bbe 53e5 a93e fb08 753f
00000090: 76c9 3abe 6435 22be 81a7 763d 9751 403e
000000a0: 642b 893f 2189 c2be 6c97 98bd b560 1e3e
000000b0: 82d1 203e a5ad ba3f e654 42bf 63f2 32be
000000c0: 8f56 ddbe ba81 b93d 7f28 63bf a46f cebe
000000d0: 1b1a 003e 0dbc bebd cb3d 0f3e 334b 673d
000000e0: 8dc7 273e 94fa b4be cdd7 fdbe 8db2 74be
000000f0: e5c6 34bf 5274 26bf 6f05 5abf 6187 6f3f
00000100: 3458 0c3f b633 01bf 5eed 1fbe 2258 47be
00000110: def9 3b3f b935 81be 6bab efbe 140b eebe
00000120: fe30 173f ee57 9c3e 6725 413e fcdf be3d
00000130: 7c1c 3fbf 8896 ffbe 4eca 6cbf fdd2 26bf
00000140: 587a d4be 513f 85bf 2b7c 61bf dc15 5fbf
00000150: c677 42bf 3bc5 37bf 192a a6bf 716f 8abf
00000160: 0865 673f bf75 80be 189c a0bf 3b19 64bf
00000170: 36dc 2ebf f61c 053f e9ae a43e 3004 0ebf
00000180: 8b89 b3bc a2d7 113f 0d0e d73e 7ecb 693f
00000190: c054 323d 7aab e4be ac42 dbbb 47b6 c4be
000001a0: 6405 8cbe 2e6d fa3e 9484 c8be 3598 06bf
000001b0: 265f 78be 69d1 3abe 35bd a1be 19cf a7bf
000001c0: af9b 72bf fac6 7f3e 423e 04bf 96a1 e6be
000001d0: 7ad9 50bf 05ba cabe 5938 efbe 5efa 3dbf
000001e0: d733 85bc 81d2 0c3e ce59 2f3f cffb 81bd
000001f0: 6295 633d c3b8 f83e 3dce fbba 1df2 b53e
00000200: 4521 98be 0a68 c2be 1b3a 8c3f 1aa0 133e
00000210: 6892 a03e f430 01be 6c92 ddbe 820a 603f
00000220: 5ad7 013f 88ee 63be 41bc 043f 1b6e bd3d
00000230: 6346 873f 3368 73be 631b ccbe 7d5c 983c
00000240: 459a b53e 6a77 733f 1f29 263e 3ceb 533f
00000250: e1f3 893f 2e89 823e 6de0 2d3f 3d0b 623f
00000260: fe40 033f a7b9 4c3f 1a35 57be 1cc4 503f
00000270: 8627 8c3f f07d 5f3f a1b3 bf3e fe65 f7be
00000280: 50ed 863f 069a 113f 9843 b33f f4e8 7cbe
00000290: d490 3e3e 466a 933f b062 083f d36f 563f
000002a0: bf64 263f 93f7 88be 324c a23f 6e61 4d3e
000002b0: f869 463f 1d7b 00bf 8c08 69be ec98 903e
000002c0: 24cd 263f 33f4 6a3e 1588 68be f59d 8fbe
000002d0: b462 d33e 5585 803e e7e2 5fbe 7266 90bf
000002e0: 6662 c1bf 76c4 f53e f604 e6be 669a 22bf
000002f0: b527 023f df05 a53f ce90 e13e 5584 5abf
00000300: 4398 2b3e 8b59 953f 4980 a23f 50c8 ba3e
00000310: 59f7 f0be 3ac7 a43e ad36 c83f 7dc6 0440
00000320: 7490 3a3e 7c12 de3d eca3 babd 79c0 06bf
00000330: ebdd a8be 7566 8fbd 5838 d7be e3a5 9abd
00000340: e225 c5bb 62b5 ebbe f331 f23e d358 efbe
00000350: 97ea 07bf b428 213f de29 8f3e c4ee d63e
00000360: 2cb7 70bf 0016 83bd 92f4 013f 29f1 613f
00000370: d082 643f b09c 7b3f 69fb 183f 5418 823f
00000380: a53e 853f 0a4e 9f3e f60d 06be bd46 3b3f
00000390: dc8b c53e e998 8f3e 7b1e 573e d3d1 82be
000003a0: 6189 293d 7f1e dc3e 7648 9a3e 5824 333d
000003b0: f7da 76be c796 173b a42b 74bd c746 58bf
000003c0: 6561 16be 5428 a4bc 1ea1 1c3e d17c d6bd
000003d0: a571 bebf 39f8 9d3e 06f4 a53f 3a7a 123f
000003e0: 549d cd3e acd1 03bf 6bd8 033e d1db cdbe
000003f0: ccf8 ad3f 04b0 243f 6435 553e 4c3e 153f
0.90967643 -0.026085638 0.007769117 -0.23446375 0.31063905 0.4449505 -0.10729601 -0.27921546
0.2807958 -0.04026243 -0.33773202 -0.7336099 -0.34267834 1.0744178 -0.5906146 -0.6609357
0.52404076 -0.32751006 0.62403035 -0.5082695 0.52874213 1.2661881 0.6632124 0.5802682
0.10150887 -0.39588556 -0.40479538 0.044319473 -0.18431747 -0.008139134 -0.16735747 -0.17366585
0.026870968 -0.30346406 0.33182773 0.9571683 -0.18240914 -0.1584068 0.060218338 0.18781124
1.0716367 -0.37995246 -0.074507564 0.15466578 0.15704921 1.4584242 -0.75910795 -0.17475276
-0.432301 0.090579465 -0.8873367 -0.4031955 0.12509958 -0.093132116 0.13988416 0.0564682
0.16384716 -0.35347426 -0.49578705 -0.23896237 -0.7061599 -0.6502124 -0.8516454 0.93565947
0.5482209 -0.5046953 -0.15617892 -0.19467214 0.7342814 -0.252363 -0.4681047 -0.46492827
0.5905913 0.30535835 0.18861924 0.093200654 -0.7465284 -0.49919534 -0.9249619 -0.6516569
-0.4149959 -1.0409948 -0.8808009 -0.8714273 -0.7596401 -0.71785325 -1.2981597 -1.0815259
0.90388536 -0.25089833 -1.2547636 -0.89101 -0.68304765 0.51997316 0.32164696 -0.5547514
-0.021916172 0.56969655 0.42002907 0.9132613 0.043537855 -0.44662076 -0.0066912975 -0.38420317
-0.27347863 0.48911422 -0.3916365 -0.52576 -0.24255046 -0.18243946 -0.31589666 -1.3110076
-0.94768804 0.24978247 -0.516575 -0.45045155 -0.8158184 -0.39595047 -0.46722677 -0.74210155
-0.01626007 0.13752176 0.68496406 -0.06346857 0.055562384 0.48578462 -0.0019211244 0.3553628
-0.29712883 -0.3797 1.0955232 0.14416543 0.313617 -0.1261633 -0.43275774 0.87516034
0.50719225 -0.22258961 0.5184975 0.092495166 1.0568355 -0.23770218 -0.39864644 0.01859879
0.3546926 0.95104086 0.16226624 0.82780814 1.0777551 0.25495285 0.6792057 0.882984
0.51271045 0.79970783 -0.2101635 0.8154924 1.0949562 0.8730154 0.37441733 -0.4832
1.0541172 0.56875646 1.4005003 -0.2469824 0.18609935 1.1516807 0.53275585 0.8376438
0.64997476 -0.26751384 1.2679503 0.20056698 0.77505445 -0.50187856 -0.22757167 0.2824167
0.6515677 0.22944717 -0.22708161 -0.280502 0.41286242 0.25101724 -0.218639 -1.1281264
-1.5108154 0.4800145 -0.4492566 -0.63516843 0.5084184 1.2892417 0.4405579 -0.8535817
0.16757302 1.1667951 1.26954 0.3648095 -0.4706371 0.32183248 1.5641686 2.0746148
0.18219167 0.10843369 -0.09113297 -0.5263744 -0.3298181 -0.07001964 -0.42035174 -0.07551172
-0.006016479 -0.46036822 0.47303733 -0.46747455 -0.5309233 0.62952733 0.2796163 0.4197904
-0.940295 -0.064006805 0.5076381 0.88258606 0.89262104 0.9828596 0.5975862 1.0163674
1.0409743 0.31114227 -0.13091263 0.73154813 0.38583267 0.2804635 0.21007721 -0.25550708
0.04139078 0.42992017 0.30133408 0.043735832 -0.24106966 0.0023130642 -0.05961193 -0.84483
-0.1468559 -0.020038761 0.15295836 -0.104730256 -1.4878432 0.3085344 1.2965095 0.5721775
0.40159094 -0.5149181 0.12875526 -0.4020677 1.3591552 0.6433108 0.20821148 0.5829818

bias f4 [32]
00000000: 1343 dd3d fd56 be3d 6bf1 2ebd d22d c7bc
00000010: c988 e93d ee09 0f3d 28e1 463d 8aee c4bd
00000020: 65f1 54bd 6be5 853d b5bb 5ebd a573 ac3d
00000030: 5d2a 3fbd 14e3 a43d 3b2e 233e de96 993c
00000040: 4f40 da3d 3e79 50bd bfe2 b7bd 602e ce3b
00000050: 8f0b 3bbc efb3 aebc a93d 8abd 6f91 4a3d
00000060: e649 823d 4b53 b23d 4640 1a3d 622c c13d
00000070: 0599 d93a c012 d63b 6e43 c63b 4400 c83c
0.10803809 0.092939354 -0.042710703 -0.024313841 0.11403043 0.03492158 0.04855457 -0.0961581
-0.051988024 0.06537899 -0.05437823 0.08420495 -0.04667126 0.08051124 0.15935604 0.018748697
0.10656797 -0.050896876 -0.08978795 0.0062921494 -0.01141633 -0.021326033 -0.06750042 0.049455103
0.06361751 0.08707293 0.037658952 0.094322935 0.001660139 0.006532997 0.0060505187 0.02441419

weight f4 [32]
00000000: ffc6 953f 7d55 583f ebd8 6b3f 30a0 e73f
00000010: aaaa cf3f 0196 2d40 28f2 c93f 72ff b03f
00000020: 4a24 ac3f 5b87 8e3e 94cf 933f 4f14 a93f
00000030: 205c 413e 7ea9 203f 0e74 1f40 2a85 d53f
00000040: 5e22 9e3f f2b1 b73f 0094 c33f 89cf ad3f
00000050: 9a4c cb3f 4daa 883f 1265 2140 38df 523e
00000060: 730c 0e3f d603 8e3f f33a 1f3f dd1e ec3d
00000070: 22c5 3540 8bbd 2240 a21d b13f 436a d83f
1.1701354 0.84505445 0.92127866 1.809576 1.6223958 2.7122805 1.5777025 1.3827956
1.3448575 0.27837643 1.1547723 1.3209323 0.18882799 0.62758625 2.4914584 1.6681263
1.2354238 1.435118 1.5279541 1.357896 1.5882752 1.0676972 2.5217938 0.20592964
0.55487746 1.1094921 0.62199324 0.11529324 2.840157 2.5428188 1.3837168 1.6907429

bias f4 [32]
00000000: d379 20be 6144 a4bd 1553 63be f24f d2bd
00000010: 6431 ce3e 0875 213f ee49 0e3f e55a 413f
00000020: 11ce 1240 1313 383e 8d72 5dbe d07d 913e
00000030: 3fc4 70bf 4596 423e 5529 443f d8fe 923e
00000040: eb87 2d3f 4d3a de3d 3ccc 533f ab65 cd3e
00000050: eb68 ce3c 64ea 0c3d 65d3 0a3f 5b73 8cbf
00000060: c950 bebe de76 4bbe c34a 2bbf 813e 4bbf
00000070: a514 5d3f 1f0a 5f3f 6fb9 463f 36c0 9a3e
-0.15671472 -0.08020855 -0.22199662 -0.102691546 0.40272057 0.630692 0.5558156 0.7552932
2.2938273 0.17976026 -0.21625729 0.284163 -0.9404945 0.19002636 0.7662557 0.28710055
0.6778552 0.10850964 0.8273351 0.4011663 0.025196513 0.03440322 0.5422881 -1.0972704
-0.3717101 -0.19869563 -0.6691095 -0.7939225 0.86359626 0.8712482 0.776267 0.3022477

running_mean f4 [32]
00000000: e9be 8dbf 97b8 4342 98a5 8a42 497a 8442
00000010: 116e a742 9a8a 7942 d1b3 5a42 c8f4 d441
00000020: ae21 41c1 c9f1 73c1 5899 a142 3f7f 5b41
00000030: b38c fe41 50db f540 bca8 ae41 d80f 6242
00000040: 637c 6942 acac 0441 a3c9 65c2 73fe 7f42
00000050: acc1 2142 f5b5 4942 22b4 2342 638e a942
00000060: f953 7542 a666 9842 3a68 c842 5244 a942
00000070: 234c 8342 55c7 2d42 c0f0 0842 1c8a 2742
-1.1073886 48.930264 69.323425 66.23884 83.71497 62.385353 54.675602 26.619522
-12.070723 -15.24653 80.7995 13.718566 31.8187 7.6830215 21.83239 56.515472
58.37147 8.292156 -57.44691 63.998486 40.439133 50.427692 40.92591 84.7781
61.332005 76.200485 100.20357 84.63344 65.648705 43.44466 34.235107 41.884872

running_var f4 [32]
00000000: 9d45 b543 86be 4a45 f731 9d45 2b0d 6c45
00000010: bdbc 9c45 8360 5445 672a 1d45 1990 3645
00000020: 8561 4d45 99ef 7e44 fb12 bf45 5eaf 8945
00000030: 3f8c 0446 7700 5145 94c1 af44 589c 7145
00000040: 13d6 6645 08d2 8444 f804 fe44 128a ab45
00000050: 9259 c844 815d 4945 0f5d 2d45 196c 9745
00000060: 09d6 d545 0325 9e45 756c 0546 ffc4 ec45
00000070: f79b 3c45 a7f5 2445 3f2b 1a45 f7e4 1345
362.54385 3243.9077 5030.2456 3776.823 5015.5923 3398.032 2514.6501 2921.006
3286.095 1019.7437 6114.3726 4405.921 8483.062 3344.029 1406.0493 3865.7715
3693.3796 1062.5635 2032.1553 5489.259 1602.7991 3221.844 2773.8162 4845.512
6842.7544 5060.6265 8539.114 7576.6245 3017.7478 2639.3533 2466.703 2366.3103

weight f4 [32, 32, 5, 5]
00000000: 4d5a f43f 3c60 003f 8661 cfbe 6658 2dbf
00000010: 9a66 67be 1b58 5b40 23d9 803f 42cf fc3f
00000020: b27a 0d3d e59e 8ebf a669 e43f 7bd2 6e3f
00000030: 66ab be3f 81c3 29bf f9ba 98be 7e6b 35bf
00000040: b82d c8bf 5848 473e 0f55 2b3f 9038 1e3d
00000050: cd1d 78bd 12fc 90bf 7c5d 983f f71a 99be
00000060: f90f 9fbe 4fcb bc3e 30a0 9c3e b54c cb3d
00000070: eaaf 40be 9533 6c3f a4bb 833e 129a 05bf
00000080: cd4b c13e 4b4e 50bf 7609 90bf bcdf 913e
00000090: 7d91 50bd a646 8c3d 35f8 60be 4c8f 4cbe
000000a0: 5322 3b3e f417 2ac0 062e f33e da4a 1e40
000000b0: 44d3 fb3e 9c94 df3e 768d d3be 8612 77be
000000c0: a198 ba3e db8e 76bd ca81 1cbe 4a79 4abf
000000d0: 2432 7cbe dabc f03e 9222 3cbe 04f8 a23f
000000e0: dd2a 45bf 6628 fe3e 1af9 63be f988 e73e
000000f0: fda4 0f3f 6959 01bf e593 55bd 80a0 d6be
00000100: 7d4c 653e 049a f7bf e06d 62c0 3456 a13f
00000110: 8f18 33be 9800 a63f ec0e 07bf fe85 19c0
00000120: d85d d43e f25a d03d 44dc 21be d88d 053f
00000130: df3e 9fbc f5ea dc3c f37f 1bbf c795 a33c
00000140: a426 37bf 402c 183f 4232 883e 6f9f f1be
00000150: d655 cbbd efa4 0bbf b949 0e3b fcff a7be
00000160: 3e92 27bf b533 8bbe 3254 d2be 7b5b 70bf
00000170: 2586 833f 7c4d abbe 08ee bebf 8171 c73f
00000180: e64f 48c0 0347 2fbf b047 d6be 1edf c13f
00000190: 40d9 8bbe 3225 153f 6683 423f 2ab9 f1be
000001a0: 596a 2c3f 81ab 08bf 78b6 8c3e 9ad0 043f
000001b0: b796 86bf 48fe 3ebd 1ea1 0bbf cc03 cc3e
000001c0: 4336 f9bb b1c8 dbbf 07ca 18bf c6cc 7dbf
000001d0: 8940 7cbf 466b d93f e86c e5bf c0c0 f2bf
000001e0: c525 2e3f 0a2c 50bf 87d0 0c3f fa87 4fbf
000001f0: 45c2 b53e 50db 17bf 4285 063f 3314 a83f
00000200: 5be5 24be e19c 443f bf10 3dbf fd5d 8cbf
00000210: eb0e c83e 4093 573f 979e 863f 6231 7abf
00000220: 145b 44be 72cd 463f eacf 1cbf ceeb 4e3d
00000230: 3170 7ebf fafa 27c0 a456 c2bd 7237 48bf
00000240: cded af3f 29ea bd3f 2e43 39be 6c52 c4bf
00000250: e00f 87be 8049 a2be 3e9f 2bbe 291c 89bf
00000260: 4dfb ecbd 0115 243f f524 d5bc 6707 4abf
00000270: 98b3 adbe 92fc 473f 67cd a93e a149 4cbc
00000280: 9aac cabe aa36 08be cf31 733f aad5 7a3e
00000290: f0c5 8e3e 34f3 ec3e 3e35 45c0 f407 03bf
000002a0: 797c d53e 78d9 f2be 2b0d 1a3f 665f 2fbe
000002b0: 6078 afbe 3496 28bf 38ee 233f 1b5d 80be
000002c0: d21c 61bf b7ef 033e 614c 9e3f f80f b03e
000002d0: d567 87bf 1c80 77bf 9e7a 823c afb3 f73e
000002e0: b365 f63e e52f 86bf 10bc 75bf c581 0dbe
000002f0: 1f2d 293f b9b4 803f 94a7 95be 5631 2d3e
00000300: aade 8dbf 7c90 1b3f fae8 b2bd 7eaa 1c3f
00000310: 1a5e 003f 5e2c 08be 3154 0fbf 884b c5be
00000320: f22f f63e 55b0 9a3e c106 dd3e 9cde 70bf
00000330: 9ebf a6be 2569 cb3e 91fb ce3e 8a9a f33d
00000340: 664f 80bf 7ac5 2cbf dd85 09be 425c 953e
00000350: e199 35bf d195 89bf 8fac 10bf 5031 4d3f
00000360: 9d5b 8abe 33ee 03be 3445 fa3e b6e9 f0be
00000370: 2b37 44bf cdb0 8a3d 967b a43f 2f55 303f
00000380: 33c4 cebe a178 913e 5366 7a3f 895e 2fbf
00000390: 5336 1140 625f 15c0 c0b2 033f cb97 c9bd
000003a0: 903c 74bf 3a10 d7bf d35d a23e 9bf7 6f3f
000003b0: 8a49 2cbe e892 4a3d 231b ecbf 37a9 65be
000003c0: f23e c4be e249 953e 2bc2 823f 5617 f9be
000003d0: d8df 80bf cfda 36c0 968a 3a3e 9712 313f
000003e0: 1742 783f 5261 99bf a3ab ecbe 666b 87bf
000003f0: a3ec a0be 812a 0f3f 3a74 923f 9a98 7fbd
1.9090058 0.5014684 -0.40504092 -0.6771301 -0.22597733 3.4272525 1.0066265 1.975075
0.03454084 -1.1142241 1.7844741 0.9328992 1.4896057 -0.6631394 -0.2983015 -0.70867145
-1.5638952 0.1946119 0.66926664 0.03862816 -0.060575295 -1.1326926 1.1903529 -0.29903385
-0.31066874 0.36873862 0.30590963 0.0992674 -0.18817106 0.9226621 0.25729096 -0.5218822
0.37753144 -0.81369466 -1.1252887 0.28491008 -0.05092 0.068494126 -0.21969683 -0.19976538
0.18274812 -2.657712 0.4749605 2.4733186 0.4918462 0.43668067 -0.41318864 -0.2412816
0.36444572 -0.06019483 -0.15283886 -0.7909132 -0.24628502 0.47019082 -0.18372563 1.2731938
-0.7701853 0.49640197 -0.22262993 0.4522169 0.5611113 -0.50527054 -0.052142996 -0.41919327
0.22392459 -1.9343877 -3.5379562 1.2604432 -0.17489837 1.2968931 -0.52757144 -2.3988032
0.41477847 0.101735964 -0.15806681 0.5216956 -0.019439159 0.026967505 -0.6074211 0.01996888
-0.71543336 0.5944252 0.26600844 -0.4719195 -0.09928481 -0.54548544 0.0021711423 -0.32812488
-0.6545752 -0.27187887 -0.4107986 -0.9388959 1.0275313 -0.33457553 -1.4916391 1.5581514
-3.1298766 -0.6846773 -0.41851568 1.5146215 -0.27314186 0.5825988 0.7598175 -0.4721158
0.67349774 -0.53386694 0.27482963 0.518808 -1.0514745 -0.04662922 -0.5454272 0.39846647
-0.0076053455 -1.7170621 -0.5968327 -0.99140584 -0.9853597 1.6985862 -1.792386 -1.8965073
0.6802638 -0.813172 0.5500569 -0.8106686 0.35499778 -0.5931902 0.52547085 1.3131164
-0.16103117 0.7680188 -0.7385368 -1.0966183 0.39073882 0.8420906 1.0517148 -0.977316
-0.19175369 0.77657235 -0.6125475 0.05051785 -0.9938994 -2.6246934 -0.09489182 -0.782096
1.3744446 1.4837085 -0.18092033 -1.5337653 -0.263793 -0.316967 -0.16759965 -1.0711719
-0.11571369 0.6409455 -0.026018599 -0.78917545 -0.33926082 0.78119767 0.33164522 -0.012468726
-0.3958481 -0.13302103 0.94997877 0.24495569 0.2788539 0.462793 -3.0813746 -0.5118401
0.41696528 -0.4743154 0.6017634 -0.17126235 -0.34271526 -0.6585419 0.6403537 -0.25071034
-0.879346 0.12884413 1.2367059 0.34387183 -1.0578562 -0.96679854 0.015927609 0.48379275
0.48124465 -1.0483366 -0.95990086 -0.13819034 0.66084474 1.0055152 -0.29229414 0.16913351
-1.1083577 0.6076734 -0.08735843 0.6119765 0.5014359 -0.13298175 -0.5598784 -0.38534188
0.48083454 0.30212656 0.43169215 -0.94089675 -0.32568067 0.39728656 0.40426305 0.1189471
-1.002423 -0.67488825 -0.13429971 0.2917195 -0.70937926 -1.0748845 -0.56513304 0.8015337
-0.2702302 -0.12883835 0.48880923 -0.47053307 -0.7664668 0.06772003 1.2850215 0.6887998
-0.40384063 0.28412345 0.97812384 -0.68503624 2.2689407 -2.3339467 0.51444626 -0.09843405
-0.9540491 -1.6801827 0.31712207 0.9373719 -0.16824928 0.049456507 -1.8445781 -0.22427832
-0.38329273 0.2915793 1.0215505 -0.48650616 -1.0068312 -2.857105 0.18216929 0.6916899
0.96975845 -1.1982825 -0.46224698 -1.057965 -0.3143054 0.5592423 1.144172 -0.06240139

bias f4 [32]
00000000: 94d3 85bb 541f 8b3d 8800 83bd 682d e93c
00000010: 98c9 a03d fb4f a93c 9951 ef3d ffaa 3fbb
00000020: e47c 073e a03f bbbd cea6 e43b 3a68 09be
00000030: 5923 f0bd 3105 68bd 75f7 abbd cf02 fe3c
00000040: 92ba 993d af98 c33d 6234 83bd 63ca ceb9
00000050: 9051 bebd 5f33 cdbd ed34 d03c f666 3abe
00000060: 9528 2e3e 7e7e 92bd e4e0 cf3c 7800 843d
00000070: 60ec 5f3d 7975 a0bd daca b6bc 7955 2c3e
-0.00408406 0.06793085 -0.06396586 0.028464034 0.07850951 0.02066802 0.116854854 -0.0029246209
0.13231236 -0.09142995 0.0069778925 -0.13418666 -0.11725492 -0.056645576 -0.08396808 0.031007199
0.075062886 0.095506065 -0.064064756 -0.00039442172 -0.092929006 -0.10019564 0.025415862 -0.18203339
0.17007668 -0.07153033 0.02537579 0.06445402 0.054668784 -0.07834906 -0.022313524 0.1682948

weight f4 [32]
00000000: 4c6a 6b3f 8a37 433f 45f0 873f 6d5b 1a3f
00000010: b9ba 2a3f e464 583f a380 5f3f 418a 2b3f
00000020: d561 653f 5453 583f cc9d 6d3f 76dd 323f
00000030: 8d55 203f 4fcb 4a3f a80c 443f 8b3f 2e3f
00000040: ebd8 513f 7351 883f 9c28 1f3f 04e0 3e3f
00000050: e0f5 0b3f 5e9b 753f 13f5 303f 7efc 1d3f
00000060: 9e7c 643f 297b 5f3f de36 293f 3882 293f
00000070: 836c 403f 8506 623f b13f 313f a805 063f
0.9195907 0.7625662 1.06202 0.60295755 0.66691166 0.84528947 0.8730566 0.67007834
0.89602405 0.8450215 0.92818904 0.6986917 0.6263054 0.79216474 0.7658181 0.6806571
0.81971616 1.0649856 0.6217134 0.7456057 0.5467205 0.95940197 0.69123954 0.617134
0.8925265 0.872973 0.66099346 0.66214323 0.75165576 0.882912 0.6923781 0.5235238

bias f4 [32]
00000000: 3674 3abe 3ec3 80be 344a 04be 560f 3ebe
00000010: 0ebd 1abe 590c 05bf f8a2 a1be 2352 d6bd
00000020: 0956 b2be b7fd 90bd ae51 40be 5287 d5be
00000030: 7f84 4ebe c01c c4bd 087b 04bf b51a 6bbe
00000040: 2eec 0cbe fc98 a23e b04e 70be 8d68 9d3c
00000050: 0c8e bfbe 82bf f33c 1c0e bbbe 5edf 0dbe
00000060: 0e74 37be 6620 2abe 8fd9 5cbe 5fd5 09bf
00000070: bef3 f9be 074a e7bd 7cd6 583d 0359 00bf
-0.18208393 -0.25148958 -0.12918931 -0.18560538 -0.15111181 -0.51971966 -0.31569648 -0.10464885
-0.34831265 -0.07079642 -0.18781158 -0.41704804 -0.20167731 -0.09575796 -0.5175023 -0.22959407
-0.1376197 0.31757343 -0.23467517 0.019214893 -0.3741306 0.029754404 -0.36534202 -0.13854739
-0.17915365 -0.16613922 -0.21567367 -0.53841203 -0.48818773 -0.112934165 0.052938923 -0.5013582

running_mean f4 [32]
00000000: 2b3e 14c1 a35d 4442 0a48 8ac1 8f43 d240
00000010: adcc 5f42 278b c3c2 bf5c b142 314c a742
00000020: 81c0 11c2 d352 e642 e949 9b41 e8e4 b0c1
00000030: 8a2d aa42 1351 b042 7905 7b42 da7f 02c2
00000040: 3dd9 aa42 4f18 0641 c990 5642 aa53 09c3
00000050: 7f06 2f42 ce85 c7c1 bd66 13c3 b9c5 ffc1
00000060: 3c6b 99c2 45fc c9c2 a595 15c3 dddd e5c0
00000070: c432 8342 f77d f841 98f0 75c2 84f0 93c2
-9.265178 49.091442 -17.285175 6.570747 55.94988 -97.77178 88.681145 83.64881
-36.437992 115.161766 19.411089 -22.11177 85.08894 88.15835 62.755344 -32.624855
85.42429 8.380935 53.64139 -137.32681 43.756344 -24.940334 -147.40132 -31.971544
-76.70944 -100.992714 -149.58455 -7.183333 65.59915 31.061506 -61.484955 -73.96976

running_var f4 [32]
00000000: 37c5 1c46 f3c6 3a46 e15e bb46 ccb7 0746
00000010: 0712 f845 65a6 8746 fd86 9b46 f5f1 9b46
00000020: 6e6e e946 be85 b746 a83c d046 add0 2d46
00000030: 3174 3946 cfa7 5c45 1518 bc46 0eb7 9246
00000040: 6ff3 5046 9d7a 3046 24aa cf46 7745 0047
00000050: 7797 1147 f37d 2046 caeb 4547 9b1d 8945
00000060: 0839 2c46 9744 9146 e02e fe46 bd11 4e46
00000070: 9ab7 af46 6157 2546 d701 ac46 8abe d746
10033.304 11953.737 23983.44 8685.949 7938.2534 17363.197 19907.494 19960.979
29879.215 23490.871 26654.328 11124.169 11869.048 3530.488 24076.041 18779.527
13372.858 11294.653 26581.07 32837.465 37271.465 10271.487 50667.79 4387.7007
11022.258 18594.295 32535.438 13188.435 22491.8 10581.845 22016.92 27615.27

weight f4 [6, 128]
00000000: dc5a 85bf 4362 77c0 bc84 f4bf 964f f4bf
00000010: a648 b2bf c153 f5bd 2bb3 dfbe 5cca 58bc
00000020: 057d 4fc0 db6b 93bf 9985 d6bf 1f49 93bf
00000030: da2e 0bc0 45f6 9a3e ee73 a5bf c517 48be
00000040: d032 22c0 3472 d2bf 58e8 55bf d919 c6bf
00000050: e351 56bf 71f7 27bf 42ef 69bf 36c2 94be
00000060: 2b4f d1bf 2230 47bf 027d 9bbf b576 9ebf
00000070: 43d2 7abf cbb5 f7be 45b3 7cbf 8c60 e0bf
00000080: b775 e5bf f133 0cc0 90e8 8cbf ea6e 9bbf
00000090: 2856 29c0 4061 42c0 cef2 dfbf 4f3b 91bf
000000a0: c55c 0bbf f7b4 02bf 98e0 44bf 6855 43c0
000000b0: d57b 9fbf 1ff5 a0bf 8ad9 78bf 8812 d5bf
000000c0: b0e2 d0bf d675 0ec0 ef05 c7bf f8e1 00c0
000000d0: 998a c2bf 8876 04c0 aaf1 93bf fe4f a9bf
000000e0: 11dc a3bf 6223 87bf 8b5e 02c0 dbe2 c4bd
000000f0: d28c 76bf e8ac f2bf b3cd 99bf 3d98 88bf
00000100: e015 0dc0 f498 27c0 b32d a4bf 19d2 27c0
00000110: fbc5 12c0 1e39 e8bf 4067 07c0 e45e 153d
00000120: cb02 cbbf 0a49 01c0 5855 9abf 23ae dabd
00000130: 7974 99bf 9266 18c0 6d3a 05c0 9f02 76be
00000140: 3c36 93bf 3245 9cbf 0bcb 68bf c427 a8be
00000150: 56cc 22c0 1688 9cbe f0ef 65bf a3be 16c0
00000160: 0a36 17c0 98d5 c5bd 8499 18bf 4d86 e9be
00000170: 3f8c a1bf 861f ebbf 5649 49c0 91b6 67be
00000180: e2c9 23c0 078a 11c0 6fbb 0bc0 8a70 8fbe
00000190: 58d8 97bd 5b14 b9bd e55d ccbe 5965 38c0
000001a0: b58f 33bf bc5d a9bf 28fb 01c0 b3ce 82be
000001b0: 76c3 ccbe 7be1 bbbd 7f92 84bf f594 f3be
000001c0: 47ce b0be 7ecb babe 6ad4 c0bd 946a eabf
000001d0: d901 d8be 3ade 27c0 3889 c2bf 2e71 ccbf
000001e0: 4f80 87bf 1990 a2bf 61e0 0bc0 0fe3 ac3d
000001f0: 3bab 30bf 9a1b e6bd 003b 1cc0 2c71 d8bd
00000200: b726 52bf f7b8 80c0 c095 8ebf 24ba 0ec0
00000210: bffd 0fc0 5540 42bd 1e5c c4bf b994 24be
00000220: 20a1 0cc0 52ef 3dbf e222 b2bf c4f1 79bf
00000230: 896f 24c0 9593 d03d 57b7 abbf 92aa e5bd
00000240: 39e1 30c0 a72d bebe 92a3 99bd 5d1e e8bf
00000250: f601 f9be 9a19 62bf 4bdb 8fbf bed5 32bd
00000260: 92a8 eebf 9b0e 8bbf 946b 24c0 d240 92bf
00000270: 4a4a aebf 1da8 6dbe f0de 9fbf bd3a 83bf
00000280: d637 31c0 527a e8bf c942 5abf 519f 49bf
00000290: 2855 0ac0 2dfc 2cc0 9a30 fbbc a969 a3bf
000002a0: 0e5d 41be 00f2 26bf 5aa2 16c0 23cf 0dc0
000002b0: aac8 6bbf 6e93 b1bf 09ec 3bbf bbe5 a0bf
000002c0: cf73 a8bf 3bab e4bf 0b28 a7be d960 cdbf
000002d0: 930e bdbf c104 24c0 2faa babf 9012 95bf
000002e0: 4bc7 c4bf cdc8 1cbf 1e1f 24c0 f0cb aebd
000002f0: ca9b d03c e053 91bf abbe debf 808e 8dbf
00000300: d573 01c0 6ca3 f4bf 79d9 aebf 22e5 14c0
00000310: ea03 00c0 fc8b 0cc0 bc58 37c0 a856 8dbd
00000320: 9681 a0bf 76ad 08c0 a533 11bf 7a19 1abf
00000330: 5973 6cbf a2fb 29c0 5cd6 ddbf 83b2 34bf
00000340: c8c5 b9bf 4e9e 9abf df2f 56bf 5915 16be
00000350: 8a87 29c0 4c62 1abf eae6 22bf 76b0 2cc0
00000360: b80f c1bf 6a7d 023e d9b6 2cbf 5e95 86bf
00000370: 59c3 c9bf a897 e5bf aedd 1cc0 a87c 21bf
00000380: cec1 bebf 62ec 19c0 4277 08c0 996d 2dbf
00000390: 59c6 8dbd 4c7b d3bd 4b75 54bf 471c 51c0
000003a0: e6dc 35bf ebe5 93bf c0c8 d0bf 177d 19bf
000003b0: ff14 54bf dfae d9be 687f efbf 5dce 22bf
000003c0: 0cfe 01bf 153c a5be 2dd3 13be 4938 16c0
000003d0: 6416 3fbf ce94 0ec0 3f29 cdbf 71e8 07c0
000003e0: 7553 94bf 047f 5cbf 7981 1cc0 838f c63c
000003f0: 8d66 edbe 5a24 11be 05ad 31c0 45e5 283c
-1.0418353 -3.8653724 -1.9103007 -1.9086788 -1.392842 -0.119788654 -0.43691382 -0.01323184
-3.2420056 -1.151729 -1.6759521 -1.150669 -2.1747346 0.30266014 -1.2926004 -0.19540317
-2.5343513 -1.6441102 -0.83557653 -1.5476638 -0.837187 -0.6561194 -0.91380703 -0.2905442
-1.6352285 -0.7780782 -1.2147524 -1.2379977 -0.97977084 -0.48380885 -0.98711044 -1.7529464
-1.7926549 -2.1906703 -1.1008472 -1.2143223 -2.6458836 -3.0371857 -1.7495973 -1.1346225
-0.5443843 -0.5105738 -0.769052 -3.0520878 -1.2459666 -1.2574805 -0.9720694 -1.664628
-1.631918 -2.2259421 -1.5548686 -2.013792 -1.5198547 -2.0697346 -1.1558125 -1.3227537
-1.2801534 -1.0557673 -2.0370204 -0.09613582 -0.96308625 -1.8959017 -1.20159 -1.067146
-2.2044601 -2.6187105 -1.2826446 -2.6221983 -2.2933338 -1.8142431 -2.1156769 0.036467448
-1.5860227 -2.020083 -1.2057295 -0.10677745 -1.198867 -2.3812604 -2.081691 -0.24024437
-1.1500926 -1.2208617 -0.9093482 -0.3284284 -2.5437217 -0.30572575 -0.8981924 -2.3553855
-2.3626733 -0.096598804 -0.59609246 -0.45610276 -1.2620925 -1.8368995 -3.145101 -0.22628237
-2.559197 -2.2740495 -2.183315 -0.28015548 -0.07414311 -0.090370856 -0.39915386 -2.8811858
-0.70141155 -1.323173 -2.0309544 -0.25548324 -0.39992875 -0.09173866 -1.0357207 -0.47574583
-0.34532377 -0.36483377 -0.09415515 -1.8313775 -0.4218891 -2.6229386 -1.5198126 -1.597204
-1.0586032 -1.2700225 -2.18557 0.084417455 -0.69011277 -0.11235733 -2.441101 -0.10568461
-0.82090324 -4.0225787 -1.113945 -2.2301111 -2.2498624 -0.047424633 -1.5340612 -0.16072358
-2.1973343 -0.741933 -1.3916895 -0.9763453 -2.5693076 0.10184399 -1.3415326 -0.11214174
-2.7637465 -0.37144205 -0.07501902 -1.8134266 -0.4863431 -0.88320315 -1.1238798 -0.04366087
-1.8645194 -1.0863832 -2.569066 -1.1426032 -1.3616421 -0.23208661 -1.248991 -1.02523
-2.769033 -1.8162329 -0.85258156 -0.7875872 -2.1614475 -2.7028916 -0.030662823 -1.276662
-0.18883154 -0.6521301 -2.3536592 -2.2157676 -0.92103064 -1.3873117 -0.73407036 -1.2570108
-1.3160342 -1.7864755 -0.32647738 -1.604518 -1.4770073 -2.5627902 -1.4583186 -1.164629
-1.5373319 -0.612439 -2.5643992 -0.08534992 0.025464911 -1.1353722 -1.7401937 -1.1059113
-2.0226948 -1.9112372 -1.3660117 -2.3264852 -2.000239 -2.196044 -2.864791 -0.06901294
-1.2539546 -2.1355872 -0.5671943 -0.60195124 -0.92363507 -2.6559834 -1.7331042 -0.7058489
-1.4513483 -1.2079561 -0.83666795 -0.14656581 -2.6488976 -0.6030624 -0.63633597 -2.6982703
-1.5082922 0.12743154 -0.67466503 -1.0514333 -1.576274 -1.7936907 -2.4510303 -0.63080835
-1.4902894 -2.4050527 -2.132279 -0.6774536 -0.069225974 -0.103262514 -0.82991475 -3.267351
-0.7104019 -1.155454 -1.6311264 -0.59956497 -0.8284454 -0.4251623 -1.8710756 -0.63596135
-0.5077827 -0.322724 -0.14436026 -2.3471854 -0.7464354 -2.2278323 -1.6028212 -2.123562
-1.1587969 -0.8613131 -2.4454024 0.024238354 -0.46367303 -0.14174023 -2.7761853 0.010308568

bias f4 [6]
00000000: 4767 9d3d c0bd 08be f4f9 403e 1d4b 4438
00000010: eb33 98bf 6391 76bf
0.07685714 -0.13353634 0.1884535 4.6799996e-05 -1.1890844 -0.9631559
