gptTrainers/taxi_agent.pt (torch, 11759 bytes, 6 tensors)

fc1.weight f4 [64, 1]
000000 40 03 a3 40 33 92 5b 40 a6 cf 5a 40 2f 08 f6 40
       5.0941467 3.4307983 3.4189239 7.688499
000010 2c 46 2f 40 9d 71 32 40 13 39 18 40 35 94 4b 40
       2.738658 2.7881844 2.3784835 3.1809208
000020 82 d7 5b 40 a6 a9 5b bf 3a b3 42 40 49 af 1a 40
       3.4350286 -0.8580574 3.0421891 2.4169486
000030 31 f7 20 40 8a 13 71 bf 4e e4 61 40 04 b9 60 bf
       2.5150874 -0.9417044 3.5295596 -0.8778231
000040 98 1d 35 40 d0 90 3f 40 90 c3 14 bf bf 9e 01 41
       2.8299313 2.9932137 -0.58110905 8.101256
000050 dd 32 35 40 88 83 22 be 60 65 67 bd 64 da 40 40
       2.8312294 -0.15870488 -0.056493163 3.0133295
000060 3a c4 05 bf a9 ea 41 40 da 87 27 40 bd b7 58 40
       -0.5225254 3.0299475 2.6176667 3.3862145
000070 27 5e 36 40 20 7c ad be ec a2 53 bf a0 9d 9b bd
       2.8494966 -0.33883762 -0.82670474 -0.07598424
000080 88 9d 4a 40 89 ca 5e 40 b3 bc 45 40 e5 ab 5c 40
       3.165865 3.4811118 3.0896423 3.4479916
000090 18 0e 19 40 82 57 b4 be 10 86 38 bf 71 f0 a3 40
       2.3914852 -0.35223013 -0.72079563 5.1231008
0000a0 22 86 19 bf b8 6f 35 bf 3f 83 5e 40 9f ed 3d 40
       -0.59970295 -0.70873594 3.4767606 2.9676282
0000b0 2b 10 69 40 ea 20 42 40 50 23 27 40 02 3e 55 bf
       3.6416118 3.033259 2.6115303 -0.8329774
0000c0 30 1b 1e 40 8c 65 33 40 b8 5e 05 41 4b 6b 4b 40
       2.4704094 2.803073 8.335625 3.1784236
0000d0 17 6e 19 40 0e ef 3d bf 70 3c 4c 40 52 14 78 bf
       2.3973444 -0.74192894 3.1911888 -0.96906006
0000e0 c6 63 00 40 d0 a5 94 bd a5 b5 30 40 6f ed 58 40
       2.0060897 -0.07258189 2.7610867 3.3894918
0000f0 93 f6 46 40 9d 46 ff 40 6b 97 f9 be dc 9c 57 40
       3.1087997 7.97737 -0.48748335 3.368949

fc1.bias f4 [64]
000000 46 b2 b8 42 54 aa a6 42 0b 0e aa 42 79 f6 bd 42
       92.34819 83.33267 85.02743 94.98139
000010 30 e8 a7 42 4c 63 a8 42 02 ac a9 42 03 4d aa 42
       83.95349 84.19394 84.83595 85.15041
000020 7c 0c aa 42 58 5a 39 bf 87 e6 a9 42 62 b0 a9 42
       85.02438 -0.7240348 84.95025 84.8445
000030 9b 10 a9 42 50 3a 12 bf ec fe a7 42 e0 33 06 3d
       84.53243 -0.5712023 83.997894 0.032764316
000040 3c 7b aa 42 4d 13 aa 42 d2 a3 38 bf fa 21 bf 42
       85.24069 85.0377 -0.7212497 95.56636
000050 09 41 a6 42 cc 83 ba be 60 0d 48 bd c3 40 a7 42
       83.12702 -0.36428678 -0.04884088 83.62649
000060 5a 83 51 bf 62 a8 a9 42 40 d1 aa 42 0a 54 aa 42
       -0.8184105 84.82887 85.40869 85.16414
000070 71 4a aa 42 5c dc d2 be 16 b1 21 3f 80 79 74 3d
       85.14539 -0.41183746 0.63160837 0.059686184
000080 70 79 a9 42 c8 36 aa 42 69 f9 a6 42 d2 73 a7 42
       84.73718 85.106995 83.48713 83.72621
000090 ef c4 a6 42 4e ba ac 42 8c bb 92 be fb ae b8 42
       83.384636 86.36388 -0.28658712 92.34176
0000a0 26 98 18 3f 63 6b ac 42 ed 48 a7 42 2a c0 b3 42
       0.5960716 86.20974 83.64243 89.87532
0000b0 6e f5 a8 42 22 82 a7 42 75 ed a9 42 ec c6 5e bf
       84.479355 83.754166 84.96378 -0.8702228
0000c0 be 5f a9 42 c6 8a a8 42 cb 1c bf 42 e1 41 a9 42
       84.687 84.27104 95.55624 84.62867
0000d0 cc 9d b3 42 b8 fc 79 be a0 30 a7 42 3c 9d c1 3e
       89.8082 -0.24412811 83.59497 0.37815273
0000e0 20 62 a9 42 70 46 9a be 41 23 a7 42 dc 97 a7 42
       84.69165 -0.30131865 83.568855 83.7966
0000f0 12 4e aa 42 71 a7 be 42 a7 7e ac 42 7f d6 a9 42
       85.15248 95.327034 86.24737 84.91894

fc2.weight f4 [32, 64]
000000 a0 0a f1 bb 00 30 5c 3b 58 53 b4 bd ae 4c e4 bd
       -0.007356003 0.0033597946 -0.08804959 -0.11147438
000010 20 bc d6 bc 9c 7d 62 3d 20 1c 8d 3d 04 6a 9a bd
       -0.026212752 0.05529557 0.0689013 -0.07539752
000020 14 51 48 bd 80 72 37 bd 24 d9 a8 3d f4 93 76 bd
       -0.048905447 -0.04478693 0.08244541 -0.060199693
000030 34 25 19 bd e4 7a 6a bd 78 13 42 bd 18 24 51 3d
       -0.037388995 -0.057246104 -0.047381848 0.051059812
000040 e4 9f a1 bd 78 dc 82 3c 76 23 f2 bd 30 77 9c bc
       -0.07891825 0.015974268 -0.1182317 -0.019099802
000050 80 14 27 bd 6c 02 39 bd 08 ba 5a 3d 64 49 bd bd
       -0.040791035 -0.045168325 0.05340007 -0.09242514
000060 76 ca a9 3d 96 e7 f1 3d 68 d5 04 3d 80 d1 0e bb
       0.082905695 0.1181175 0.032430083 -0.0021792352
000070 74 ea 56 bd a0 a0 07 3d 00 6e 23 3a 22 af bc bd
       -0.052469686 0.03311217 0.0006234348 -0.092130914
000080 e4 cc 37 3d 00 0a 5b 3b 76 14 f3 3d a0 f0 7e bd
       0.044873133 0.0033422709 0.11869137 -0.062241197
000090 be e5 b0 bd e4 79 ba 3d 40 e2 50 3c 30 1d 00 bc
       -0.0863757 0.0910528 0.012749255 -0.007819459
0000a0 e0 18 8e 3d e0 36 0f 3c 40 5e 8e 3d 10 ff 9f bc
       0.06938338 0.008741111 0.069515705 -0.019530803
0000b0 3c fb 21 bd b2 19 b0 3d 60 1a 26 bd f4 e1 8b 3d
       -0.039546236 0.08598651 -0.040552497 0.068302065
0000c0 08 2b 48 bd a0 72 42 3c e6 77 9b 3d 18 88 ce bc
       -0.048869163 0.011868149 0.07591228 -0.025211379
0000d0 94 fb 19 3d b8 57 e3 bd b8 66 b3 3c d0 b7 eb 3d
       0.03759344 -0.111007154 0.021899566 0.11509669
0000e0 b4 68 89 bd 90 ce c3 bd 6c d8 07 3d a8 d0 92 bd
       -0.06709424 -0.09560883 0.03316538 -0.07168704
0000f0 74 02 b2 3d 7e 0f ab bd 14 22 b9 bd 4c 82 87 3d
       0.08691874 -0.08352564 -0.09039703 0.06616649
000100 24 ea f9 3d de 6e eb 3d 00 9f f3 3c f0 b9 33 3d
       0.12202862 0.114957556 0.029738903 0.043878496
000110 a6 b3 dc bd a0 0e 7a 3c e0 b6 8d bd c0 26 2e 3b
       -0.10776453 0.015262276 -0.06919646 0.002657339
000120 fc 84 20 3d 88 08 79 bd 8a 77 e0 bd 76 74 d9 bd
       0.039189324 -0.06079915 -0.109603 -0.10617916
000130 e2 70 ca bd 28 45 55 3d 20 80 f5 3c b8 4d a8 bc
       -0.09884812 0.052067906 0.029968321 -0.020544872
000140 40 7b 62 3b 90 12 cf bc 24 15 e5 3d bc 36 be 3d
       0.0034558326 -0.025277406 0.11185673 0.092877835
000150 40 4a bb bb c4 b3 0d bd 88 8d 7c 3d 5c f1 dc bd
       -0.0057156384 -0.034595266 0.061658412 -0.10788223
000160 c8 65 a2 bd 3e 45 f3 bd c8 04 94 bd 9e 87 df bd
       -0.079295695 -0.11878441 -0.072274745 -0.10914539
000170 cc 9f ae 3d e8 04 99 bd aa e1 ee bd f8 54 ef 3c
       0.085265726 -0.07471639 -0.11664136 0.029215321
000180 54 a2 0e bd d4 14 33 bd 70 26 4f 3c 92 71 bf bd
       -0.034822777 -0.043721035 0.012643442 -0.09347834
000190 1c d0 82 3d 0c 9b 43 3d 12 fd f2 3d 82 a3 82 bd
       0.0638735 0.047755286 0.118646756 -0.06378843
0001a0 5e 10 e5 bd 58 63 cc bc 08 17 bd 3c 00 12 ca bd
       -0.111847624 -0.024949715 0.023082271 -0.098667145
0001b0 1a d9 f2 3d e8 07 6e bd 5a e3 b1 3d 24 44 e1 3d
       0.11857815 -0.05811301 0.08685942 0.10999325
0001c0 40 dd 5c bd 18 b9 c8 3d 84 4f d7 bd 74 ea 6a bd
       -0.053921938 0.09800929 -0.10513213 -0.0573525
0001d0 9a 58 d5 3d 56 4a a8 bd 12 3d df bd 00 44 17 3c
       0.1041729 -0.082173035 -0.1090032 0.009232521
0001e0 dc ff 62 3d 70 d9 fc bc 30 40 1d bd ce 9c 9d bd
       0.055419788 -0.030865401 -0.038391292 -0.07695924
0001f0 c6 e6 f4 bd 3c ad 1c bd 26 f2 f5 3d 48 5f af bd
       -0.11958079 -0.038251147 0.12009077 -0.08563095
000200 5d 9a c5 c0 c7 31 d1 3f 1a 4b d8 3f b7 a5 fc c0
       -6.175093 1.6343316 1.6897919 -7.895229
000210 a5 c4 dc 3f 76 e7 c4 3f bf 74 e9 3f 0f 7b cb 3f
       1.7247511 1.5383136 1.8238753 1.589693
000220 99 f8 b9 3f c8 86 c4 3d ff 5f d6 3f c4 29 e2 3f
       1.4528991 0.0959602 1.6748046 1.7668996
000230 41 d9 cf 3f 80 fe af 3c 29 a1 d8 3f c4 32 04 bd
       1.6238176 0.02148366 1.6924182 -0.032274976
000240 a7 d5 c7 3f 9f 14 c3 3f 38 3c 8f 3c 0b 72 07 c1
       1.5612077 1.5240668 0.01748477 -8.4653425
000250 69 ce c1 3f b0 3b fc bc 8c 65 6f 3d 31 0c d8 3f
       1.5141116 -0.03079018 0.058446452 1.687872
000260 12 d7 f4 3d f4 4e bc 3f f5 d2 d8 3f 4f 2d d3 3f
       0.11955084 1.4711595 1.6939379 1.6498202
000270 09 98 db 3f 50 e2 50 bc ec de 2a 3d 0c a9 53 3d
       1.7155772 -0.01274927 0.0417165 0.051674888
000280 2c 72 bd 3f 0c 11 cd 3f ca a4 d8 3f 61 f3 bd 3f
       1.4800467 1.6020827 1.692529 1.4839898
000290 1f fc d2 3f 43 94 30 bf 3c e1 62 3d 13 dd c5 c0
       1.6483191 -0.6897623 0.05539058 -6.1832366
0002a0 00 05 ae 3a dc e1 38 bf 48 93 cf 3f 6c 6f 82 c0
       0.0013276637 -0.72219634 1.6216822 -4.0761013
0002b0 16 40 cf 3f 52 8d c7 3f 8b 74 d9 3f b0 6b f6 bd
       1.6191432 1.5590003 1.6988691 -0.120322585
0002c0 be cc dd 3f 28 7b d7 3f 46 09 0b c1 ba 74 c2 3f
       1.7328107 1.6834459 -8.689764 1.5191872
0002d0 de 52 78 c0 5c fd 4d bd 59 d7 b9 3f 42 24 a7 bd
       -3.8800578 -0.05029045 1.4518844 -0.081612125
0002e0 f0 3a c8 3f fc df ee bd 50 5f c9 3f 9c aa d3 3f
       1.5642986 -0.116638154 1.5732212 1.6536441
0002f0 61 b7 dc 3f bb a2 05 c1 15 ce 0d bf 9e 8a d2 3f
       1.7243463 -8.352229 -0.5539258 1.6448553
000300 8f 11 c7 c0 b0 c6 d9 3f c0 a2 cb 3f 23 f0 02 c1
       -6.2208934 1.701376 1.5909042 -8.183627
000310 46 2f db 3f 17 77 e1 3f c2 09 db 3f 89 b1 c5 3f
       1.7123802 1.7614468 1.7112353 1.5444804
000320 a5 9d cb 3f 88 a9 10 bd 25 4f ce 3f 91 33 e1 3f
       1.5907484 -0.035317928 1.6117903 1.7593862
000330 97 4d e3 3f b2 39 b5 bd d2 04 c7 3f a8 43 a4 3c
       1.7758054 -0.08848895 1.5548346 0.020051792
000340 87 80 e8 3f 44 95 e2 3f 1c 04 96 bd 78 62 09 c1
       1.8164223 1.7701802 -0.073250026 -8.58654
000350 b9 9f d7 3f 68 7c b3 3c 60 83 06 bd d1 87 c6 3f
       1.6845618 0.021909907 -0.032840133 1.5510198
000360 fe 21 c8 bd 84 10 cd 3f f0 f2 e4 3f b3 c8 c7 3f
       -0.097721085 1.6020665 1.7886639 1.5608124
000370 4f 05 c9 3f a6 e0 f0 3d 06 8d ac 3d 90 02 1e 3d
       1.5704745 0.11761598 0.084253356 0.038576663
000380 7d c5 e0 3f 7d bd ce 3f 64 e1 d7 3f d5 90 c7 3f
       1.7560269 1.6151577 1.6865659 1.5591074
000390 81 27 e0 3f 7a 56 90 bf 08 62 47 bd b4 3f c4 c0
       1.7512056 -1.127639 -0.048677474 -6.1327763
0003a0 b0 f1 77 bc 39 b3 47 bf 5a 8b d1 3f 40 57 81 c0
       -0.015133306 -0.7800785 1.6370652 -4.0419006
0003b0 94 96 d2 3f c2 42 db 3f ba 21 e3 3f 88 93 a2 3c
       1.6452203 1.7129748 1.7744668 0.019845739
0003c0 39 c3 e0 3f cd 1f e8 3f 6b 3d 0a c1 48 15 c3 3f
       1.7559577 1.8134705 -8.639995 1.524087
0003d0 ea 19 6e c0 5e 19 b3 bd 42 b0 d5 3f 06 37 e9 3d
       -3.7203317 -0.08745073 1.6694415 0.11387448
0003e0 95 87 dd 3f 9c b7 53 bd be 14 c6 3f 0a 3d bf 3f
       1.7307001 -0.051688775 1.547508 1.4940503
0003f0 9f e3 d6 3f cf 10 07 c1 55 45 6f bf 9b 5f d7 3f
       1.6788214 -8.441604 -0.9346517 1.6826051

fc2.bias f4 [32]
000000 80 da 80 bc f8 48 2d 3d 6d 19 a3 42 a6 a0 a3 42
       -0.015729189 0.042305917 81.54966 81.81377
000010 d6 25 af 3d b5 d5 9b bd 17 4b ab 3d f0 9f 3e 3c
       0.085521385 -0.07609121 0.083639316 0.011634812
000020 5e eb c2 bc 5c 2c df bd 72 ba a2 3f 0d 13 a3 42
       -0.023793872 -0.10897133 1.2713149 81.53721
000030 80 e1 41 bb cc 7d a3 42 a9 02 a8 42 1f 14 a4 42
       -0.0029583871 81.7457 84.005196 82.0393
000040 f0 04 a7 bd 5c d7 9c bd 21 5d 6d 3f b7 a3 a3 42
       -0.08155239 -0.07658264 0.9272023 81.819756
000050 f7 91 a3 42 9c 83 c5 3d 59 a8 a1 42 43 ea ae 3c
       81.78509 0.09644243 80.828804 0.021351939
000060 4d 7a cd bd 58 ea fb bc 2d 9f a3 42 69 88 b6 3b
       -0.10033093 -0.030751392 81.81089 0.0055704606
000070 80 c3 3a bd 62 8d 7a 3b 80 a3 18 bb ba b3 f6 bd
       -0.0455966 0.0038231243 -0.0023290813 -0.12045999

fc3.weight f4 [6, 32]
000000 24 ef 00 be d0 5b a1 3c 8c 8d 8c 42 a6 38 8c 42
       -0.12591225 0.0196971 70.27646 70.11064
000010 c0 a6 dc 3b 49 a0 05 3e d8 d6 00 3d d8 7d 07 bd
       0.0067337453 0.13049425 0.03145489 -0.033079
000020 75 26 21 3e d2 6b c8 bd af ad 63 be d6 7a 8c 42
       0.15737326 -0.0978619 -0.22234224 70.239914
000030 f4 37 0b 3d 6d 26 8c 42 e6 ee 7a 42 73 2c 8c 42
       0.033988908 70.07505 62.7333 70.086815
000040 55 62 07 3e 3d d7 63 bd c6 39 0e bf 52 45 8c 42
       0.13221104 -0.05562519 -0.55556905 70.13539
000050 3b fd 8b 42 69 09 22 3e 01 8e 8c 42 70 b7 78 bd
       69.99459 0.15823902 70.27735 -0.060721815
000060 f3 5f fe bd 6f b7 00 3e d5 95 8c 42 98 b4 3f 3e
       -0.124206446 0.12569974 70.29264 0.18721235
000070 82 50 d0 3d 68 88 40 bd f6 c5 a5 3d e0 9b 49 bd
       0.10171606 -0.047005087 0.08094399 -0.04922092
000080 2a d9 d8 bd f0 d8 fe bc 9f 5d 4c 42 b8 2c 4c 42
       -0.10588296 -0.031109303 51.091427 51.04367
000090 2f 27 cf bd 3d cc be bd bd 28 09 3e fe 44 e7 3d
       -0.101148956 -0.09316299 0.13394447 0.11292456
0000a0 cc c9 5e 3d 81 d7 17 be a4 2c 17 bd 81 d6 4b 42
       0.054391667 -0.14828302 -0.036907807 50.959476
0000b0 00 04 d9 39 41 a5 4c 42 2a 61 2f 42 54 52 4b 42
       0.00041392446 51.16138 43.844887 50.8304
0000c0 20 7b c8 3c 10 54 15 b9 6a 87 28 3c e0 df 4b 42
       0.024472773 -0.00014241063 0.0102861915 50.968628
0000d0 b7 9b 4c 42 58 20 ac bc 70 8d 4b 42 df 7e fb bc
       51.152065 -0.021011516 50.888123 -0.030700145
0000e0 6f 52 d0 bc 28 3e c3 bc 4c a5 4b 42 ad c8 93 3d
       -0.025429932 -0.02383335 50.911423 0.0721601
0000f0 1e 8e b3 bd e3 e7 e1 3d ad 77 03 be 38 83 5e bd
       -0.08767341 0.11030557 -0.12838621 -0.05432436
000100 0b 9e 1f be c4 71 5e 3d 85 50 8d 42 fe ba 8d 42
       -0.15587632 0.054307714 70.657265 70.86522
000110 b7 ec 07 3e bf d7 a2 3b 7a b6 b2 bd 28 d2 76 3d
       0.13273893 0.0049695666 -0.08726211 0.060259014
000120 84 6b 4d bd b2 d7 fb bd bf 2e d1 be de 0e 8d 42
       -0.050151363 -0.12297 -0.40855977 70.52904
000130 a0 66 6c 3c 8a 61 8d 42 1f 73 73 42 79 a4 8d 42
       0.014428765 70.690506 60.862423 70.821236
000140 0e 26 c2 3d 34 e1 0a be 48 30 88 3e 27 97 8d 42
       0.094799146 -0.1356247 0.26599336 70.79522
000150 9f 44 8d 42 dc d8 ad bd 77 2c 8d 42 b7 41 07 be
       70.634026 -0.08488628 70.586845 -0.13208662
000160 05 ad c0 bd 20 1a 3a bc 22 c7 8d 42 05 a5 04 be
       -0.09408001 -0.011358768 70.88893 -0.12953575
000170 7a 4e 0c be ad 55 ad bd 6a 6e df 3d 7e 8c ff 3d
       -0.13701811 -0.08463607 0.10909732 0.12477969
000180 37 47 fb bd 18 f7 17 bd 79 ab 84 42 31 c9 84 42
       -0.122694425 -0.03710088 66.33491 66.39295
000190 9d 34 d2 bd b0 d0 0a bd c0 a7 29 3d 48 59 6b 3d
       -0.102639414 -0.033890426 0.041419744 0.057458192
0001a0 21 1e 20 3e ea 99 ea bd 13 36 04 3e fa e5 84 42
       0.15636493 -0.11455138 0.12911253 66.44917
0001b0 62 e5 da 3d 78 3f 85 42 3d 9a 63 42 2b de 84 42
       0.106882825 66.62396 56.900623 66.43392
0001c0 d8 5d 13 3d 3b 48 51 3d 6b 00 b9 3d be dd 84 42
       0.03597817 0.051094275 0.09033283 66.43309
0001d0 cd 0e 85 42 14 4d de bd 6d db 84 42 af 32 04 be
       66.52891 -0.10854545 66.428566 -0.1290996
0001e0 d1 c3 ab bd d0 17 a8 bd ad 1f 85 42 7e 0d 03 be
       -0.083869584 -0.08207667 66.56187 -0.12798116
0001f0 88 35 b6 3c e0 21 34 3d 59 60 02 3e 38 08 18 bd
       0.022242323 0.04397762 0.12732066 -0.037117213
000200 c0 76 2e bb 08 22 87 3d ad 0a 8c 42 6c d6 8b 42
       -0.0026621073 0.06598288 70.02085 69.91879
000210 28 f3 9b bc 20 6c f9 bc 10 9e c6 bc 43 ca 08 3e
       -0.019036844 -0.030447066 -0.024245292 0.13358407
000220 33 dd 8e bd 7e df d5 bd 24 3d 35 be 97 a4 8b 42
       -0.06975784 -0.104430184 -0.17699105 69.821465
000230 e6 45 a3 3d 3b 8f 8b 42 bd 21 70 42 53 05 8c 42
       0.079723164 69.77975 60.032948 70.0104
000240 a4 35 72 bd fb 53 68 3e 8a 5a 89 be 54 a5 8b 42
       -0.059133187 0.22688286 -0.26826888 69.82291
000250 28 99 8b 42 f0 a2 b0 bd 2b 0c 8c 42 07 f4 d7 3c
       69.79913 -0.08624828 70.023766 0.026361478
000260 7e 8e 19 3e b2 60 02 be ac 89 8b 42 93 69 db bd
       0.14995763 -0.12732199 69.76889 -0.10713496
000270 17 3a 18 3e 0c 23 0a bd 9d b9 10 3e a7 39 0f be
       0.1486591 -0.03372483 0.14133306 -0.13986836
000280 12 40 bb 3d e1 43 c2 bd 2c c0 8b 42 3b 54 8b 42
       0.0914308 -0.09485603 69.875336 69.66451
000290 e9 4d 0f be 8e 71 f2 bd 28 87 3b 3d ec ff ac bd
       -0.13994564 -0.11838065 0.045783192 -0.08447251
0002a0 ff 99 a4 bb 24 cc 19 bd 2d 3a bc bd dd be 8b 42
       -0.0050232406 -0.0375482 -0.09190784 69.87278
0002b0 ad 63 d1 bd 64 8f 8b 42 c5 b7 6f 42 fc 7f 8b 42
       -0.1022409 69.78006 59.929462 69.74997
0002c0 1e b4 9f 3d 9d 39 a7 bd 59 b5 92 be b2 a0 8b 42
       0.077980265 -0.08165286 -0.28653982 69.81386
0002d0 e3 c2 8b 42 85 8f 2d 3e 42 a3 8b 42 69 4f 22 3e
       69.88064 0.1694928 69.81886 0.15850605
0002e0 aa b0 9a bd 20 2c 98 bd 2b 47 8b 42 87 17 f2 3d
       -0.07553227 -0.07430291 69.639 0.11820894
0002f0 8f 04 20 3e 37 47 15 be 57 c1 23 be 70 e3 03 3d
       0.15626739 -0.14577948 -0.15991722 0.032199323

fc3.bias f4 [6]
000000 f7 c5 87 c2 2c 62 88 c2 89 69 88 c2 55 62 88 c2
       -67.88665 -68.19174 -68.20612 -68.192055
000010 b0 05 9a c2 f6 66 9a c2
       -77.01111 -77.201096
